<?xml version="1.0" ?>
<net name="forward-tacotron-regression" version="10">
	<layers>
		<layer id="0" name="data" type="Parameter" version="opset1">
			<data shape="1, 805, 512" element_type="f16"/>
			<output>
				<port id="0" precision="FP16" names="data">
					<dim>1</dim>
					<dim>805</dim>
					<dim>512</dim>
				</port>
			</output>
		</layer>
		<layer id="1" name="248" type="Const" version="opset1">
			<data element_type="i64" shape="3" offset="0" size="24"/>
			<output>
				<port id="0" precision="I64">
					<dim>3</dim>
				</port>
			</output>
		</layer>
		<layer id="2" name="Transpose_6" type="Transpose" version="opset1">
			<input>
				<port id="0" precision="FP16">
					<dim>1</dim>
					<dim>805</dim>
					<dim>512</dim>
				</port>
				<port id="1" precision="I64">
					<dim>3</dim>
				</port>
			</input>
			<output>
				<port id="2" precision="FP16" names="269">
					<dim>805</dim>
					<dim>1</dim>
					<dim>512</dim>
				</port>
			</output>
		</layer>
		<layer id="3" name="ConstantOfShape_5/Broadcast/FillValue" type="Const" version="opset1">
			<data element_type="f16" shape="1" offset="24" size="2"/>
			<output>
				<port id="0" precision="FP16">
					<dim>1</dim>
				</port>
			</output>
		</layer>
		<layer id="4" name="689" type="Const" version="opset1">
			<data element_type="i64" shape="1" offset="26" size="8"/>
			<output>
				<port id="0" precision="I64" names="689">
					<dim>1</dim>
				</port>
			</output>
		</layer>
		<layer id="5" name="Shape_0" type="ShapeOf" version="opset3">
			<data output_type="i64"/>
			<input>
				<port id="0" precision="FP16">
					<dim>1</dim>
					<dim>805</dim>
					<dim>512</dim>
				</port>
			</input>
			<output>
				<port id="1" precision="I64" names="259">
					<dim>3</dim>
				</port>
			</output>
		</layer>
		<layer id="6" name="Constant_1" type="Const" version="opset1">
			<data element_type="i32" shape="" offset="34" size="4"/>
			<output>
				<port id="0" precision="I32" names="260"/>
			</output>
		</layer>
		<layer id="7" name="Gather_2/axis" type="Const" version="opset1">
			<data element_type="i64" shape="" offset="38" size="8"/>
			<output>
				<port id="0" precision="I64"/>
			</output>
		</layer>
		<layer id="8" name="Gather_2284" type="Gather" version="opset7">
			<data batch_dims="0"/>
			<input>
				<port id="0" precision="I64">
					<dim>3</dim>
				</port>
				<port id="1" precision="I32"/>
				<port id="2" precision="I64"/>
			</input>
			<output>
				<port id="3" precision="I64" names="261"/>
			</output>
		</layer>
		<layer id="9" name="Unsqueeze_3/Dims" type="Const" version="opset1">
			<data element_type="i64" shape="1" offset="38" size="8"/>
			<output>
				<port id="0" precision="I64">
					<dim>1</dim>
				</port>
			</output>
		</layer>
		<layer id="10" name="Unsqueeze_3/Unsqueeze" type="Unsqueeze" version="opset1">
			<input>
				<port id="0" precision="I64"/>
				<port id="1" precision="I64">
					<dim>1</dim>
				</port>
			</input>
			<output>
				<port id="2" precision="I64" names="265">
					<dim>1</dim>
				</port>
			</output>
		</layer>
		<layer id="11" name="690" type="Const" version="opset1">
			<data element_type="i64" shape="1" offset="46" size="8"/>
			<output>
				<port id="0" precision="I64" names="690">
					<dim>1</dim>
				</port>
			</output>
		</layer>
		<layer id="12" name="Concat_4" type="Concat" version="opset1">
			<data axis="0"/>
			<input>
				<port id="0" precision="I64">
					<dim>1</dim>
				</port>
				<port id="1" precision="I64">
					<dim>1</dim>
				</port>
				<port id="2" precision="I64">
					<dim>1</dim>
				</port>
			</input>
			<output>
				<port id="3" precision="I64" names="267">
					<dim>3</dim>
				</port>
			</output>
		</layer>
		<layer id="13" name="ConstantOfShape_5/Broadcast" type="Broadcast" version="opset3">
			<data mode="numpy"/>
			<input>
				<port id="0" precision="FP16">
					<dim>1</dim>
				</port>
				<port id="1" precision="I64">
					<dim>3</dim>
				</port>
			</input>
			<output>
				<port id="2" precision="FP16" names="268">
					<dim>2</dim>
					<dim>1</dim>
					<dim>512</dim>
				</port>
			</output>
		</layer>
		<layer id="14" name="217313896" type="Const" version="opset1">
			<data element_type="i64" shape="" offset="38" size="8"/>
			<output>
				<port id="0" precision="I64"/>
			</output>
		</layer>
		<layer id="15" name="ConstantOfShape_5/Broadcast/Output_0/Data_/DecomposedBiLSTM_0" type="Split" version="opset1">
			<data num_splits="2"/>
			<input>
				<port id="0" precision="FP16">
					<dim>2</dim>
					<dim>1</dim>
					<dim>512</dim>
				</port>
				<port id="1" precision="I64"/>
			</input>
			<output>
				<port id="2" precision="FP16">
					<dim>1</dim>
					<dim>1</dim>
					<dim>512</dim>
				</port>
				<port id="3" precision="FP16">
					<dim>1</dim>
					<dim>1</dim>
					<dim>512</dim>
				</port>
			</output>
		</layer>
		<layer id="16" name="LSTM_7/Split/forward/ShapeOf" type="ShapeOf" version="opset3">
			<data output_type="i64"/>
			<input>
				<port id="0" precision="FP16">
					<dim>805</dim>
					<dim>1</dim>
					<dim>512</dim>
				</port>
			</input>
			<output>
				<port id="1" precision="I64">
					<dim>3</dim>
				</port>
			</output>
		</layer>
		<layer id="17" name="LSTM_7/Split/forward/ShapeOf/Indices224613944" type="Const" version="opset1">
			<data element_type="i32" shape="1" offset="54" size="4"/>
			<output>
				<port id="0" precision="I32">
					<dim>1</dim>
				</port>
			</output>
		</layer>
		<layer id="18" name="LSTM_7/Split/forward/ShapeOf/Axis224714151" type="Const" version="opset1">
			<data element_type="i64" shape="" offset="38" size="8"/>
			<output>
				<port id="0" precision="I64"/>
			</output>
		</layer>
		<layer id="19" name="LSTM_7/Split/forward/ShapeOf/Gather" type="Gather" version="opset7">
			<data batch_dims="0"/>
			<input>
				<port id="0" precision="I64">
					<dim>3</dim>
				</port>
				<port id="1" precision="I32">
					<dim>1</dim>
				</port>
				<port id="2" precision="I64"/>
			</input>
			<output>
				<port id="3" precision="I64">
					<dim>1</dim>
				</port>
			</output>
		</layer>
		<layer id="20" name="LSTM_7/Split/forward/HiddenStateResizeDim/value225114079" type="Const" version="opset1">
			<data element_type="i64" shape="1" offset="46" size="8"/>
			<output>
				<port id="0" precision="I64">
					<dim>1</dim>
				</port>
			</output>
		</layer>
		<layer id="21" name="LSTM_7/Split/forward/HiddenStateResizeDim" type="Concat" version="opset1">
			<data axis="0"/>
			<input>
				<port id="0" precision="I64">
					<dim>1</dim>
				</port>
				<port id="1" precision="I64">
					<dim>1</dim>
				</port>
			</input>
			<output>
				<port id="2" precision="I64">
					<dim>2</dim>
				</port>
			</output>
		</layer>
		<layer id="22" name="LSTM_7/Split/forward/HiddenStateResize" type="Reshape" version="opset1">
			<data special_zero="true"/>
			<input>
				<port id="0" precision="FP16">
					<dim>1</dim>
					<dim>1</dim>
					<dim>512</dim>
				</port>
				<port id="1" precision="I64">
					<dim>2</dim>
				</port>
			</input>
			<output>
				<port id="2" precision="FP16">
					<dim>1</dim>
					<dim>512</dim>
				</port>
			</output>
		</layer>
		<layer id="23" name="217813851" type="Const" version="opset1">
			<data element_type="i64" shape="" offset="38" size="8"/>
			<output>
				<port id="0" precision="I64"/>
			</output>
		</layer>
		<layer id="24" name="ConstantOfShape_5/Broadcast/Output_0/Data_/DecomposedBiLSTM_02179" type="Split" version="opset1">
			<data num_splits="2"/>
			<input>
				<port id="0" precision="FP16">
					<dim>2</dim>
					<dim>1</dim>
					<dim>512</dim>
				</port>
				<port id="1" precision="I64"/>
			</input>
			<output>
				<port id="2" precision="FP16">
					<dim>1</dim>
					<dim>1</dim>
					<dim>512</dim>
				</port>
				<port id="3" precision="FP16">
					<dim>1</dim>
					<dim>1</dim>
					<dim>512</dim>
				</port>
			</output>
		</layer>
		<layer id="25" name="LSTM_7/Split/forward/CellStateResize" type="Reshape" version="opset1">
			<data special_zero="true"/>
			<input>
				<port id="0" precision="FP16">
					<dim>1</dim>
					<dim>1</dim>
					<dim>512</dim>
				</port>
				<port id="1" precision="I64">
					<dim>2</dim>
				</port>
			</input>
			<output>
				<port id="2" precision="FP16">
					<dim>1</dim>
					<dim>512</dim>
				</port>
			</output>
		</layer>
		<layer id="26" name="LSTM_7/Split/forward/TensorIterator" type="TensorIterator" version="opset1">
			<port_map>
				<input axis="0" external_port_id="0" internal_layer_id="2" start="0" end="-1" stride="1" part_size="1"/>
				<input external_port_id="1" internal_layer_id="1"/>
				<input external_port_id="2" internal_layer_id="0"/>
				<output axis="0" external_port_id="3" internal_layer_id="11" start="0" end="-1" stride="1" part_size="1"/>
				<output external_port_id="4" internal_layer_id="13"/>
				<output external_port_id="5" internal_layer_id="12"/>
			</port_map>
			<back_edges>
				<edge from-layer="13" to-layer="1"/>
				<edge from-layer="12" to-layer="0"/>
			</back_edges>
			<input>
				<port id="0" precision="FP16">
					<dim>805</dim>
					<dim>1</dim>
					<dim>512</dim>
				</port>
				<port id="1" precision="FP16">
					<dim>1</dim>
					<dim>512</dim>
				</port>
				<port id="2" precision="FP16">
					<dim>1</dim>
					<dim>512</dim>
				</port>
			</input>
			<output>
				<port id="3" precision="FP16">
					<dim>805</dim>
					<dim>1</dim>
					<dim>512</dim>
				</port>
				<port id="4" precision="FP16">
					<dim>1</dim>
					<dim>512</dim>
				</port>
				<port id="5" precision="FP16">
					<dim>1</dim>
					<dim>512</dim>
				</port>
			</output>
			<body>
				<layers>
					<layer id="0" name="24" type="Parameter" version="opset1">
						<data shape="1, 512" element_type="f16"/>
						<output>
							<port id="0" precision="FP16">
								<dim>1</dim>
								<dim>512</dim>
							</port>
						</output>
					</layer>
					<layer id="1" name="22" type="Parameter" version="opset1">
						<data shape="1, 512" element_type="f16"/>
						<output>
							<port id="0" precision="FP16">
								<dim>1</dim>
								<dim>512</dim>
							</port>
						</output>
					</layer>
					<layer id="2" name="20" type="Parameter" version="opset1">
						<data shape="1, 1, 512" element_type="f16"/>
						<output>
							<port id="0" precision="FP16">
								<dim>1</dim>
								<dim>1</dim>
								<dim>512</dim>
							</port>
						</output>
					</layer>
					<layer id="3" name="7250" type="Const" version="opset1">
						<data element_type="i64" shape="1" offset="38" size="8"/>
						<output>
							<port id="0" precision="I64">
								<dim>1</dim>
							</port>
						</output>
					</layer>
					<layer id="4" name="LSTM_7/Split/forward/input_squeeze" type="Squeeze" version="opset1">
						<input>
							<port id="0" precision="FP16">
								<dim>1</dim>
								<dim>1</dim>
								<dim>512</dim>
							</port>
							<port id="1" precision="I64">
								<dim>1</dim>
							</port>
						</input>
						<output>
							<port id="2" precision="FP16">
								<dim>1</dim>
								<dim>512</dim>
							</port>
						</output>
					</layer>
					<layer id="5" name="LSTM_7/Split/forward/LSTMCell/Split197247" type="Const" version="opset1">
						<data element_type="f16" shape="2048, 512" offset="58" size="2097152"/>
						<output>
							<port id="0" precision="FP16">
								<dim>2048</dim>
								<dim>512</dim>
							</port>
						</output>
					</layer>
					<layer id="6" name="LSTM_7/Split/forward/LSTMCell/Split198256" type="Const" version="opset1">
						<data element_type="f16" shape="2048, 512" offset="2097210" size="2097152"/>
						<output>
							<port id="0" precision="FP16">
								<dim>2048</dim>
								<dim>512</dim>
							</port>
						</output>
					</layer>
					<layer id="7" name="LSTM_7/Split/forward/inport/2253" type="Const" version="opset1">
						<data element_type="f16" shape="2048" offset="4194362" size="4096"/>
						<output>
							<port id="0" precision="FP16">
								<dim>2048</dim>
							</port>
						</output>
					</layer>
					<layer id="8" name="LSTM_7/Split/forward/LSTMCell" type="LSTMCell" version="opset4">
						<data hidden_size="512" activations="sigmoid, tanh, tanh" activations_alpha="" activations_beta="" clip="0"/>
						<input>
							<port id="0" precision="FP16">
								<dim>1</dim>
								<dim>512</dim>
							</port>
							<port id="1" precision="FP16">
								<dim>1</dim>
								<dim>512</dim>
							</port>
							<port id="2" precision="FP16">
								<dim>1</dim>
								<dim>512</dim>
							</port>
							<port id="3" precision="FP16">
								<dim>2048</dim>
								<dim>512</dim>
							</port>
							<port id="4" precision="FP16">
								<dim>2048</dim>
								<dim>512</dim>
							</port>
							<port id="5" precision="FP16">
								<dim>2048</dim>
							</port>
						</input>
						<output>
							<port id="6" precision="FP16">
								<dim>1</dim>
								<dim>512</dim>
							</port>
							<port id="7" precision="FP16">
								<dim>1</dim>
								<dim>512</dim>
							</port>
						</output>
					</layer>
					<layer id="9" name="15244" type="Const" version="opset1">
						<data element_type="i64" shape="1" offset="38" size="8"/>
						<output>
							<port id="0" precision="I64">
								<dim>1</dim>
							</port>
						</output>
					</layer>
					<layer id="10" name="LSTM_7/Split/forwardoutput_unsqueeze" type="Unsqueeze" version="opset1">
						<input>
							<port id="0" precision="FP16">
								<dim>1</dim>
								<dim>512</dim>
							</port>
							<port id="1" precision="I64">
								<dim>1</dim>
							</port>
						</input>
						<output>
							<port id="2" precision="FP16">
								<dim>1</dim>
								<dim>1</dim>
								<dim>512</dim>
							</port>
						</output>
					</layer>
					<layer id="11" name="18/sink_port_0" type="Result" version="opset1">
						<input>
							<port id="0" precision="FP16">
								<dim>1</dim>
								<dim>1</dim>
								<dim>512</dim>
							</port>
						</input>
					</layer>
					<layer id="12" name="LSTM_7/Split/forward/outport/1/sink_port_0" type="Result" version="opset1">
						<input>
							<port id="0" precision="FP16">
								<dim>1</dim>
								<dim>512</dim>
							</port>
						</input>
					</layer>
					<layer id="13" name="LSTM_7/Split/forward/outport/0/sink_port_0" type="Result" version="opset1">
						<input>
							<port id="0" precision="FP16">
								<dim>1</dim>
								<dim>512</dim>
							</port>
						</input>
					</layer>
				</layers>
				<edges>
					<edge from-layer="0" from-port="0" to-layer="8" to-port="2"/>
					<edge from-layer="1" from-port="0" to-layer="8" to-port="1"/>
					<edge from-layer="2" from-port="0" to-layer="4" to-port="0"/>
					<edge from-layer="3" from-port="0" to-layer="4" to-port="1"/>
					<edge from-layer="4" from-port="2" to-layer="8" to-port="0"/>
					<edge from-layer="5" from-port="0" to-layer="8" to-port="3"/>
					<edge from-layer="6" from-port="0" to-layer="8" to-port="4"/>
					<edge from-layer="7" from-port="0" to-layer="8" to-port="5"/>
					<edge from-layer="8" from-port="6" to-layer="10" to-port="0"/>
					<edge from-layer="8" from-port="7" to-layer="12" to-port="0"/>
					<edge from-layer="8" from-port="6" to-layer="13" to-port="0"/>
					<edge from-layer="9" from-port="0" to-layer="10" to-port="1"/>
					<edge from-layer="10" from-port="2" to-layer="11" to-port="0"/>
				</edges>
			</body>
		</layer>
		<layer id="27" name="223914100" type="Const" version="opset1">
			<data element_type="i64" shape="1" offset="38" size="8"/>
			<output>
				<port id="0" precision="I64">
					<dim>1</dim>
				</port>
			</output>
		</layer>
		<layer id="28" name="LSTM_7/Split/forward/UnsqueezeNumDirections/2" type="Unsqueeze" version="opset1">
			<input>
				<port id="0" precision="FP16">
					<dim>1</dim>
					<dim>512</dim>
				</port>
				<port id="1" precision="I64">
					<dim>1</dim>
				</port>
			</input>
			<output>
				<port id="2" precision="FP16">
					<dim>1</dim>
					<dim>1</dim>
					<dim>512</dim>
				</port>
			</output>
		</layer>
		<layer id="29" name="LSTM_7/Split/reverse/ShapeOf" type="ShapeOf" version="opset3">
			<data output_type="i64"/>
			<input>
				<port id="0" precision="FP16">
					<dim>805</dim>
					<dim>1</dim>
					<dim>512</dim>
				</port>
			</input>
			<output>
				<port id="1" precision="I64">
					<dim>3</dim>
				</port>
			</output>
		</layer>
		<layer id="30" name="LSTM_7/Split/reverse/ShapeOf/Indices221613932" type="Const" version="opset1">
			<data element_type="i32" shape="1" offset="54" size="4"/>
			<output>
				<port id="0" precision="I32">
					<dim>1</dim>
				</port>
			</output>
		</layer>
		<layer id="31" name="LSTM_7/Split/reverse/ShapeOf/Axis221713881" type="Const" version="opset1">
			<data element_type="i64" shape="" offset="38" size="8"/>
			<output>
				<port id="0" precision="I64"/>
			</output>
		</layer>
		<layer id="32" name="LSTM_7/Split/reverse/ShapeOf/Gather" type="Gather" version="opset7">
			<data batch_dims="0"/>
			<input>
				<port id="0" precision="I64">
					<dim>3</dim>
				</port>
				<port id="1" precision="I32">
					<dim>1</dim>
				</port>
				<port id="2" precision="I64"/>
			</input>
			<output>
				<port id="3" precision="I64">
					<dim>1</dim>
				</port>
			</output>
		</layer>
		<layer id="33" name="LSTM_7/Split/reverse/HiddenStateResizeDim/value222114019" type="Const" version="opset1">
			<data element_type="i64" shape="1" offset="46" size="8"/>
			<output>
				<port id="0" precision="I64">
					<dim>1</dim>
				</port>
			</output>
		</layer>
		<layer id="34" name="LSTM_7/Split/reverse/HiddenStateResizeDim" type="Concat" version="opset1">
			<data axis="0"/>
			<input>
				<port id="0" precision="I64">
					<dim>1</dim>
				</port>
				<port id="1" precision="I64">
					<dim>1</dim>
				</port>
			</input>
			<output>
				<port id="2" precision="I64">
					<dim>2</dim>
				</port>
			</output>
		</layer>
		<layer id="35" name="LSTM_7/Split/reverse/HiddenStateResize" type="Reshape" version="opset1">
			<data special_zero="true"/>
			<input>
				<port id="0" precision="FP16">
					<dim>1</dim>
					<dim>1</dim>
					<dim>512</dim>
				</port>
				<port id="1" precision="I64">
					<dim>2</dim>
				</port>
			</input>
			<output>
				<port id="2" precision="FP16">
					<dim>1</dim>
					<dim>512</dim>
				</port>
			</output>
		</layer>
		<layer id="36" name="LSTM_7/Split/reverse/CellStateResize" type="Reshape" version="opset1">
			<data special_zero="true"/>
			<input>
				<port id="0" precision="FP16">
					<dim>1</dim>
					<dim>1</dim>
					<dim>512</dim>
				</port>
				<port id="1" precision="I64">
					<dim>2</dim>
				</port>
			</input>
			<output>
				<port id="2" precision="FP16">
					<dim>1</dim>
					<dim>512</dim>
				</port>
			</output>
		</layer>
		<layer id="37" name="LSTM_7/Split/reverse/TensorIterator" type="TensorIterator" version="opset1">
			<port_map>
				<input axis="0" external_port_id="0" internal_layer_id="2" start="-1" end="0" stride="-1" part_size="1"/>
				<input external_port_id="1" internal_layer_id="1"/>
				<input external_port_id="2" internal_layer_id="0"/>
				<output axis="0" external_port_id="3" internal_layer_id="11" start="-1" end="0" stride="-1" part_size="1"/>
				<output external_port_id="4" internal_layer_id="13"/>
				<output external_port_id="5" internal_layer_id="12"/>
			</port_map>
			<back_edges>
				<edge from-layer="13" to-layer="1"/>
				<edge from-layer="12" to-layer="0"/>
			</back_edges>
			<input>
				<port id="0" precision="FP16">
					<dim>805</dim>
					<dim>1</dim>
					<dim>512</dim>
				</port>
				<port id="1" precision="FP16">
					<dim>1</dim>
					<dim>512</dim>
				</port>
				<port id="2" precision="FP16">
					<dim>1</dim>
					<dim>512</dim>
				</port>
			</input>
			<output>
				<port id="3" precision="FP16">
					<dim>805</dim>
					<dim>1</dim>
					<dim>512</dim>
				</port>
				<port id="4" precision="FP16">
					<dim>1</dim>
					<dim>512</dim>
				</port>
				<port id="5" precision="FP16">
					<dim>1</dim>
					<dim>512</dim>
				</port>
			</output>
			<body>
				<layers>
					<layer id="0" name="24" type="Parameter" version="opset1">
						<data shape="1, 512" element_type="f16"/>
						<output>
							<port id="0" precision="FP16">
								<dim>1</dim>
								<dim>512</dim>
							</port>
						</output>
					</layer>
					<layer id="1" name="22" type="Parameter" version="opset1">
						<data shape="1, 512" element_type="f16"/>
						<output>
							<port id="0" precision="FP16">
								<dim>1</dim>
								<dim>512</dim>
							</port>
						</output>
					</layer>
					<layer id="2" name="20" type="Parameter" version="opset1">
						<data shape="1, 1, 512" element_type="f16"/>
						<output>
							<port id="0" precision="FP16">
								<dim>1</dim>
								<dim>1</dim>
								<dim>512</dim>
							</port>
						</output>
					</layer>
					<layer id="3" name="7250" type="Const" version="opset1">
						<data element_type="i64" shape="1" offset="38" size="8"/>
						<output>
							<port id="0" precision="I64">
								<dim>1</dim>
							</port>
						</output>
					</layer>
					<layer id="4" name="LSTM_7/Split/reverse/input_squeeze" type="Squeeze" version="opset1">
						<input>
							<port id="0" precision="FP16">
								<dim>1</dim>
								<dim>1</dim>
								<dim>512</dim>
							</port>
							<port id="1" precision="I64">
								<dim>1</dim>
							</port>
						</input>
						<output>
							<port id="2" precision="FP16">
								<dim>1</dim>
								<dim>512</dim>
							</port>
						</output>
					</layer>
					<layer id="5" name="LSTM_7/Split/reverse/LSTMCell/Split197253" type="Const" version="opset1">
						<data element_type="f16" shape="2048, 512" offset="4198458" size="2097152"/>
						<output>
							<port id="0" precision="FP16">
								<dim>2048</dim>
								<dim>512</dim>
							</port>
						</output>
					</layer>
					<layer id="6" name="LSTM_7/Split/reverse/LSTMCell/Split198256" type="Const" version="opset1">
						<data element_type="f16" shape="2048, 512" offset="6295610" size="2097152"/>
						<output>
							<port id="0" precision="FP16">
								<dim>2048</dim>
								<dim>512</dim>
							</port>
						</output>
					</layer>
					<layer id="7" name="LSTM_7/Split/reverse/inport/2247" type="Const" version="opset1">
						<data element_type="f16" shape="2048" offset="8392762" size="4096"/>
						<output>
							<port id="0" precision="FP16">
								<dim>2048</dim>
							</port>
						</output>
					</layer>
					<layer id="8" name="LSTM_7/Split/reverse/LSTMCell" type="LSTMCell" version="opset4">
						<data hidden_size="512" activations="sigmoid, tanh, tanh" activations_alpha="" activations_beta="" clip="0"/>
						<input>
							<port id="0" precision="FP16">
								<dim>1</dim>
								<dim>512</dim>
							</port>
							<port id="1" precision="FP16">
								<dim>1</dim>
								<dim>512</dim>
							</port>
							<port id="2" precision="FP16">
								<dim>1</dim>
								<dim>512</dim>
							</port>
							<port id="3" precision="FP16">
								<dim>2048</dim>
								<dim>512</dim>
							</port>
							<port id="4" precision="FP16">
								<dim>2048</dim>
								<dim>512</dim>
							</port>
							<port id="5" precision="FP16">
								<dim>2048</dim>
							</port>
						</input>
						<output>
							<port id="6" precision="FP16">
								<dim>1</dim>
								<dim>512</dim>
							</port>
							<port id="7" precision="FP16">
								<dim>1</dim>
								<dim>512</dim>
							</port>
						</output>
					</layer>
					<layer id="9" name="15244" type="Const" version="opset1">
						<data element_type="i64" shape="1" offset="38" size="8"/>
						<output>
							<port id="0" precision="I64">
								<dim>1</dim>
							</port>
						</output>
					</layer>
					<layer id="10" name="LSTM_7/Split/reverseoutput_unsqueeze" type="Unsqueeze" version="opset1">
						<input>
							<port id="0" precision="FP16">
								<dim>1</dim>
								<dim>512</dim>
							</port>
							<port id="1" precision="I64">
								<dim>1</dim>
							</port>
						</input>
						<output>
							<port id="2" precision="FP16">
								<dim>1</dim>
								<dim>1</dim>
								<dim>512</dim>
							</port>
						</output>
					</layer>
					<layer id="11" name="18/sink_port_0" type="Result" version="opset1">
						<input>
							<port id="0" precision="FP16">
								<dim>1</dim>
								<dim>1</dim>
								<dim>512</dim>
							</port>
						</input>
					</layer>
					<layer id="12" name="LSTM_7/Split/reverse/outport/1/sink_port_0" type="Result" version="opset1">
						<input>
							<port id="0" precision="FP16">
								<dim>1</dim>
								<dim>512</dim>
							</port>
						</input>
					</layer>
					<layer id="13" name="LSTM_7/Split/reverse/outport/0/sink_port_0" type="Result" version="opset1">
						<input>
							<port id="0" precision="FP16">
								<dim>1</dim>
								<dim>512</dim>
							</port>
						</input>
					</layer>
				</layers>
				<edges>
					<edge from-layer="0" from-port="0" to-layer="8" to-port="2"/>
					<edge from-layer="1" from-port="0" to-layer="8" to-port="1"/>
					<edge from-layer="2" from-port="0" to-layer="4" to-port="0"/>
					<edge from-layer="3" from-port="0" to-layer="4" to-port="1"/>
					<edge from-layer="4" from-port="2" to-layer="8" to-port="0"/>
					<edge from-layer="5" from-port="0" to-layer="8" to-port="3"/>
					<edge from-layer="6" from-port="0" to-layer="8" to-port="4"/>
					<edge from-layer="7" from-port="0" to-layer="8" to-port="5"/>
					<edge from-layer="8" from-port="6" to-layer="10" to-port="0"/>
					<edge from-layer="8" from-port="7" to-layer="12" to-port="0"/>
					<edge from-layer="8" from-port="6" to-layer="13" to-port="0"/>
					<edge from-layer="9" from-port="0" to-layer="10" to-port="1"/>
					<edge from-layer="10" from-port="2" to-layer="11" to-port="0"/>
				</edges>
			</body>
		</layer>
		<layer id="38" name="220913887" type="Const" version="opset1">
			<data element_type="i64" shape="1" offset="38" size="8"/>
			<output>
				<port id="0" precision="I64">
					<dim>1</dim>
				</port>
			</output>
		</layer>
		<layer id="39" name="LSTM_7/Split/reverse/UnsqueezeNumDirections/2" type="Unsqueeze" version="opset1">
			<input>
				<port id="0" precision="FP16">
					<dim>1</dim>
					<dim>512</dim>
				</port>
				<port id="1" precision="I64">
					<dim>1</dim>
				</port>
			</input>
			<output>
				<port id="2" precision="FP16">
					<dim>1</dim>
					<dim>1</dim>
					<dim>512</dim>
				</port>
			</output>
		</layer>
		<layer id="40" name="LSTM_7/FinalConcat/CellState" type="Concat" version="opset1">
			<data axis="0"/>
			<input>
				<port id="0" precision="FP16">
					<dim>1</dim>
					<dim>1</dim>
					<dim>512</dim>
				</port>
				<port id="1" precision="FP16">
					<dim>1</dim>
					<dim>1</dim>
					<dim>512</dim>
				</port>
			</input>
			<output>
				<port id="2" precision="FP16">
					<dim>2</dim>
					<dim>1</dim>
					<dim>512</dim>
				</port>
			</output>
		</layer>
		<layer id="41" name="LSTM_7/FinalConcat/CellState/sink_port_0" type="Result" version="opset1">
			<input>
				<port id="0" precision="FP16">
					<dim>2</dim>
					<dim>1</dim>
					<dim>512</dim>
				</port>
			</input>
		</layer>
		<layer id="42" name="223513821" type="Const" version="opset1">
			<data element_type="i64" shape="1" offset="38" size="8"/>
			<output>
				<port id="0" precision="I64">
					<dim>1</dim>
				</port>
			</output>
		</layer>
		<layer id="43" name="LSTM_7/Split/forward/UnsqueezeNumDirections/1" type="Unsqueeze" version="opset1">
			<input>
				<port id="0" precision="FP16">
					<dim>1</dim>
					<dim>512</dim>
				</port>
				<port id="1" precision="I64">
					<dim>1</dim>
				</port>
			</input>
			<output>
				<port id="2" precision="FP16">
					<dim>1</dim>
					<dim>1</dim>
					<dim>512</dim>
				</port>
			</output>
		</layer>
		<layer id="44" name="220514064" type="Const" version="opset1">
			<data element_type="i64" shape="1" offset="38" size="8"/>
			<output>
				<port id="0" precision="I64">
					<dim>1</dim>
				</port>
			</output>
		</layer>
		<layer id="45" name="LSTM_7/Split/reverse/UnsqueezeNumDirections/1" type="Unsqueeze" version="opset1">
			<input>
				<port id="0" precision="FP16">
					<dim>1</dim>
					<dim>512</dim>
				</port>
				<port id="1" precision="I64">
					<dim>1</dim>
				</port>
			</input>
			<output>
				<port id="2" precision="FP16">
					<dim>1</dim>
					<dim>1</dim>
					<dim>512</dim>
				</port>
			</output>
		</layer>
		<layer id="46" name="LSTM_7/FinalConcat/HiddenState" type="Concat" version="opset1">
			<data axis="0"/>
			<input>
				<port id="0" precision="FP16">
					<dim>1</dim>
					<dim>1</dim>
					<dim>512</dim>
				</port>
				<port id="1" precision="FP16">
					<dim>1</dim>
					<dim>1</dim>
					<dim>512</dim>
				</port>
			</input>
			<output>
				<port id="2" precision="FP16">
					<dim>2</dim>
					<dim>1</dim>
					<dim>512</dim>
				</port>
			</output>
		</layer>
		<layer id="47" name="LSTM_7/FinalConcat/HiddenState/sink_port_0" type="Result" version="opset1">
			<input>
				<port id="0" precision="FP16">
					<dim>2</dim>
					<dim>1</dim>
					<dim>512</dim>
				</port>
			</input>
		</layer>
		<layer id="48" name="223113668" type="Const" version="opset1">
			<data element_type="i64" shape="1" offset="8396858" size="8"/>
			<output>
				<port id="0" precision="I64">
					<dim>1</dim>
				</port>
			</output>
		</layer>
		<layer id="49" name="LSTM_7/Split/forward/UnsqueezeNumDirections/0" type="Unsqueeze" version="opset1">
			<input>
				<port id="0" precision="FP16">
					<dim>805</dim>
					<dim>1</dim>
					<dim>512</dim>
				</port>
				<port id="1" precision="I64">
					<dim>1</dim>
				</port>
			</input>
			<output>
				<port id="2" precision="FP16">
					<dim>805</dim>
					<dim>1</dim>
					<dim>1</dim>
					<dim>512</dim>
				</port>
			</output>
		</layer>
		<layer id="50" name="220113752" type="Const" version="opset1">
			<data element_type="i64" shape="1" offset="8396858" size="8"/>
			<output>
				<port id="0" precision="I64">
					<dim>1</dim>
				</port>
			</output>
		</layer>
		<layer id="51" name="LSTM_7/Split/reverse/UnsqueezeNumDirections/0" type="Unsqueeze" version="opset1">
			<input>
				<port id="0" precision="FP16">
					<dim>805</dim>
					<dim>1</dim>
					<dim>512</dim>
				</port>
				<port id="1" precision="I64">
					<dim>1</dim>
				</port>
			</input>
			<output>
				<port id="2" precision="FP16">
					<dim>805</dim>
					<dim>1</dim>
					<dim>1</dim>
					<dim>512</dim>
				</port>
			</output>
		</layer>
		<layer id="52" name="LSTM_7/FinalConcat/Data" type="Concat" version="opset1">
			<data axis="1"/>
			<input>
				<port id="0" precision="FP16">
					<dim>805</dim>
					<dim>1</dim>
					<dim>1</dim>
					<dim>512</dim>
				</port>
				<port id="1" precision="FP16">
					<dim>805</dim>
					<dim>1</dim>
					<dim>1</dim>
					<dim>512</dim>
				</port>
			</input>
			<output>
				<port id="2" precision="FP16" names="386">
					<dim>805</dim>
					<dim>2</dim>
					<dim>1</dim>
					<dim>512</dim>
				</port>
			</output>
		</layer>
		<layer id="53" name="249" type="Const" version="opset1">
			<data element_type="i64" shape="4" offset="8396866" size="32"/>
			<output>
				<port id="0" precision="I64">
					<dim>4</dim>
				</port>
			</output>
		</layer>
		<layer id="54" name="Transpose_8" type="Transpose" version="opset1">
			<input>
				<port id="0" precision="FP16">
					<dim>805</dim>
					<dim>2</dim>
					<dim>1</dim>
					<dim>512</dim>
				</port>
				<port id="1" precision="I64">
					<dim>4</dim>
				</port>
			</input>
			<output>
				<port id="2" precision="FP16" names="389">
					<dim>805</dim>
					<dim>1</dim>
					<dim>2</dim>
					<dim>512</dim>
				</port>
			</output>
		</layer>
		<layer id="55" name="Constant_9" type="Const" version="opset1">
			<data element_type="i64" shape="3" offset="8396898" size="24"/>
			<output>
				<port id="0" precision="I64" names="390">
					<dim>3</dim>
				</port>
			</output>
		</layer>
		<layer id="56" name="Reshape_10" type="Reshape" version="opset1">
			<data special_zero="true"/>
			<input>
				<port id="0" precision="FP16">
					<dim>805</dim>
					<dim>1</dim>
					<dim>2</dim>
					<dim>512</dim>
				</port>
				<port id="1" precision="I64">
					<dim>3</dim>
				</port>
			</input>
			<output>
				<port id="2" precision="FP16" names="391">
					<dim>805</dim>
					<dim>1</dim>
					<dim>1024</dim>
				</port>
			</output>
		</layer>
		<layer id="57" name="243" type="Const" version="opset1">
			<data element_type="i64" shape="3" offset="0" size="24"/>
			<output>
				<port id="0" precision="I64">
					<dim>3</dim>
				</port>
			</output>
		</layer>
		<layer id="58" name="Transpose_11" type="Transpose" version="opset1">
			<input>
				<port id="0" precision="FP16">
					<dim>805</dim>
					<dim>1</dim>
					<dim>1024</dim>
				</port>
				<port id="1" precision="I64">
					<dim>3</dim>
				</port>
			</input>
			<output>
				<port id="2" precision="FP16" names="392">
					<dim>1</dim>
					<dim>805</dim>
					<dim>1024</dim>
				</port>
			</output>
		</layer>
		<layer id="59" name="734" type="Const" version="opset1">
			<data element_type="f16" shape="80, 1024" offset="8396922" size="163840"/>
			<output>
				<port id="0" precision="FP16" names="734">
					<dim>80</dim>
					<dim>1024</dim>
				</port>
			</output>
		</layer>
		<layer id="60" name="MatMul_12" type="MatMul" version="opset1">
			<data transpose_a="false" transpose_b="true"/>
			<input>
				<port id="0" precision="FP16">
					<dim>1</dim>
					<dim>805</dim>
					<dim>1024</dim>
				</port>
				<port id="1" precision="FP16">
					<dim>80</dim>
					<dim>1024</dim>
				</port>
			</input>
			<output>
				<port id="2" precision="FP16" names="394">
					<dim>1</dim>
					<dim>805</dim>
					<dim>80</dim>
				</port>
			</output>
		</layer>
		<layer id="61" name="model.lin.bias" type="Const" version="opset1">
			<data element_type="f16" shape="1, 1, 80" offset="8560762" size="160"/>
			<output>
				<port id="0" precision="FP16" names="model.lin.bias">
					<dim>1</dim>
					<dim>1</dim>
					<dim>80</dim>
				</port>
			</output>
		</layer>
		<layer id="62" name="Add_13" type="Add" version="opset1">
			<data auto_broadcast="numpy"/>
			<input>
				<port id="0" precision="FP16">
					<dim>1</dim>
					<dim>805</dim>
					<dim>80</dim>
				</port>
				<port id="1" precision="FP16">
					<dim>1</dim>
					<dim>1</dim>
					<dim>80</dim>
				</port>
			</input>
			<output>
				<port id="2" precision="FP16" names="395">
					<dim>1</dim>
					<dim>805</dim>
					<dim>80</dim>
				</port>
			</output>
		</layer>
		<layer id="63" name="244" type="Const" version="opset1">
			<data element_type="i64" shape="3" offset="8560922" size="24"/>
			<output>
				<port id="0" precision="I64">
					<dim>3</dim>
				</port>
			</output>
		</layer>
		<layer id="64" name="Transpose_14" type="Transpose" version="opset1">
			<input>
				<port id="0" precision="FP16">
					<dim>1</dim>
					<dim>805</dim>
					<dim>80</dim>
				</port>
				<port id="1" precision="I64">
					<dim>3</dim>
				</port>
			</input>
			<output>
				<port id="2" precision="FP16" names="396">
					<dim>1</dim>
					<dim>80</dim>
					<dim>805</dim>
				</port>
			</output>
		</layer>
		<layer id="65" name="model.postnet.cbhg.conv1d_bank.0.conv.weight" type="Const" version="opset1">
			<data element_type="f16" shape="256, 80, 1" offset="8560946" size="40960"/>
			<output>
				<port id="0" precision="FP16" names="model.postnet.cbhg.conv1d_bank.0.conv.weight">
					<dim>256</dim>
					<dim>80</dim>
					<dim>1</dim>
				</port>
			</output>
		</layer>
		<layer id="66" name="Conv_18" type="Convolution" version="opset1">
			<data strides="1" dilations="1" pads_begin="0" pads_end="0" auto_pad="explicit"/>
			<input>
				<port id="0" precision="FP16">
					<dim>1</dim>
					<dim>80</dim>
					<dim>805</dim>
				</port>
				<port id="1" precision="FP16">
					<dim>256</dim>
					<dim>80</dim>
					<dim>1</dim>
				</port>
			</input>
			<output>
				<port id="2" precision="FP16" names="400">
					<dim>1</dim>
					<dim>256</dim>
					<dim>805</dim>
				</port>
			</output>
		</layer>
		<layer id="67" name="Relu_19" type="ReLU" version="opset1">
			<input>
				<port id="0" precision="FP16">
					<dim>1</dim>
					<dim>256</dim>
					<dim>805</dim>
				</port>
			</input>
			<output>
				<port id="1" precision="FP16" names="401">
					<dim>1</dim>
					<dim>256</dim>
					<dim>805</dim>
				</port>
			</output>
		</layer>
		<layer id="68" name="data_mul_56735677" type="Const" version="opset1">
			<data element_type="f16" shape="1, 256, 1" offset="8601906" size="512"/>
			<output>
				<port id="0" precision="FP16">
					<dim>1</dim>
					<dim>256</dim>
					<dim>1</dim>
				</port>
			</output>
		</layer>
		<layer id="69" name="BatchNormalization_20/mean/Fused_Mul_" type="Multiply" version="opset1">
			<data auto_broadcast="numpy"/>
			<input>
				<port id="0" precision="FP16">
					<dim>1</dim>
					<dim>256</dim>
					<dim>805</dim>
				</port>
				<port id="1" precision="FP16">
					<dim>1</dim>
					<dim>256</dim>
					<dim>1</dim>
				</port>
			</input>
			<output>
				<port id="2" precision="FP16">
					<dim>1</dim>
					<dim>256</dim>
					<dim>805</dim>
				</port>
			</output>
		</layer>
		<layer id="70" name="data_add_56745679" type="Const" version="opset1">
			<data element_type="f16" shape="1, 256, 1" offset="8602418" size="512"/>
			<output>
				<port id="0" precision="FP16">
					<dim>1</dim>
					<dim>256</dim>
					<dim>1</dim>
				</port>
			</output>
		</layer>
		<layer id="71" name="BatchNormalization_20/variance/Fused_Add_" type="Add" version="opset1">
			<data auto_broadcast="numpy"/>
			<input>
				<port id="0" precision="FP16">
					<dim>1</dim>
					<dim>256</dim>
					<dim>805</dim>
				</port>
				<port id="1" precision="FP16">
					<dim>1</dim>
					<dim>256</dim>
					<dim>1</dim>
				</port>
			</input>
			<output>
				<port id="2" precision="FP16" names="402">
					<dim>1</dim>
					<dim>256</dim>
					<dim>805</dim>
				</port>
			</output>
		</layer>
		<layer id="72" name="Slice_23/Concat301514103" type="Const" version="opset1">
			<data element_type="i64" shape="3" offset="8602930" size="24"/>
			<output>
				<port id="0" precision="I64">
					<dim>3</dim>
				</port>
			</output>
		</layer>
		<layer id="73" name="Slice_23/Const3009301013854" type="Const" version="opset1">
			<data element_type="i64" shape="1" offset="38" size="8"/>
			<output>
				<port id="0" precision="I64">
					<dim>1</dim>
				</port>
			</output>
		</layer>
		<layer id="74" name="Slice_23/Const3011301214016" type="Const" version="opset1">
			<data element_type="i64" shape="1" offset="38" size="8"/>
			<output>
				<port id="0" precision="I64">
					<dim>1</dim>
				</port>
			</output>
		</layer>
		<layer id="75" name="Shape_15" type="ShapeOf" version="opset3">
			<data output_type="i64"/>
			<input>
				<port id="0" precision="FP16">
					<dim>1</dim>
					<dim>80</dim>
					<dim>805</dim>
				</port>
			</input>
			<output>
				<port id="1" precision="I64" names="397">
					<dim>3</dim>
				</port>
			</output>
		</layer>
		<layer id="76" name="Constant_16" type="Const" version="opset1">
			<data element_type="i32" shape="" offset="8602954" size="4"/>
			<output>
				<port id="0" precision="I32" names="398"/>
			</output>
		</layer>
		<layer id="77" name="Gather_17/axis" type="Const" version="opset1">
			<data element_type="i64" shape="" offset="38" size="8"/>
			<output>
				<port id="0" precision="I64"/>
			</output>
		</layer>
		<layer id="78" name="Gather_17282" type="Gather" version="opset7">
			<data batch_dims="0"/>
			<input>
				<port id="0" precision="I64">
					<dim>3</dim>
				</port>
				<port id="1" precision="I32"/>
				<port id="2" precision="I64"/>
			</input>
			<output>
				<port id="3" precision="I64" names="399"/>
			</output>
		</layer>
		<layer id="79" name="Unsqueeze_21/Dims" type="Const" version="opset1">
			<data element_type="i64" shape="1" offset="38" size="8"/>
			<output>
				<port id="0" precision="I64">
					<dim>1</dim>
				</port>
			</output>
		</layer>
		<layer id="80" name="Unsqueeze_21/Unsqueeze" type="Unsqueeze" version="opset1">
			<input>
				<port id="0" precision="I64"/>
				<port id="1" precision="I64">
					<dim>1</dim>
				</port>
			</input>
			<output>
				<port id="2" precision="I64" names="406">
					<dim>1</dim>
				</port>
			</output>
		</layer>
		<layer id="81" name="Slice_23/Clamp2994" type="Clamp" version="opset1">
			<data min="-2147483648" max="2147483647"/>
			<input>
				<port id="0" precision="I64">
					<dim>1</dim>
				</port>
			</input>
			<output>
				<port id="1" precision="I64">
					<dim>1</dim>
				</port>
			</output>
		</layer>
		<layer id="82" name="Slice_23/Gather3002_input_port_1/value300414130" type="Const" version="opset1">
			<data element_type="i32" shape="1" offset="34" size="4"/>
			<output>
				<port id="0" precision="I32">
					<dim>1</dim>
				</port>
			</output>
		</layer>
		<layer id="83" name="Slice_23/Gather3002_input_port_2/value300614013" type="Const" version="opset1">
			<data element_type="i64" shape="" offset="38" size="8"/>
			<output>
				<port id="0" precision="I64"/>
			</output>
		</layer>
		<layer id="84" name="Slice_23/Gather3002" type="Gather" version="opset7">
			<data batch_dims="0"/>
			<input>
				<port id="0" precision="I64">
					<dim>1</dim>
				</port>
				<port id="1" precision="I32">
					<dim>1</dim>
				</port>
				<port id="2" precision="I64"/>
			</input>
			<output>
				<port id="3" precision="I64">
					<dim>1</dim>
				</port>
			</output>
		</layer>
		<layer id="85" name="Slice_23/End" type="Concat" version="opset1">
			<data axis="0"/>
			<input>
				<port id="0" precision="I64">
					<dim>1</dim>
				</port>
				<port id="1" precision="I64">
					<dim>1</dim>
				</port>
				<port id="2" precision="I64">
					<dim>1</dim>
				</port>
			</input>
			<output>
				<port id="3" precision="I64">
					<dim>3</dim>
				</port>
			</output>
		</layer>
		<layer id="86" name="Slice_23/Strides301714043" type="Const" version="opset1">
			<data element_type="i64" shape="3" offset="8602958" size="24"/>
			<output>
				<port id="0" precision="I64">
					<dim>3</dim>
				</port>
			</output>
		</layer>
		<layer id="87" name="Slice_23" type="StridedSlice" version="opset1">
			<data begin_mask="1, 1, 0" end_mask="1, 1, 0" new_axis_mask="0, 0, 0" shrink_axis_mask="0, 0, 0" ellipsis_mask="0, 0, 0"/>
			<input>
				<port id="0" precision="FP16">
					<dim>1</dim>
					<dim>256</dim>
					<dim>805</dim>
				</port>
				<port id="1" precision="I64">
					<dim>3</dim>
				</port>
				<port id="2" precision="I64">
					<dim>3</dim>
				</port>
				<port id="3" precision="I64">
					<dim>3</dim>
				</port>
			</input>
			<output>
				<port id="4" precision="FP16" names="409">
					<dim>1</dim>
					<dim>256</dim>
					<dim>805</dim>
				</port>
			</output>
		</layer>
		<layer id="88" name="model.postnet.cbhg.conv1d_bank.1.conv.weight" type="Const" version="opset1">
			<data element_type="f16" shape="256, 80, 2" offset="8602982" size="81920"/>
			<output>
				<port id="0" precision="FP16" names="model.postnet.cbhg.conv1d_bank.1.conv.weight">
					<dim>256</dim>
					<dim>80</dim>
					<dim>2</dim>
				</port>
			</output>
		</layer>
		<layer id="89" name="Conv_24" type="Convolution" version="opset1">
			<data strides="1" dilations="1" pads_begin="1" pads_end="1" auto_pad="explicit"/>
			<input>
				<port id="0" precision="FP16">
					<dim>1</dim>
					<dim>80</dim>
					<dim>805</dim>
				</port>
				<port id="1" precision="FP16">
					<dim>256</dim>
					<dim>80</dim>
					<dim>2</dim>
				</port>
			</input>
			<output>
				<port id="2" precision="FP16" names="410">
					<dim>1</dim>
					<dim>256</dim>
					<dim>806</dim>
				</port>
			</output>
		</layer>
		<layer id="90" name="Relu_25" type="ReLU" version="opset1">
			<input>
				<port id="0" precision="FP16">
					<dim>1</dim>
					<dim>256</dim>
					<dim>806</dim>
				</port>
			</input>
			<output>
				<port id="1" precision="FP16" names="411">
					<dim>1</dim>
					<dim>256</dim>
					<dim>806</dim>
				</port>
			</output>
		</layer>
		<layer id="91" name="data_mul_56655669" type="Const" version="opset1">
			<data element_type="f16" shape="1, 256, 1" offset="8684902" size="512"/>
			<output>
				<port id="0" precision="FP16">
					<dim>1</dim>
					<dim>256</dim>
					<dim>1</dim>
				</port>
			</output>
		</layer>
		<layer id="92" name="BatchNormalization_26/mean/Fused_Mul_" type="Multiply" version="opset1">
			<data auto_broadcast="numpy"/>
			<input>
				<port id="0" precision="FP16">
					<dim>1</dim>
					<dim>256</dim>
					<dim>806</dim>
				</port>
				<port id="1" precision="FP16">
					<dim>1</dim>
					<dim>256</dim>
					<dim>1</dim>
				</port>
			</input>
			<output>
				<port id="2" precision="FP16">
					<dim>1</dim>
					<dim>256</dim>
					<dim>806</dim>
				</port>
			</output>
		</layer>
		<layer id="93" name="data_add_56665671" type="Const" version="opset1">
			<data element_type="f16" shape="1, 256, 1" offset="8685414" size="512"/>
			<output>
				<port id="0" precision="FP16">
					<dim>1</dim>
					<dim>256</dim>
					<dim>1</dim>
				</port>
			</output>
		</layer>
		<layer id="94" name="BatchNormalization_26/variance/Fused_Add_" type="Add" version="opset1">
			<data auto_broadcast="numpy"/>
			<input>
				<port id="0" precision="FP16">
					<dim>1</dim>
					<dim>256</dim>
					<dim>806</dim>
				</port>
				<port id="1" precision="FP16">
					<dim>1</dim>
					<dim>256</dim>
					<dim>1</dim>
				</port>
			</input>
			<output>
				<port id="2" precision="FP16" names="412">
					<dim>1</dim>
					<dim>256</dim>
					<dim>806</dim>
				</port>
			</output>
		</layer>
		<layer id="95" name="Slice_29/Concat305914142" type="Const" version="opset1">
			<data element_type="i64" shape="3" offset="8602930" size="24"/>
			<output>
				<port id="0" precision="I64">
					<dim>3</dim>
				</port>
			</output>
		</layer>
		<layer id="96" name="Slice_29/Const3053305413959" type="Const" version="opset1">
			<data element_type="i64" shape="1" offset="38" size="8"/>
			<output>
				<port id="0" precision="I64">
					<dim>1</dim>
				</port>
			</output>
		</layer>
		<layer id="97" name="Slice_29/Const3055305613920" type="Const" version="opset1">
			<data element_type="i64" shape="1" offset="38" size="8"/>
			<output>
				<port id="0" precision="I64">
					<dim>1</dim>
				</port>
			</output>
		</layer>
		<layer id="98" name="Unsqueeze_27/Dims" type="Const" version="opset1">
			<data element_type="i64" shape="1" offset="38" size="8"/>
			<output>
				<port id="0" precision="I64">
					<dim>1</dim>
				</port>
			</output>
		</layer>
		<layer id="99" name="Unsqueeze_27/Unsqueeze" type="Unsqueeze" version="opset1">
			<input>
				<port id="0" precision="I64"/>
				<port id="1" precision="I64">
					<dim>1</dim>
				</port>
			</input>
			<output>
				<port id="2" precision="I64" names="416">
					<dim>1</dim>
				</port>
			</output>
		</layer>
		<layer id="100" name="Slice_29/Clamp3038" type="Clamp" version="opset1">
			<data min="-2147483648" max="2147483647"/>
			<input>
				<port id="0" precision="I64">
					<dim>1</dim>
				</port>
			</input>
			<output>
				<port id="1" precision="I64">
					<dim>1</dim>
				</port>
			</output>
		</layer>
		<layer id="101" name="Slice_29/Gather3046_input_port_1/value304813983" type="Const" version="opset1">
			<data element_type="i32" shape="1" offset="34" size="4"/>
			<output>
				<port id="0" precision="I32">
					<dim>1</dim>
				</port>
			</output>
		</layer>
		<layer id="102" name="Slice_29/Gather3046_input_port_2/value305014022" type="Const" version="opset1">
			<data element_type="i64" shape="" offset="38" size="8"/>
			<output>
				<port id="0" precision="I64"/>
			</output>
		</layer>
		<layer id="103" name="Slice_29/Gather3046" type="Gather" version="opset7">
			<data batch_dims="0"/>
			<input>
				<port id="0" precision="I64">
					<dim>1</dim>
				</port>
				<port id="1" precision="I32">
					<dim>1</dim>
				</port>
				<port id="2" precision="I64"/>
			</input>
			<output>
				<port id="3" precision="I64">
					<dim>1</dim>
				</port>
			</output>
		</layer>
		<layer id="104" name="Slice_29/End" type="Concat" version="opset1">
			<data axis="0"/>
			<input>
				<port id="0" precision="I64">
					<dim>1</dim>
				</port>
				<port id="1" precision="I64">
					<dim>1</dim>
				</port>
				<port id="2" precision="I64">
					<dim>1</dim>
				</port>
			</input>
			<output>
				<port id="3" precision="I64">
					<dim>3</dim>
				</port>
			</output>
		</layer>
		<layer id="105" name="Slice_29/Strides306114067" type="Const" version="opset1">
			<data element_type="i64" shape="3" offset="8602958" size="24"/>
			<output>
				<port id="0" precision="I64">
					<dim>3</dim>
				</port>
			</output>
		</layer>
		<layer id="106" name="Slice_29" type="StridedSlice" version="opset1">
			<data begin_mask="1, 1, 0" end_mask="1, 1, 0" new_axis_mask="0, 0, 0" shrink_axis_mask="0, 0, 0" ellipsis_mask="0, 0, 0"/>
			<input>
				<port id="0" precision="FP16">
					<dim>1</dim>
					<dim>256</dim>
					<dim>806</dim>
				</port>
				<port id="1" precision="I64">
					<dim>3</dim>
				</port>
				<port id="2" precision="I64">
					<dim>3</dim>
				</port>
				<port id="3" precision="I64">
					<dim>3</dim>
				</port>
			</input>
			<output>
				<port id="4" precision="FP16" names="419">
					<dim>1</dim>
					<dim>256</dim>
					<dim>805</dim>
				</port>
			</output>
		</layer>
		<layer id="107" name="model.postnet.cbhg.conv1d_bank.2.conv.weight" type="Const" version="opset1">
			<data element_type="f16" shape="256, 80, 3" offset="8685926" size="122880"/>
			<output>
				<port id="0" precision="FP16" names="model.postnet.cbhg.conv1d_bank.2.conv.weight">
					<dim>256</dim>
					<dim>80</dim>
					<dim>3</dim>
				</port>
			</output>
		</layer>
		<layer id="108" name="Conv_30" type="Convolution" version="opset1">
			<data strides="1" dilations="1" pads_begin="1" pads_end="1" auto_pad="explicit"/>
			<input>
				<port id="0" precision="FP16">
					<dim>1</dim>
					<dim>80</dim>
					<dim>805</dim>
				</port>
				<port id="1" precision="FP16">
					<dim>256</dim>
					<dim>80</dim>
					<dim>3</dim>
				</port>
			</input>
			<output>
				<port id="2" precision="FP16" names="420">
					<dim>1</dim>
					<dim>256</dim>
					<dim>805</dim>
				</port>
			</output>
		</layer>
		<layer id="109" name="Relu_31" type="ReLU" version="opset1">
			<input>
				<port id="0" precision="FP16">
					<dim>1</dim>
					<dim>256</dim>
					<dim>805</dim>
				</port>
			</input>
			<output>
				<port id="1" precision="FP16" names="421">
					<dim>1</dim>
					<dim>256</dim>
					<dim>805</dim>
				</port>
			</output>
		</layer>
		<layer id="110" name="data_mul_56575661" type="Const" version="opset1">
			<data element_type="f16" shape="1, 256, 1" offset="8808806" size="512"/>
			<output>
				<port id="0" precision="FP16">
					<dim>1</dim>
					<dim>256</dim>
					<dim>1</dim>
				</port>
			</output>
		</layer>
		<layer id="111" name="BatchNormalization_32/mean/Fused_Mul_" type="Multiply" version="opset1">
			<data auto_broadcast="numpy"/>
			<input>
				<port id="0" precision="FP16">
					<dim>1</dim>
					<dim>256</dim>
					<dim>805</dim>
				</port>
				<port id="1" precision="FP16">
					<dim>1</dim>
					<dim>256</dim>
					<dim>1</dim>
				</port>
			</input>
			<output>
				<port id="2" precision="FP16">
					<dim>1</dim>
					<dim>256</dim>
					<dim>805</dim>
				</port>
			</output>
		</layer>
		<layer id="112" name="data_add_56585663" type="Const" version="opset1">
			<data element_type="f16" shape="1, 256, 1" offset="8809318" size="512"/>
			<output>
				<port id="0" precision="FP16">
					<dim>1</dim>
					<dim>256</dim>
					<dim>1</dim>
				</port>
			</output>
		</layer>
		<layer id="113" name="BatchNormalization_32/variance/Fused_Add_" type="Add" version="opset1">
			<data auto_broadcast="numpy"/>
			<input>
				<port id="0" precision="FP16">
					<dim>1</dim>
					<dim>256</dim>
					<dim>805</dim>
				</port>
				<port id="1" precision="FP16">
					<dim>1</dim>
					<dim>256</dim>
					<dim>1</dim>
				</port>
			</input>
			<output>
				<port id="2" precision="FP16" names="422">
					<dim>1</dim>
					<dim>256</dim>
					<dim>805</dim>
				</port>
			</output>
		</layer>
		<layer id="114" name="Slice_35/Concat310313686" type="Const" version="opset1">
			<data element_type="i64" shape="3" offset="8602930" size="24"/>
			<output>
				<port id="0" precision="I64">
					<dim>3</dim>
				</port>
			</output>
		</layer>
		<layer id="115" name="Slice_35/Const3097309814133" type="Const" version="opset1">
			<data element_type="i64" shape="1" offset="38" size="8"/>
			<output>
				<port id="0" precision="I64">
					<dim>1</dim>
				</port>
			</output>
		</layer>
		<layer id="116" name="Slice_35/Const3099310013704" type="Const" version="opset1">
			<data element_type="i64" shape="1" offset="38" size="8"/>
			<output>
				<port id="0" precision="I64">
					<dim>1</dim>
				</port>
			</output>
		</layer>
		<layer id="117" name="Unsqueeze_33/Dims" type="Const" version="opset1">
			<data element_type="i64" shape="1" offset="38" size="8"/>
			<output>
				<port id="0" precision="I64">
					<dim>1</dim>
				</port>
			</output>
		</layer>
		<layer id="118" name="Unsqueeze_33/Unsqueeze" type="Unsqueeze" version="opset1">
			<input>
				<port id="0" precision="I64"/>
				<port id="1" precision="I64">
					<dim>1</dim>
				</port>
			</input>
			<output>
				<port id="2" precision="I64" names="426">
					<dim>1</dim>
				</port>
			</output>
		</layer>
		<layer id="119" name="Slice_35/Clamp3082" type="Clamp" version="opset1">
			<data min="-2147483648" max="2147483647"/>
			<input>
				<port id="0" precision="I64">
					<dim>1</dim>
				</port>
			</input>
			<output>
				<port id="1" precision="I64">
					<dim>1</dim>
				</port>
			</output>
		</layer>
		<layer id="120" name="Slice_35/Gather3090_input_port_1/value309214115" type="Const" version="opset1">
			<data element_type="i32" shape="1" offset="34" size="4"/>
			<output>
				<port id="0" precision="I32">
					<dim>1</dim>
				</port>
			</output>
		</layer>
		<layer id="121" name="Slice_35/Gather3090_input_port_2/value309413680" type="Const" version="opset1">
			<data element_type="i64" shape="" offset="38" size="8"/>
			<output>
				<port id="0" precision="I64"/>
			</output>
		</layer>
		<layer id="122" name="Slice_35/Gather3090" type="Gather" version="opset7">
			<data batch_dims="0"/>
			<input>
				<port id="0" precision="I64">
					<dim>1</dim>
				</port>
				<port id="1" precision="I32">
					<dim>1</dim>
				</port>
				<port id="2" precision="I64"/>
			</input>
			<output>
				<port id="3" precision="I64">
					<dim>1</dim>
				</port>
			</output>
		</layer>
		<layer id="123" name="Slice_35/End" type="Concat" version="opset1">
			<data axis="0"/>
			<input>
				<port id="0" precision="I64">
					<dim>1</dim>
				</port>
				<port id="1" precision="I64">
					<dim>1</dim>
				</port>
				<port id="2" precision="I64">
					<dim>1</dim>
				</port>
			</input>
			<output>
				<port id="3" precision="I64">
					<dim>3</dim>
				</port>
			</output>
		</layer>
		<layer id="124" name="Slice_35/Strides310513689" type="Const" version="opset1">
			<data element_type="i64" shape="3" offset="8602958" size="24"/>
			<output>
				<port id="0" precision="I64">
					<dim>3</dim>
				</port>
			</output>
		</layer>
		<layer id="125" name="Slice_35" type="StridedSlice" version="opset1">
			<data begin_mask="1, 1, 0" end_mask="1, 1, 0" new_axis_mask="0, 0, 0" shrink_axis_mask="0, 0, 0" ellipsis_mask="0, 0, 0"/>
			<input>
				<port id="0" precision="FP16">
					<dim>1</dim>
					<dim>256</dim>
					<dim>805</dim>
				</port>
				<port id="1" precision="I64">
					<dim>3</dim>
				</port>
				<port id="2" precision="I64">
					<dim>3</dim>
				</port>
				<port id="3" precision="I64">
					<dim>3</dim>
				</port>
			</input>
			<output>
				<port id="4" precision="FP16" names="429">
					<dim>1</dim>
					<dim>256</dim>
					<dim>805</dim>
				</port>
			</output>
		</layer>
		<layer id="126" name="model.postnet.cbhg.conv1d_bank.3.conv.weight" type="Const" version="opset1">
			<data element_type="f16" shape="256, 80, 4" offset="8809830" size="163840"/>
			<output>
				<port id="0" precision="FP16" names="model.postnet.cbhg.conv1d_bank.3.conv.weight">
					<dim>256</dim>
					<dim>80</dim>
					<dim>4</dim>
				</port>
			</output>
		</layer>
		<layer id="127" name="Conv_36" type="Convolution" version="opset1">
			<data strides="1" dilations="1" pads_begin="2" pads_end="2" auto_pad="explicit"/>
			<input>
				<port id="0" precision="FP16">
					<dim>1</dim>
					<dim>80</dim>
					<dim>805</dim>
				</port>
				<port id="1" precision="FP16">
					<dim>256</dim>
					<dim>80</dim>
					<dim>4</dim>
				</port>
			</input>
			<output>
				<port id="2" precision="FP16" names="430">
					<dim>1</dim>
					<dim>256</dim>
					<dim>806</dim>
				</port>
			</output>
		</layer>
		<layer id="128" name="Relu_37" type="ReLU" version="opset1">
			<input>
				<port id="0" precision="FP16">
					<dim>1</dim>
					<dim>256</dim>
					<dim>806</dim>
				</port>
			</input>
			<output>
				<port id="1" precision="FP16" names="431">
					<dim>1</dim>
					<dim>256</dim>
					<dim>806</dim>
				</port>
			</output>
		</layer>
		<layer id="129" name="data_mul_56495653" type="Const" version="opset1">
			<data element_type="f16" shape="1, 256, 1" offset="8973670" size="512"/>
			<output>
				<port id="0" precision="FP16">
					<dim>1</dim>
					<dim>256</dim>
					<dim>1</dim>
				</port>
			</output>
		</layer>
		<layer id="130" name="BatchNormalization_38/mean/Fused_Mul_" type="Multiply" version="opset1">
			<data auto_broadcast="numpy"/>
			<input>
				<port id="0" precision="FP16">
					<dim>1</dim>
					<dim>256</dim>
					<dim>806</dim>
				</port>
				<port id="1" precision="FP16">
					<dim>1</dim>
					<dim>256</dim>
					<dim>1</dim>
				</port>
			</input>
			<output>
				<port id="2" precision="FP16">
					<dim>1</dim>
					<dim>256</dim>
					<dim>806</dim>
				</port>
			</output>
		</layer>
		<layer id="131" name="data_add_56505655" type="Const" version="opset1">
			<data element_type="f16" shape="1, 256, 1" offset="8974182" size="512"/>
			<output>
				<port id="0" precision="FP16">
					<dim>1</dim>
					<dim>256</dim>
					<dim>1</dim>
				</port>
			</output>
		</layer>
		<layer id="132" name="BatchNormalization_38/variance/Fused_Add_" type="Add" version="opset1">
			<data auto_broadcast="numpy"/>
			<input>
				<port id="0" precision="FP16">
					<dim>1</dim>
					<dim>256</dim>
					<dim>806</dim>
				</port>
				<port id="1" precision="FP16">
					<dim>1</dim>
					<dim>256</dim>
					<dim>1</dim>
				</port>
			</input>
			<output>
				<port id="2" precision="FP16" names="432">
					<dim>1</dim>
					<dim>256</dim>
					<dim>806</dim>
				</port>
			</output>
		</layer>
		<layer id="133" name="Slice_41/Concat314713974" type="Const" version="opset1">
			<data element_type="i64" shape="3" offset="8602930" size="24"/>
			<output>
				<port id="0" precision="I64">
					<dim>3</dim>
				</port>
			</output>
		</layer>
		<layer id="134" name="Slice_41/Const3141314213923" type="Const" version="opset1">
			<data element_type="i64" shape="1" offset="38" size="8"/>
			<output>
				<port id="0" precision="I64">
					<dim>1</dim>
				</port>
			</output>
		</layer>
		<layer id="135" name="Slice_41/Const3143314414004" type="Const" version="opset1">
			<data element_type="i64" shape="1" offset="38" size="8"/>
			<output>
				<port id="0" precision="I64">
					<dim>1</dim>
				</port>
			</output>
		</layer>
		<layer id="136" name="Unsqueeze_39/Dims" type="Const" version="opset1">
			<data element_type="i64" shape="1" offset="38" size="8"/>
			<output>
				<port id="0" precision="I64">
					<dim>1</dim>
				</port>
			</output>
		</layer>
		<layer id="137" name="Unsqueeze_39/Unsqueeze" type="Unsqueeze" version="opset1">
			<input>
				<port id="0" precision="I64"/>
				<port id="1" precision="I64">
					<dim>1</dim>
				</port>
			</input>
			<output>
				<port id="2" precision="I64" names="436">
					<dim>1</dim>
				</port>
			</output>
		</layer>
		<layer id="138" name="Slice_41/Clamp3126" type="Clamp" version="opset1">
			<data min="-2147483648" max="2147483647"/>
			<input>
				<port id="0" precision="I64">
					<dim>1</dim>
				</port>
			</input>
			<output>
				<port id="1" precision="I64">
					<dim>1</dim>
				</port>
			</output>
		</layer>
		<layer id="139" name="Slice_41/Gather3134_input_port_1/value313614082" type="Const" version="opset1">
			<data element_type="i32" shape="1" offset="34" size="4"/>
			<output>
				<port id="0" precision="I32">
					<dim>1</dim>
				</port>
			</output>
		</layer>
		<layer id="140" name="Slice_41/Gather3134_input_port_2/value313813989" type="Const" version="opset1">
			<data element_type="i64" shape="" offset="38" size="8"/>
			<output>
				<port id="0" precision="I64"/>
			</output>
		</layer>
		<layer id="141" name="Slice_41/Gather3134" type="Gather" version="opset7">
			<data batch_dims="0"/>
			<input>
				<port id="0" precision="I64">
					<dim>1</dim>
				</port>
				<port id="1" precision="I32">
					<dim>1</dim>
				</port>
				<port id="2" precision="I64"/>
			</input>
			<output>
				<port id="3" precision="I64">
					<dim>1</dim>
				</port>
			</output>
		</layer>
		<layer id="142" name="Slice_41/End" type="Concat" version="opset1">
			<data axis="0"/>
			<input>
				<port id="0" precision="I64">
					<dim>1</dim>
				</port>
				<port id="1" precision="I64">
					<dim>1</dim>
				</port>
				<port id="2" precision="I64">
					<dim>1</dim>
				</port>
			</input>
			<output>
				<port id="3" precision="I64">
					<dim>3</dim>
				</port>
			</output>
		</layer>
		<layer id="143" name="Slice_41/Strides314914007" type="Const" version="opset1">
			<data element_type="i64" shape="3" offset="8602958" size="24"/>
			<output>
				<port id="0" precision="I64">
					<dim>3</dim>
				</port>
			</output>
		</layer>
		<layer id="144" name="Slice_41" type="StridedSlice" version="opset1">
			<data begin_mask="1, 1, 0" end_mask="1, 1, 0" new_axis_mask="0, 0, 0" shrink_axis_mask="0, 0, 0" ellipsis_mask="0, 0, 0"/>
			<input>
				<port id="0" precision="FP16">
					<dim>1</dim>
					<dim>256</dim>
					<dim>806</dim>
				</port>
				<port id="1" precision="I64">
					<dim>3</dim>
				</port>
				<port id="2" precision="I64">
					<dim>3</dim>
				</port>
				<port id="3" precision="I64">
					<dim>3</dim>
				</port>
			</input>
			<output>
				<port id="4" precision="FP16" names="439">
					<dim>1</dim>
					<dim>256</dim>
					<dim>805</dim>
				</port>
			</output>
		</layer>
		<layer id="145" name="model.postnet.cbhg.conv1d_bank.4.conv.weight" type="Const" version="opset1">
			<data element_type="f16" shape="256, 80, 5" offset="8974694" size="204800"/>
			<output>
				<port id="0" precision="FP16" names="model.postnet.cbhg.conv1d_bank.4.conv.weight">
					<dim>256</dim>
					<dim>80</dim>
					<dim>5</dim>
				</port>
			</output>
		</layer>
		<layer id="146" name="Conv_42" type="Convolution" version="opset1">
			<data strides="1" dilations="1" pads_begin="2" pads_end="2" auto_pad="explicit"/>
			<input>
				<port id="0" precision="FP16">
					<dim>1</dim>
					<dim>80</dim>
					<dim>805</dim>
				</port>
				<port id="1" precision="FP16">
					<dim>256</dim>
					<dim>80</dim>
					<dim>5</dim>
				</port>
			</input>
			<output>
				<port id="2" precision="FP16" names="440">
					<dim>1</dim>
					<dim>256</dim>
					<dim>805</dim>
				</port>
			</output>
		</layer>
		<layer id="147" name="Relu_43" type="ReLU" version="opset1">
			<input>
				<port id="0" precision="FP16">
					<dim>1</dim>
					<dim>256</dim>
					<dim>805</dim>
				</port>
			</input>
			<output>
				<port id="1" precision="FP16" names="441">
					<dim>1</dim>
					<dim>256</dim>
					<dim>805</dim>
				</port>
			</output>
		</layer>
		<layer id="148" name="data_mul_56415645" type="Const" version="opset1">
			<data element_type="f16" shape="1, 256, 1" offset="9179494" size="512"/>
			<output>
				<port id="0" precision="FP16">
					<dim>1</dim>
					<dim>256</dim>
					<dim>1</dim>
				</port>
			</output>
		</layer>
		<layer id="149" name="BatchNormalization_44/mean/Fused_Mul_" type="Multiply" version="opset1">
			<data auto_broadcast="numpy"/>
			<input>
				<port id="0" precision="FP16">
					<dim>1</dim>
					<dim>256</dim>
					<dim>805</dim>
				</port>
				<port id="1" precision="FP16">
					<dim>1</dim>
					<dim>256</dim>
					<dim>1</dim>
				</port>
			</input>
			<output>
				<port id="2" precision="FP16">
					<dim>1</dim>
					<dim>256</dim>
					<dim>805</dim>
				</port>
			</output>
		</layer>
		<layer id="150" name="data_add_56425647" type="Const" version="opset1">
			<data element_type="f16" shape="1, 256, 1" offset="9180006" size="512"/>
			<output>
				<port id="0" precision="FP16">
					<dim>1</dim>
					<dim>256</dim>
					<dim>1</dim>
				</port>
			</output>
		</layer>
		<layer id="151" name="BatchNormalization_44/variance/Fused_Add_" type="Add" version="opset1">
			<data auto_broadcast="numpy"/>
			<input>
				<port id="0" precision="FP16">
					<dim>1</dim>
					<dim>256</dim>
					<dim>805</dim>
				</port>
				<port id="1" precision="FP16">
					<dim>1</dim>
					<dim>256</dim>
					<dim>1</dim>
				</port>
			</input>
			<output>
				<port id="2" precision="FP16" names="442">
					<dim>1</dim>
					<dim>256</dim>
					<dim>805</dim>
				</port>
			</output>
		</layer>
		<layer id="152" name="Slice_47/Concat319113935" type="Const" version="opset1">
			<data element_type="i64" shape="3" offset="8602930" size="24"/>
			<output>
				<port id="0" precision="I64">
					<dim>3</dim>
				</port>
			</output>
		</layer>
		<layer id="153" name="Slice_47/Const3185318613905" type="Const" version="opset1">
			<data element_type="i64" shape="1" offset="38" size="8"/>
			<output>
				<port id="0" precision="I64">
					<dim>1</dim>
				</port>
			</output>
		</layer>
		<layer id="154" name="Slice_47/Const3187318813998" type="Const" version="opset1">
			<data element_type="i64" shape="1" offset="38" size="8"/>
			<output>
				<port id="0" precision="I64">
					<dim>1</dim>
				</port>
			</output>
		</layer>
		<layer id="155" name="Unsqueeze_45/Dims" type="Const" version="opset1">
			<data element_type="i64" shape="1" offset="38" size="8"/>
			<output>
				<port id="0" precision="I64">
					<dim>1</dim>
				</port>
			</output>
		</layer>
		<layer id="156" name="Unsqueeze_45/Unsqueeze" type="Unsqueeze" version="opset1">
			<input>
				<port id="0" precision="I64"/>
				<port id="1" precision="I64">
					<dim>1</dim>
				</port>
			</input>
			<output>
				<port id="2" precision="I64" names="446">
					<dim>1</dim>
				</port>
			</output>
		</layer>
		<layer id="157" name="Slice_47/Clamp3170" type="Clamp" version="opset1">
			<data min="-2147483648" max="2147483647"/>
			<input>
				<port id="0" precision="I64">
					<dim>1</dim>
				</port>
			</input>
			<output>
				<port id="1" precision="I64">
					<dim>1</dim>
				</port>
			</output>
		</layer>
		<layer id="158" name="Slice_47/Gather3178_input_port_1/value318013674" type="Const" version="opset1">
			<data element_type="i32" shape="1" offset="34" size="4"/>
			<output>
				<port id="0" precision="I32">
					<dim>1</dim>
				</port>
			</output>
		</layer>
		<layer id="159" name="Slice_47/Gather3178_input_port_2/value318214145" type="Const" version="opset1">
			<data element_type="i64" shape="" offset="38" size="8"/>
			<output>
				<port id="0" precision="I64"/>
			</output>
		</layer>
		<layer id="160" name="Slice_47/Gather3178" type="Gather" version="opset7">
			<data batch_dims="0"/>
			<input>
				<port id="0" precision="I64">
					<dim>1</dim>
				</port>
				<port id="1" precision="I32">
					<dim>1</dim>
				</port>
				<port id="2" precision="I64"/>
			</input>
			<output>
				<port id="3" precision="I64">
					<dim>1</dim>
				</port>
			</output>
		</layer>
		<layer id="161" name="Slice_47/End" type="Concat" version="opset1">
			<data axis="0"/>
			<input>
				<port id="0" precision="I64">
					<dim>1</dim>
				</port>
				<port id="1" precision="I64">
					<dim>1</dim>
				</port>
				<port id="2" precision="I64">
					<dim>1</dim>
				</port>
			</input>
			<output>
				<port id="3" precision="I64">
					<dim>3</dim>
				</port>
			</output>
		</layer>
		<layer id="162" name="Slice_47/Strides319313725" type="Const" version="opset1">
			<data element_type="i64" shape="3" offset="8602958" size="24"/>
			<output>
				<port id="0" precision="I64">
					<dim>3</dim>
				</port>
			</output>
		</layer>
		<layer id="163" name="Slice_47" type="StridedSlice" version="opset1">
			<data begin_mask="1, 1, 0" end_mask="1, 1, 0" new_axis_mask="0, 0, 0" shrink_axis_mask="0, 0, 0" ellipsis_mask="0, 0, 0"/>
			<input>
				<port id="0" precision="FP16">
					<dim>1</dim>
					<dim>256</dim>
					<dim>805</dim>
				</port>
				<port id="1" precision="I64">
					<dim>3</dim>
				</port>
				<port id="2" precision="I64">
					<dim>3</dim>
				</port>
				<port id="3" precision="I64">
					<dim>3</dim>
				</port>
			</input>
			<output>
				<port id="4" precision="FP16" names="449">
					<dim>1</dim>
					<dim>256</dim>
					<dim>805</dim>
				</port>
			</output>
		</layer>
		<layer id="164" name="model.postnet.cbhg.conv1d_bank.5.conv.weight" type="Const" version="opset1">
			<data element_type="f16" shape="256, 80, 6" offset="9180518" size="245760"/>
			<output>
				<port id="0" precision="FP16" names="model.postnet.cbhg.conv1d_bank.5.conv.weight">
					<dim>256</dim>
					<dim>80</dim>
					<dim>6</dim>
				</port>
			</output>
		</layer>
		<layer id="165" name="Conv_48" type="Convolution" version="opset1">
			<data strides="1" dilations="1" pads_begin="3" pads_end="3" auto_pad="explicit"/>
			<input>
				<port id="0" precision="FP16">
					<dim>1</dim>
					<dim>80</dim>
					<dim>805</dim>
				</port>
				<port id="1" precision="FP16">
					<dim>256</dim>
					<dim>80</dim>
					<dim>6</dim>
				</port>
			</input>
			<output>
				<port id="2" precision="FP16" names="450">
					<dim>1</dim>
					<dim>256</dim>
					<dim>806</dim>
				</port>
			</output>
		</layer>
		<layer id="166" name="Relu_49" type="ReLU" version="opset1">
			<input>
				<port id="0" precision="FP16">
					<dim>1</dim>
					<dim>256</dim>
					<dim>806</dim>
				</port>
			</input>
			<output>
				<port id="1" precision="FP16" names="451">
					<dim>1</dim>
					<dim>256</dim>
					<dim>806</dim>
				</port>
			</output>
		</layer>
		<layer id="167" name="data_mul_56335637" type="Const" version="opset1">
			<data element_type="f16" shape="1, 256, 1" offset="9426278" size="512"/>
			<output>
				<port id="0" precision="FP16">
					<dim>1</dim>
					<dim>256</dim>
					<dim>1</dim>
				</port>
			</output>
		</layer>
		<layer id="168" name="BatchNormalization_50/mean/Fused_Mul_" type="Multiply" version="opset1">
			<data auto_broadcast="numpy"/>
			<input>
				<port id="0" precision="FP16">
					<dim>1</dim>
					<dim>256</dim>
					<dim>806</dim>
				</port>
				<port id="1" precision="FP16">
					<dim>1</dim>
					<dim>256</dim>
					<dim>1</dim>
				</port>
			</input>
			<output>
				<port id="2" precision="FP16">
					<dim>1</dim>
					<dim>256</dim>
					<dim>806</dim>
				</port>
			</output>
		</layer>
		<layer id="169" name="data_add_56345639" type="Const" version="opset1">
			<data element_type="f16" shape="1, 256, 1" offset="9426790" size="512"/>
			<output>
				<port id="0" precision="FP16">
					<dim>1</dim>
					<dim>256</dim>
					<dim>1</dim>
				</port>
			</output>
		</layer>
		<layer id="170" name="BatchNormalization_50/variance/Fused_Add_" type="Add" version="opset1">
			<data auto_broadcast="numpy"/>
			<input>
				<port id="0" precision="FP16">
					<dim>1</dim>
					<dim>256</dim>
					<dim>806</dim>
				</port>
				<port id="1" precision="FP16">
					<dim>1</dim>
					<dim>256</dim>
					<dim>1</dim>
				</port>
			</input>
			<output>
				<port id="2" precision="FP16" names="452">
					<dim>1</dim>
					<dim>256</dim>
					<dim>806</dim>
				</port>
			</output>
		</layer>
		<layer id="171" name="Slice_53/Concat323513770" type="Const" version="opset1">
			<data element_type="i64" shape="3" offset="8602930" size="24"/>
			<output>
				<port id="0" precision="I64">
					<dim>3</dim>
				</port>
			</output>
		</layer>
		<layer id="172" name="Slice_53/Const3229323013755" type="Const" version="opset1">
			<data element_type="i64" shape="1" offset="38" size="8"/>
			<output>
				<port id="0" precision="I64">
					<dim>1</dim>
				</port>
			</output>
		</layer>
		<layer id="173" name="Slice_53/Const3231323214106" type="Const" version="opset1">
			<data element_type="i64" shape="1" offset="38" size="8"/>
			<output>
				<port id="0" precision="I64">
					<dim>1</dim>
				</port>
			</output>
		</layer>
		<layer id="174" name="Unsqueeze_51/Dims" type="Const" version="opset1">
			<data element_type="i64" shape="1" offset="38" size="8"/>
			<output>
				<port id="0" precision="I64">
					<dim>1</dim>
				</port>
			</output>
		</layer>
		<layer id="175" name="Unsqueeze_51/Unsqueeze" type="Unsqueeze" version="opset1">
			<input>
				<port id="0" precision="I64"/>
				<port id="1" precision="I64">
					<dim>1</dim>
				</port>
			</input>
			<output>
				<port id="2" precision="I64" names="456">
					<dim>1</dim>
				</port>
			</output>
		</layer>
		<layer id="176" name="Slice_53/Clamp3214" type="Clamp" version="opset1">
			<data min="-2147483648" max="2147483647"/>
			<input>
				<port id="0" precision="I64">
					<dim>1</dim>
				</port>
			</input>
			<output>
				<port id="1" precision="I64">
					<dim>1</dim>
				</port>
			</output>
		</layer>
		<layer id="177" name="Slice_53/Gather3222_input_port_1/value322413872" type="Const" version="opset1">
			<data element_type="i32" shape="1" offset="34" size="4"/>
			<output>
				<port id="0" precision="I32">
					<dim>1</dim>
				</port>
			</output>
		</layer>
		<layer id="178" name="Slice_53/Gather3222_input_port_2/value322614097" type="Const" version="opset1">
			<data element_type="i64" shape="" offset="38" size="8"/>
			<output>
				<port id="0" precision="I64"/>
			</output>
		</layer>
		<layer id="179" name="Slice_53/Gather3222" type="Gather" version="opset7">
			<data batch_dims="0"/>
			<input>
				<port id="0" precision="I64">
					<dim>1</dim>
				</port>
				<port id="1" precision="I32">
					<dim>1</dim>
				</port>
				<port id="2" precision="I64"/>
			</input>
			<output>
				<port id="3" precision="I64">
					<dim>1</dim>
				</port>
			</output>
		</layer>
		<layer id="180" name="Slice_53/End" type="Concat" version="opset1">
			<data axis="0"/>
			<input>
				<port id="0" precision="I64">
					<dim>1</dim>
				</port>
				<port id="1" precision="I64">
					<dim>1</dim>
				</port>
				<port id="2" precision="I64">
					<dim>1</dim>
				</port>
			</input>
			<output>
				<port id="3" precision="I64">
					<dim>3</dim>
				</port>
			</output>
		</layer>
		<layer id="181" name="Slice_53/Strides323713764" type="Const" version="opset1">
			<data element_type="i64" shape="3" offset="8602958" size="24"/>
			<output>
				<port id="0" precision="I64">
					<dim>3</dim>
				</port>
			</output>
		</layer>
		<layer id="182" name="Slice_53" type="StridedSlice" version="opset1">
			<data begin_mask="1, 1, 0" end_mask="1, 1, 0" new_axis_mask="0, 0, 0" shrink_axis_mask="0, 0, 0" ellipsis_mask="0, 0, 0"/>
			<input>
				<port id="0" precision="FP16">
					<dim>1</dim>
					<dim>256</dim>
					<dim>806</dim>
				</port>
				<port id="1" precision="I64">
					<dim>3</dim>
				</port>
				<port id="2" precision="I64">
					<dim>3</dim>
				</port>
				<port id="3" precision="I64">
					<dim>3</dim>
				</port>
			</input>
			<output>
				<port id="4" precision="FP16" names="459">
					<dim>1</dim>
					<dim>256</dim>
					<dim>805</dim>
				</port>
			</output>
		</layer>
		<layer id="183" name="model.postnet.cbhg.conv1d_bank.6.conv.weight" type="Const" version="opset1">
			<data element_type="f16" shape="256, 80, 7" offset="9427302" size="286720"/>
			<output>
				<port id="0" precision="FP16" names="model.postnet.cbhg.conv1d_bank.6.conv.weight">
					<dim>256</dim>
					<dim>80</dim>
					<dim>7</dim>
				</port>
			</output>
		</layer>
		<layer id="184" name="Conv_54" type="Convolution" version="opset1">
			<data strides="1" dilations="1" pads_begin="3" pads_end="3" auto_pad="explicit"/>
			<input>
				<port id="0" precision="FP16">
					<dim>1</dim>
					<dim>80</dim>
					<dim>805</dim>
				</port>
				<port id="1" precision="FP16">
					<dim>256</dim>
					<dim>80</dim>
					<dim>7</dim>
				</port>
			</input>
			<output>
				<port id="2" precision="FP16" names="460">
					<dim>1</dim>
					<dim>256</dim>
					<dim>805</dim>
				</port>
			</output>
		</layer>
		<layer id="185" name="Relu_55" type="ReLU" version="opset1">
			<input>
				<port id="0" precision="FP16">
					<dim>1</dim>
					<dim>256</dim>
					<dim>805</dim>
				</port>
			</input>
			<output>
				<port id="1" precision="FP16" names="461">
					<dim>1</dim>
					<dim>256</dim>
					<dim>805</dim>
				</port>
			</output>
		</layer>
		<layer id="186" name="data_mul_56255629" type="Const" version="opset1">
			<data element_type="f16" shape="1, 256, 1" offset="9714022" size="512"/>
			<output>
				<port id="0" precision="FP16">
					<dim>1</dim>
					<dim>256</dim>
					<dim>1</dim>
				</port>
			</output>
		</layer>
		<layer id="187" name="BatchNormalization_56/mean/Fused_Mul_" type="Multiply" version="opset1">
			<data auto_broadcast="numpy"/>
			<input>
				<port id="0" precision="FP16">
					<dim>1</dim>
					<dim>256</dim>
					<dim>805</dim>
				</port>
				<port id="1" precision="FP16">
					<dim>1</dim>
					<dim>256</dim>
					<dim>1</dim>
				</port>
			</input>
			<output>
				<port id="2" precision="FP16">
					<dim>1</dim>
					<dim>256</dim>
					<dim>805</dim>
				</port>
			</output>
		</layer>
		<layer id="188" name="data_add_56265631" type="Const" version="opset1">
			<data element_type="f16" shape="1, 256, 1" offset="9714534" size="512"/>
			<output>
				<port id="0" precision="FP16">
					<dim>1</dim>
					<dim>256</dim>
					<dim>1</dim>
				</port>
			</output>
		</layer>
		<layer id="189" name="BatchNormalization_56/variance/Fused_Add_" type="Add" version="opset1">
			<data auto_broadcast="numpy"/>
			<input>
				<port id="0" precision="FP16">
					<dim>1</dim>
					<dim>256</dim>
					<dim>805</dim>
				</port>
				<port id="1" precision="FP16">
					<dim>1</dim>
					<dim>256</dim>
					<dim>1</dim>
				</port>
			</input>
			<output>
				<port id="2" precision="FP16" names="462">
					<dim>1</dim>
					<dim>256</dim>
					<dim>805</dim>
				</port>
			</output>
		</layer>
		<layer id="190" name="Slice_59/Concat327913908" type="Const" version="opset1">
			<data element_type="i64" shape="3" offset="8602930" size="24"/>
			<output>
				<port id="0" precision="I64">
					<dim>3</dim>
				</port>
			</output>
		</layer>
		<layer id="191" name="Slice_59/Const3273327413653" type="Const" version="opset1">
			<data element_type="i64" shape="1" offset="38" size="8"/>
			<output>
				<port id="0" precision="I64">
					<dim>1</dim>
				</port>
			</output>
		</layer>
		<layer id="192" name="Slice_59/Const3275327613656" type="Const" version="opset1">
			<data element_type="i64" shape="1" offset="38" size="8"/>
			<output>
				<port id="0" precision="I64">
					<dim>1</dim>
				</port>
			</output>
		</layer>
		<layer id="193" name="Unsqueeze_57/Dims" type="Const" version="opset1">
			<data element_type="i64" shape="1" offset="38" size="8"/>
			<output>
				<port id="0" precision="I64">
					<dim>1</dim>
				</port>
			</output>
		</layer>
		<layer id="194" name="Unsqueeze_57/Unsqueeze" type="Unsqueeze" version="opset1">
			<input>
				<port id="0" precision="I64"/>
				<port id="1" precision="I64">
					<dim>1</dim>
				</port>
			</input>
			<output>
				<port id="2" precision="I64" names="466">
					<dim>1</dim>
				</port>
			</output>
		</layer>
		<layer id="195" name="Slice_59/Clamp3258" type="Clamp" version="opset1">
			<data min="-2147483648" max="2147483647"/>
			<input>
				<port id="0" precision="I64">
					<dim>1</dim>
				</port>
			</input>
			<output>
				<port id="1" precision="I64">
					<dim>1</dim>
				</port>
			</output>
		</layer>
		<layer id="196" name="Slice_59/Gather3266_input_port_1/value326814139" type="Const" version="opset1">
			<data element_type="i32" shape="1" offset="34" size="4"/>
			<output>
				<port id="0" precision="I32">
					<dim>1</dim>
				</port>
			</output>
		</layer>
		<layer id="197" name="Slice_59/Gather3266_input_port_2/value327013911" type="Const" version="opset1">
			<data element_type="i64" shape="" offset="38" size="8"/>
			<output>
				<port id="0" precision="I64"/>
			</output>
		</layer>
		<layer id="198" name="Slice_59/Gather3266" type="Gather" version="opset7">
			<data batch_dims="0"/>
			<input>
				<port id="0" precision="I64">
					<dim>1</dim>
				</port>
				<port id="1" precision="I32">
					<dim>1</dim>
				</port>
				<port id="2" precision="I64"/>
			</input>
			<output>
				<port id="3" precision="I64">
					<dim>1</dim>
				</port>
			</output>
		</layer>
		<layer id="199" name="Slice_59/End" type="Concat" version="opset1">
			<data axis="0"/>
			<input>
				<port id="0" precision="I64">
					<dim>1</dim>
				</port>
				<port id="1" precision="I64">
					<dim>1</dim>
				</port>
				<port id="2" precision="I64">
					<dim>1</dim>
				</port>
			</input>
			<output>
				<port id="3" precision="I64">
					<dim>3</dim>
				</port>
			</output>
		</layer>
		<layer id="200" name="Slice_59/Strides328113947" type="Const" version="opset1">
			<data element_type="i64" shape="3" offset="8602958" size="24"/>
			<output>
				<port id="0" precision="I64">
					<dim>3</dim>
				</port>
			</output>
		</layer>
		<layer id="201" name="Slice_59" type="StridedSlice" version="opset1">
			<data begin_mask="1, 1, 0" end_mask="1, 1, 0" new_axis_mask="0, 0, 0" shrink_axis_mask="0, 0, 0" ellipsis_mask="0, 0, 0"/>
			<input>
				<port id="0" precision="FP16">
					<dim>1</dim>
					<dim>256</dim>
					<dim>805</dim>
				</port>
				<port id="1" precision="I64">
					<dim>3</dim>
				</port>
				<port id="2" precision="I64">
					<dim>3</dim>
				</port>
				<port id="3" precision="I64">
					<dim>3</dim>
				</port>
			</input>
			<output>
				<port id="4" precision="FP16" names="469">
					<dim>1</dim>
					<dim>256</dim>
					<dim>805</dim>
				</port>
			</output>
		</layer>
		<layer id="202" name="model.postnet.cbhg.conv1d_bank.7.conv.weight" type="Const" version="opset1">
			<data element_type="f16" shape="256, 80, 8" offset="9715046" size="327680"/>
			<output>
				<port id="0" precision="FP16" names="model.postnet.cbhg.conv1d_bank.7.conv.weight">
					<dim>256</dim>
					<dim>80</dim>
					<dim>8</dim>
				</port>
			</output>
		</layer>
		<layer id="203" name="Conv_60" type="Convolution" version="opset1">
			<data strides="1" dilations="1" pads_begin="4" pads_end="4" auto_pad="explicit"/>
			<input>
				<port id="0" precision="FP16">
					<dim>1</dim>
					<dim>80</dim>
					<dim>805</dim>
				</port>
				<port id="1" precision="FP16">
					<dim>256</dim>
					<dim>80</dim>
					<dim>8</dim>
				</port>
			</input>
			<output>
				<port id="2" precision="FP16" names="470">
					<dim>1</dim>
					<dim>256</dim>
					<dim>806</dim>
				</port>
			</output>
		</layer>
		<layer id="204" name="Relu_61" type="ReLU" version="opset1">
			<input>
				<port id="0" precision="FP16">
					<dim>1</dim>
					<dim>256</dim>
					<dim>806</dim>
				</port>
			</input>
			<output>
				<port id="1" precision="FP16" names="471">
					<dim>1</dim>
					<dim>256</dim>
					<dim>806</dim>
				</port>
			</output>
		</layer>
		<layer id="205" name="data_mul_5621" type="Const" version="opset1">
			<data element_type="f16" shape="1, 256, 1" offset="10042726" size="512"/>
			<output>
				<port id="0" precision="FP16">
					<dim>1</dim>
					<dim>256</dim>
					<dim>1</dim>
				</port>
			</output>
		</layer>
		<layer id="206" name="BatchNormalization_62/mean/Fused_Mul_" type="Multiply" version="opset1">
			<data auto_broadcast="numpy"/>
			<input>
				<port id="0" precision="FP16">
					<dim>1</dim>
					<dim>256</dim>
					<dim>806</dim>
				</port>
				<port id="1" precision="FP16">
					<dim>1</dim>
					<dim>256</dim>
					<dim>1</dim>
				</port>
			</input>
			<output>
				<port id="2" precision="FP16">
					<dim>1</dim>
					<dim>256</dim>
					<dim>806</dim>
				</port>
			</output>
		</layer>
		<layer id="207" name="data_add_5623" type="Const" version="opset1">
			<data element_type="f16" shape="1, 256, 1" offset="10043238" size="512"/>
			<output>
				<port id="0" precision="FP16">
					<dim>1</dim>
					<dim>256</dim>
					<dim>1</dim>
				</port>
			</output>
		</layer>
		<layer id="208" name="BatchNormalization_62/variance/Fused_Add_" type="Add" version="opset1">
			<data auto_broadcast="numpy"/>
			<input>
				<port id="0" precision="FP16">
					<dim>1</dim>
					<dim>256</dim>
					<dim>806</dim>
				</port>
				<port id="1" precision="FP16">
					<dim>1</dim>
					<dim>256</dim>
					<dim>1</dim>
				</port>
			</input>
			<output>
				<port id="2" precision="FP16" names="472">
					<dim>1</dim>
					<dim>256</dim>
					<dim>806</dim>
				</port>
			</output>
		</layer>
		<layer id="209" name="Slice_65/Concat332313782" type="Const" version="opset1">
			<data element_type="i64" shape="3" offset="8602930" size="24"/>
			<output>
				<port id="0" precision="I64">
					<dim>3</dim>
				</port>
			</output>
		</layer>
		<layer id="210" name="Slice_65/Const3317331813917" type="Const" version="opset1">
			<data element_type="i64" shape="1" offset="38" size="8"/>
			<output>
				<port id="0" precision="I64">
					<dim>1</dim>
				</port>
			</output>
		</layer>
		<layer id="211" name="Slice_65/Const3319332014058" type="Const" version="opset1">
			<data element_type="i64" shape="1" offset="38" size="8"/>
			<output>
				<port id="0" precision="I64">
					<dim>1</dim>
				</port>
			</output>
		</layer>
		<layer id="212" name="Unsqueeze_63/Dims" type="Const" version="opset1">
			<data element_type="i64" shape="1" offset="38" size="8"/>
			<output>
				<port id="0" precision="I64">
					<dim>1</dim>
				</port>
			</output>
		</layer>
		<layer id="213" name="Unsqueeze_63/Unsqueeze" type="Unsqueeze" version="opset1">
			<input>
				<port id="0" precision="I64"/>
				<port id="1" precision="I64">
					<dim>1</dim>
				</port>
			</input>
			<output>
				<port id="2" precision="I64" names="476">
					<dim>1</dim>
				</port>
			</output>
		</layer>
		<layer id="214" name="Slice_65/Clamp3302" type="Clamp" version="opset1">
			<data min="-2147483648" max="2147483647"/>
			<input>
				<port id="0" precision="I64">
					<dim>1</dim>
				</port>
			</input>
			<output>
				<port id="1" precision="I64">
					<dim>1</dim>
				</port>
			</output>
		</layer>
		<layer id="215" name="Slice_65/Gather3310_input_port_1/value331213965" type="Const" version="opset1">
			<data element_type="i32" shape="1" offset="34" size="4"/>
			<output>
				<port id="0" precision="I32">
					<dim>1</dim>
				</port>
			</output>
		</layer>
		<layer id="216" name="Slice_65/Gather3310_input_port_2/value331413962" type="Const" version="opset1">
			<data element_type="i64" shape="" offset="38" size="8"/>
			<output>
				<port id="0" precision="I64"/>
			</output>
		</layer>
		<layer id="217" name="Slice_65/Gather3310" type="Gather" version="opset7">
			<data batch_dims="0"/>
			<input>
				<port id="0" precision="I64">
					<dim>1</dim>
				</port>
				<port id="1" precision="I32">
					<dim>1</dim>
				</port>
				<port id="2" precision="I64"/>
			</input>
			<output>
				<port id="3" precision="I64">
					<dim>1</dim>
				</port>
			</output>
		</layer>
		<layer id="218" name="Slice_65/End" type="Concat" version="opset1">
			<data axis="0"/>
			<input>
				<port id="0" precision="I64">
					<dim>1</dim>
				</port>
				<port id="1" precision="I64">
					<dim>1</dim>
				</port>
				<port id="2" precision="I64">
					<dim>1</dim>
				</port>
			</input>
			<output>
				<port id="3" precision="I64">
					<dim>3</dim>
				</port>
			</output>
		</layer>
		<layer id="219" name="Slice_65/Strides332513722" type="Const" version="opset1">
			<data element_type="i64" shape="3" offset="8602958" size="24"/>
			<output>
				<port id="0" precision="I64">
					<dim>3</dim>
				</port>
			</output>
		</layer>
		<layer id="220" name="Slice_65" type="StridedSlice" version="opset1">
			<data begin_mask="1, 1, 0" end_mask="1, 1, 0" new_axis_mask="0, 0, 0" shrink_axis_mask="0, 0, 0" ellipsis_mask="0, 0, 0"/>
			<input>
				<port id="0" precision="FP16">
					<dim>1</dim>
					<dim>256</dim>
					<dim>806</dim>
				</port>
				<port id="1" precision="I64">
					<dim>3</dim>
				</port>
				<port id="2" precision="I64">
					<dim>3</dim>
				</port>
				<port id="3" precision="I64">
					<dim>3</dim>
				</port>
			</input>
			<output>
				<port id="4" precision="FP16" names="479">
					<dim>1</dim>
					<dim>256</dim>
					<dim>805</dim>
				</port>
			</output>
		</layer>
		<layer id="221" name="Concat_66" type="Concat" version="opset1">
			<data axis="1"/>
			<input>
				<port id="0" precision="FP16">
					<dim>1</dim>
					<dim>256</dim>
					<dim>805</dim>
				</port>
				<port id="1" precision="FP16">
					<dim>1</dim>
					<dim>256</dim>
					<dim>805</dim>
				</port>
				<port id="2" precision="FP16">
					<dim>1</dim>
					<dim>256</dim>
					<dim>805</dim>
				</port>
				<port id="3" precision="FP16">
					<dim>1</dim>
					<dim>256</dim>
					<dim>805</dim>
				</port>
				<port id="4" precision="FP16">
					<dim>1</dim>
					<dim>256</dim>
					<dim>805</dim>
				</port>
				<port id="5" precision="FP16">
					<dim>1</dim>
					<dim>256</dim>
					<dim>805</dim>
				</port>
				<port id="6" precision="FP16">
					<dim>1</dim>
					<dim>256</dim>
					<dim>805</dim>
				</port>
				<port id="7" precision="FP16">
					<dim>1</dim>
					<dim>256</dim>
					<dim>805</dim>
				</port>
			</input>
			<output>
				<port id="8" precision="FP16" names="480">
					<dim>1</dim>
					<dim>2048</dim>
					<dim>805</dim>
				</port>
			</output>
		</layer>
		<layer id="222" name="Unsqueeze_67/Dims" type="Const" version="opset1">
			<data element_type="i64" shape="1" offset="10043750" size="8"/>
			<output>
				<port id="0" precision="I64">
					<dim>1</dim>
				</port>
			</output>
		</layer>
		<layer id="223" name="Unsqueeze_67/Unsqueeze" type="Unsqueeze" version="opset1">
			<input>
				<port id="0" precision="FP16">
					<dim>1</dim>
					<dim>2048</dim>
					<dim>805</dim>
				</port>
				<port id="1" precision="I64">
					<dim>1</dim>
				</port>
			</input>
			<output>
				<port id="2" precision="FP16" names="481">
					<dim>1</dim>
					<dim>2048</dim>
					<dim>805</dim>
					<dim>1</dim>
				</port>
			</output>
		</layer>
		<layer id="224" name="MaxPool_68" type="MaxPool" version="opset1">
			<data strides="1, 1" pads_begin="1, 0" pads_end="1, 0" kernel="2, 1" rounding_type="floor" auto_pad="explicit"/>
			<input>
				<port id="0" precision="FP16">
					<dim>1</dim>
					<dim>2048</dim>
					<dim>805</dim>
					<dim>1</dim>
				</port>
			</input>
			<output>
				<port id="1" precision="FP16" names="482">
					<dim>1</dim>
					<dim>2048</dim>
					<dim>806</dim>
					<dim>1</dim>
				</port>
			</output>
		</layer>
		<layer id="225" name="Squeeze_69/Dims" type="Const" version="opset1">
			<data element_type="i64" shape="1" offset="10043750" size="8"/>
			<output>
				<port id="0" precision="I64">
					<dim>1</dim>
				</port>
			</output>
		</layer>
		<layer id="226" name="Squeeze_69" type="Squeeze" version="opset1">
			<input>
				<port id="0" precision="FP16">
					<dim>1</dim>
					<dim>2048</dim>
					<dim>806</dim>
					<dim>1</dim>
				</port>
				<port id="1" precision="I64">
					<dim>1</dim>
				</port>
			</input>
			<output>
				<port id="2" precision="FP16" names="483">
					<dim>1</dim>
					<dim>2048</dim>
					<dim>806</dim>
				</port>
			</output>
		</layer>
		<layer id="227" name="Slice_72/Concat336713803" type="Const" version="opset1">
			<data element_type="i64" shape="3" offset="8602930" size="24"/>
			<output>
				<port id="0" precision="I64">
					<dim>3</dim>
				</port>
			</output>
		</layer>
		<layer id="228" name="Slice_72/Const3361336213971" type="Const" version="opset1">
			<data element_type="i64" shape="1" offset="38" size="8"/>
			<output>
				<port id="0" precision="I64">
					<dim>1</dim>
				</port>
			</output>
		</layer>
		<layer id="229" name="Slice_72/Const3363336413902" type="Const" version="opset1">
			<data element_type="i64" shape="1" offset="38" size="8"/>
			<output>
				<port id="0" precision="I64">
					<dim>1</dim>
				</port>
			</output>
		</layer>
		<layer id="230" name="Unsqueeze_70/Dims" type="Const" version="opset1">
			<data element_type="i64" shape="1" offset="38" size="8"/>
			<output>
				<port id="0" precision="I64">
					<dim>1</dim>
				</port>
			</output>
		</layer>
		<layer id="231" name="Unsqueeze_70/Unsqueeze" type="Unsqueeze" version="opset1">
			<input>
				<port id="0" precision="I64"/>
				<port id="1" precision="I64">
					<dim>1</dim>
				</port>
			</input>
			<output>
				<port id="2" precision="I64" names="487">
					<dim>1</dim>
				</port>
			</output>
		</layer>
		<layer id="232" name="Slice_72/Clamp3346" type="Clamp" version="opset1">
			<data min="-2147483648" max="2147483647"/>
			<input>
				<port id="0" precision="I64">
					<dim>1</dim>
				</port>
			</input>
			<output>
				<port id="1" precision="I64">
					<dim>1</dim>
				</port>
			</output>
		</layer>
		<layer id="233" name="Slice_72/Gather3354_input_port_1/value335613857" type="Const" version="opset1">
			<data element_type="i32" shape="1" offset="34" size="4"/>
			<output>
				<port id="0" precision="I32">
					<dim>1</dim>
				</port>
			</output>
		</layer>
		<layer id="234" name="Slice_72/Gather3354_input_port_2/value335814121" type="Const" version="opset1">
			<data element_type="i64" shape="" offset="38" size="8"/>
			<output>
				<port id="0" precision="I64"/>
			</output>
		</layer>
		<layer id="235" name="Slice_72/Gather3354" type="Gather" version="opset7">
			<data batch_dims="0"/>
			<input>
				<port id="0" precision="I64">
					<dim>1</dim>
				</port>
				<port id="1" precision="I32">
					<dim>1</dim>
				</port>
				<port id="2" precision="I64"/>
			</input>
			<output>
				<port id="3" precision="I64">
					<dim>1</dim>
				</port>
			</output>
		</layer>
		<layer id="236" name="Slice_72/End" type="Concat" version="opset1">
			<data axis="0"/>
			<input>
				<port id="0" precision="I64">
					<dim>1</dim>
				</port>
				<port id="1" precision="I64">
					<dim>1</dim>
				</port>
				<port id="2" precision="I64">
					<dim>1</dim>
				</port>
			</input>
			<output>
				<port id="3" precision="I64">
					<dim>3</dim>
				</port>
			</output>
		</layer>
		<layer id="237" name="Slice_72/Strides336913776" type="Const" version="opset1">
			<data element_type="i64" shape="3" offset="8602958" size="24"/>
			<output>
				<port id="0" precision="I64">
					<dim>3</dim>
				</port>
			</output>
		</layer>
		<layer id="238" name="Slice_72" type="StridedSlice" version="opset1">
			<data begin_mask="1, 1, 0" end_mask="1, 1, 0" new_axis_mask="0, 0, 0" shrink_axis_mask="0, 0, 0" ellipsis_mask="0, 0, 0"/>
			<input>
				<port id="0" precision="FP16">
					<dim>1</dim>
					<dim>2048</dim>
					<dim>806</dim>
				</port>
				<port id="1" precision="I64">
					<dim>3</dim>
				</port>
				<port id="2" precision="I64">
					<dim>3</dim>
				</port>
				<port id="3" precision="I64">
					<dim>3</dim>
				</port>
			</input>
			<output>
				<port id="4" precision="FP16" names="490">
					<dim>1</dim>
					<dim>2048</dim>
					<dim>805</dim>
				</port>
			</output>
		</layer>
		<layer id="239" name="model.postnet.cbhg.conv_project1.conv.weight" type="Const" version="opset1">
			<data element_type="f16" shape="256, 2048, 3" offset="10043758" size="3145728"/>
			<output>
				<port id="0" precision="FP16" names="model.postnet.cbhg.conv_project1.conv.weight">
					<dim>256</dim>
					<dim>2048</dim>
					<dim>3</dim>
				</port>
			</output>
		</layer>
		<layer id="240" name="Conv_73" type="Convolution" version="opset1">
			<data strides="1" dilations="1" pads_begin="1" pads_end="1" auto_pad="explicit"/>
			<input>
				<port id="0" precision="FP16">
					<dim>1</dim>
					<dim>2048</dim>
					<dim>805</dim>
				</port>
				<port id="1" precision="FP16">
					<dim>256</dim>
					<dim>2048</dim>
					<dim>3</dim>
				</port>
			</input>
			<output>
				<port id="2" precision="FP16" names="491">
					<dim>1</dim>
					<dim>256</dim>
					<dim>805</dim>
				</port>
			</output>
		</layer>
		<layer id="241" name="Relu_74" type="ReLU" version="opset1">
			<input>
				<port id="0" precision="FP16">
					<dim>1</dim>
					<dim>256</dim>
					<dim>805</dim>
				</port>
			</input>
			<output>
				<port id="1" precision="FP16" names="492">
					<dim>1</dim>
					<dim>256</dim>
					<dim>805</dim>
				</port>
			</output>
		</layer>
		<layer id="242" name="data_mul_56815685" type="Const" version="opset1">
			<data element_type="f16" shape="1, 256, 1" offset="13189486" size="512"/>
			<output>
				<port id="0" precision="FP16">
					<dim>1</dim>
					<dim>256</dim>
					<dim>1</dim>
				</port>
			</output>
		</layer>
		<layer id="243" name="BatchNormalization_75/mean/Fused_Mul_" type="Multiply" version="opset1">
			<data auto_broadcast="numpy"/>
			<input>
				<port id="0" precision="FP16">
					<dim>1</dim>
					<dim>256</dim>
					<dim>805</dim>
				</port>
				<port id="1" precision="FP16">
					<dim>1</dim>
					<dim>256</dim>
					<dim>1</dim>
				</port>
			</input>
			<output>
				<port id="2" precision="FP16">
					<dim>1</dim>
					<dim>256</dim>
					<dim>805</dim>
				</port>
			</output>
		</layer>
		<layer id="244" name="data_add_56825687" type="Const" version="opset1">
			<data element_type="f16" shape="1, 256, 1" offset="13189998" size="512"/>
			<output>
				<port id="0" precision="FP16">
					<dim>1</dim>
					<dim>256</dim>
					<dim>1</dim>
				</port>
			</output>
		</layer>
		<layer id="245" name="BatchNormalization_75/variance/Fused_Add_" type="Add" version="opset1">
			<data auto_broadcast="numpy"/>
			<input>
				<port id="0" precision="FP16">
					<dim>1</dim>
					<dim>256</dim>
					<dim>805</dim>
				</port>
				<port id="1" precision="FP16">
					<dim>1</dim>
					<dim>256</dim>
					<dim>1</dim>
				</port>
			</input>
			<output>
				<port id="2" precision="FP16" names="493">
					<dim>1</dim>
					<dim>256</dim>
					<dim>805</dim>
				</port>
			</output>
		</layer>
		<layer id="246" name="BatchNormalization_77/mean/Fused_Mul__copy" type="Const" version="opset1">
			<data element_type="f16" shape="80, 256, 3" offset="13190510" size="122880"/>
			<output>
				<port id="0" precision="FP16" names="model.postnet.cbhg.conv_project2.conv.weight">
					<dim>80</dim>
					<dim>256</dim>
					<dim>3</dim>
				</port>
			</output>
		</layer>
		<layer id="247" name="Conv_76" type="Convolution" version="opset1">
			<data strides="1" dilations="1" pads_begin="1" pads_end="1" auto_pad="explicit"/>
			<input>
				<port id="0" precision="FP16">
					<dim>1</dim>
					<dim>256</dim>
					<dim>805</dim>
				</port>
				<port id="1" precision="FP16">
					<dim>80</dim>
					<dim>256</dim>
					<dim>3</dim>
				</port>
			</input>
			<output>
				<port id="2" precision="FP16">
					<dim>1</dim>
					<dim>80</dim>
					<dim>805</dim>
				</port>
			</output>
		</layer>
		<layer id="248" name="data_add_56905695" type="Const" version="opset1">
			<data element_type="f16" shape="1, 80, 1" offset="13313390" size="160"/>
			<output>
				<port id="0" precision="FP16">
					<dim>1</dim>
					<dim>80</dim>
					<dim>1</dim>
				</port>
			</output>
		</layer>
		<layer id="249" name="BatchNormalization_77/variance/Fused_Add_" type="Add" version="opset1">
			<data auto_broadcast="numpy"/>
			<input>
				<port id="0" precision="FP16">
					<dim>1</dim>
					<dim>80</dim>
					<dim>805</dim>
				</port>
				<port id="1" precision="FP16">
					<dim>1</dim>
					<dim>80</dim>
					<dim>1</dim>
				</port>
			</input>
			<output>
				<port id="2" precision="FP16" names="495">
					<dim>1</dim>
					<dim>80</dim>
					<dim>805</dim>
				</port>
			</output>
		</layer>
		<layer id="250" name="Add_78" type="Add" version="opset1">
			<data auto_broadcast="numpy"/>
			<input>
				<port id="0" precision="FP16">
					<dim>1</dim>
					<dim>80</dim>
					<dim>805</dim>
				</port>
				<port id="1" precision="FP16">
					<dim>1</dim>
					<dim>80</dim>
					<dim>805</dim>
				</port>
			</input>
			<output>
				<port id="2" precision="FP16" names="496">
					<dim>1</dim>
					<dim>80</dim>
					<dim>805</dim>
				</port>
			</output>
		</layer>
		<layer id="251" name="247" type="Const" version="opset1">
			<data element_type="i64" shape="3" offset="8560922" size="24"/>
			<output>
				<port id="0" precision="I64">
					<dim>3</dim>
				</port>
			</output>
		</layer>
		<layer id="252" name="Transpose_79" type="Transpose" version="opset1">
			<input>
				<port id="0" precision="FP16">
					<dim>1</dim>
					<dim>80</dim>
					<dim>805</dim>
				</port>
				<port id="1" precision="I64">
					<dim>3</dim>
				</port>
			</input>
			<output>
				<port id="2" precision="FP16" names="497">
					<dim>1</dim>
					<dim>805</dim>
					<dim>80</dim>
				</port>
			</output>
		</layer>
		<layer id="253" name="753" type="Const" version="opset1">
			<data element_type="f16" shape="256, 80" offset="13313550" size="40960"/>
			<output>
				<port id="0" precision="FP16" names="753">
					<dim>256</dim>
					<dim>80</dim>
				</port>
			</output>
		</layer>
		<layer id="254" name="MatMul_80" type="MatMul" version="opset1">
			<data transpose_a="false" transpose_b="true"/>
			<input>
				<port id="0" precision="FP16">
					<dim>1</dim>
					<dim>805</dim>
					<dim>80</dim>
				</port>
				<port id="1" precision="FP16">
					<dim>256</dim>
					<dim>80</dim>
				</port>
			</input>
			<output>
				<port id="2" precision="FP16" names="499">
					<dim>1</dim>
					<dim>805</dim>
					<dim>256</dim>
				</port>
			</output>
		</layer>
		<layer id="255" name="755" type="Const" version="opset1">
			<data element_type="f16" shape="256, 256" offset="13354510" size="131072"/>
			<output>
				<port id="0" precision="FP16" names="755">
					<dim>256</dim>
					<dim>256</dim>
				</port>
			</output>
		</layer>
		<layer id="256" name="MatMul_83" type="MatMul" version="opset1">
			<data transpose_a="false" transpose_b="true"/>
			<input>
				<port id="0" precision="FP16">
					<dim>1</dim>
					<dim>805</dim>
					<dim>256</dim>
				</port>
				<port id="1" precision="FP16">
					<dim>256</dim>
					<dim>256</dim>
				</port>
			</input>
			<output>
				<port id="2" precision="FP16" names="504">
					<dim>1</dim>
					<dim>805</dim>
					<dim>256</dim>
				</port>
			</output>
		</layer>
		<layer id="257" name="model.postnet.cbhg.highways.0.W2.bias" type="Const" version="opset1">
			<data element_type="f16" shape="1, 1, 256" offset="13485582" size="512"/>
			<output>
				<port id="0" precision="FP16" names="model.postnet.cbhg.highways.0.W2.bias">
					<dim>1</dim>
					<dim>1</dim>
					<dim>256</dim>
				</port>
			</output>
		</layer>
		<layer id="258" name="Add_84" type="Add" version="opset1">
			<data auto_broadcast="numpy"/>
			<input>
				<port id="0" precision="FP16">
					<dim>1</dim>
					<dim>805</dim>
					<dim>256</dim>
				</port>
				<port id="1" precision="FP16">
					<dim>1</dim>
					<dim>1</dim>
					<dim>256</dim>
				</port>
			</input>
			<output>
				<port id="2" precision="FP16" names="505">
					<dim>1</dim>
					<dim>805</dim>
					<dim>256</dim>
				</port>
			</output>
		</layer>
		<layer id="259" name="Sigmoid_85" type="Sigmoid" version="opset1">
			<input>
				<port id="0" precision="FP16">
					<dim>1</dim>
					<dim>805</dim>
					<dim>256</dim>
				</port>
			</input>
			<output>
				<port id="1" precision="FP16">
					<dim>1</dim>
					<dim>805</dim>
					<dim>256</dim>
				</port>
			</output>
		</layer>
		<layer id="260" name="754" type="Const" version="opset1">
			<data element_type="f16" shape="256, 256" offset="13486094" size="131072"/>
			<output>
				<port id="0" precision="FP16" names="754">
					<dim>256</dim>
					<dim>256</dim>
				</port>
			</output>
		</layer>
		<layer id="261" name="MatMul_81" type="MatMul" version="opset1">
			<data transpose_a="false" transpose_b="true"/>
			<input>
				<port id="0" precision="FP16">
					<dim>1</dim>
					<dim>805</dim>
					<dim>256</dim>
				</port>
				<port id="1" precision="FP16">
					<dim>256</dim>
					<dim>256</dim>
				</port>
			</input>
			<output>
				<port id="2" precision="FP16" names="501">
					<dim>1</dim>
					<dim>805</dim>
					<dim>256</dim>
				</port>
			</output>
		</layer>
		<layer id="262" name="model.postnet.cbhg.highways.0.W1.bias" type="Const" version="opset1">
			<data element_type="f16" shape="1, 1, 256" offset="13617166" size="512"/>
			<output>
				<port id="0" precision="FP16" names="model.postnet.cbhg.highways.0.W1.bias">
					<dim>1</dim>
					<dim>1</dim>
					<dim>256</dim>
				</port>
			</output>
		</layer>
		<layer id="263" name="Add_82" type="Add" version="opset1">
			<data auto_broadcast="numpy"/>
			<input>
				<port id="0" precision="FP16">
					<dim>1</dim>
					<dim>805</dim>
					<dim>256</dim>
				</port>
				<port id="1" precision="FP16">
					<dim>1</dim>
					<dim>1</dim>
					<dim>256</dim>
				</port>
			</input>
			<output>
				<port id="2" precision="FP16" names="502">
					<dim>1</dim>
					<dim>805</dim>
					<dim>256</dim>
				</port>
			</output>
		</layer>
		<layer id="264" name="Relu_86" type="ReLU" version="opset1">
			<input>
				<port id="0" precision="FP16">
					<dim>1</dim>
					<dim>805</dim>
					<dim>256</dim>
				</port>
			</input>
			<output>
				<port id="1" precision="FP16" names="507">
					<dim>1</dim>
					<dim>805</dim>
					<dim>256</dim>
				</port>
			</output>
		</layer>
		<layer id="265" name="Mul_87" type="Multiply" version="opset1">
			<data auto_broadcast="numpy"/>
			<input>
				<port id="0" precision="FP16">
					<dim>1</dim>
					<dim>805</dim>
					<dim>256</dim>
				</port>
				<port id="1" precision="FP16">
					<dim>1</dim>
					<dim>805</dim>
					<dim>256</dim>
				</port>
			</input>
			<output>
				<port id="2" precision="FP16" names="508">
					<dim>1</dim>
					<dim>805</dim>
					<dim>256</dim>
				</port>
			</output>
		</layer>
		<layer id="266" name="Constant_88" type="Const" version="opset1">
			<data element_type="f16" shape="1, 1, 1" offset="13617678" size="2"/>
			<output>
				<port id="0" precision="FP16" names="509">
					<dim>1</dim>
					<dim>1</dim>
					<dim>1</dim>
				</port>
			</output>
		</layer>
		<layer id="267" name="Sub_89/sub" type="Subtract" version="opset1">
			<data auto_broadcast="numpy"/>
			<input>
				<port id="0" precision="FP16">
					<dim>1</dim>
					<dim>1</dim>
					<dim>1</dim>
				</port>
				<port id="1" precision="FP16">
					<dim>1</dim>
					<dim>805</dim>
					<dim>256</dim>
				</port>
			</input>
			<output>
				<port id="2" precision="FP16" names="510">
					<dim>1</dim>
					<dim>805</dim>
					<dim>256</dim>
				</port>
			</output>
		</layer>
		<layer id="268" name="Mul_90" type="Multiply" version="opset1">
			<data auto_broadcast="numpy"/>
			<input>
				<port id="0" precision="FP16">
					<dim>1</dim>
					<dim>805</dim>
					<dim>256</dim>
				</port>
				<port id="1" precision="FP16">
					<dim>1</dim>
					<dim>805</dim>
					<dim>256</dim>
				</port>
			</input>
			<output>
				<port id="2" precision="FP16" names="511">
					<dim>1</dim>
					<dim>805</dim>
					<dim>256</dim>
				</port>
			</output>
		</layer>
		<layer id="269" name="Add_91" type="Add" version="opset1">
			<data auto_broadcast="numpy"/>
			<input>
				<port id="0" precision="FP16">
					<dim>1</dim>
					<dim>805</dim>
					<dim>256</dim>
				</port>
				<port id="1" precision="FP16">
					<dim>1</dim>
					<dim>805</dim>
					<dim>256</dim>
				</port>
			</input>
			<output>
				<port id="2" precision="FP16" names="512">
					<dim>1</dim>
					<dim>805</dim>
					<dim>256</dim>
				</port>
			</output>
		</layer>
		<layer id="270" name="757" type="Const" version="opset1">
			<data element_type="f16" shape="256, 256" offset="13617680" size="131072"/>
			<output>
				<port id="0" precision="FP16" names="757">
					<dim>256</dim>
					<dim>256</dim>
				</port>
			</output>
		</layer>
		<layer id="271" name="MatMul_94" type="MatMul" version="opset1">
			<data transpose_a="false" transpose_b="true"/>
			<input>
				<port id="0" precision="FP16">
					<dim>1</dim>
					<dim>805</dim>
					<dim>256</dim>
				</port>
				<port id="1" precision="FP16">
					<dim>256</dim>
					<dim>256</dim>
				</port>
			</input>
			<output>
				<port id="2" precision="FP16" names="517">
					<dim>1</dim>
					<dim>805</dim>
					<dim>256</dim>
				</port>
			</output>
		</layer>
		<layer id="272" name="model.postnet.cbhg.highways.1.W2.bias" type="Const" version="opset1">
			<data element_type="f16" shape="1, 1, 256" offset="13748752" size="512"/>
			<output>
				<port id="0" precision="FP16" names="model.postnet.cbhg.highways.1.W2.bias">
					<dim>1</dim>
					<dim>1</dim>
					<dim>256</dim>
				</port>
			</output>
		</layer>
		<layer id="273" name="Add_95" type="Add" version="opset1">
			<data auto_broadcast="numpy"/>
			<input>
				<port id="0" precision="FP16">
					<dim>1</dim>
					<dim>805</dim>
					<dim>256</dim>
				</port>
				<port id="1" precision="FP16">
					<dim>1</dim>
					<dim>1</dim>
					<dim>256</dim>
				</port>
			</input>
			<output>
				<port id="2" precision="FP16" names="518">
					<dim>1</dim>
					<dim>805</dim>
					<dim>256</dim>
				</port>
			</output>
		</layer>
		<layer id="274" name="Sigmoid_96" type="Sigmoid" version="opset1">
			<input>
				<port id="0" precision="FP16">
					<dim>1</dim>
					<dim>805</dim>
					<dim>256</dim>
				</port>
			</input>
			<output>
				<port id="1" precision="FP16">
					<dim>1</dim>
					<dim>805</dim>
					<dim>256</dim>
				</port>
			</output>
		</layer>
		<layer id="275" name="756" type="Const" version="opset1">
			<data element_type="f16" shape="256, 256" offset="13749264" size="131072"/>
			<output>
				<port id="0" precision="FP16" names="756">
					<dim>256</dim>
					<dim>256</dim>
				</port>
			</output>
		</layer>
		<layer id="276" name="MatMul_92" type="MatMul" version="opset1">
			<data transpose_a="false" transpose_b="true"/>
			<input>
				<port id="0" precision="FP16">
					<dim>1</dim>
					<dim>805</dim>
					<dim>256</dim>
				</port>
				<port id="1" precision="FP16">
					<dim>256</dim>
					<dim>256</dim>
				</port>
			</input>
			<output>
				<port id="2" precision="FP16" names="514">
					<dim>1</dim>
					<dim>805</dim>
					<dim>256</dim>
				</port>
			</output>
		</layer>
		<layer id="277" name="model.postnet.cbhg.highways.1.W1.bias" type="Const" version="opset1">
			<data element_type="f16" shape="1, 1, 256" offset="13880336" size="512"/>
			<output>
				<port id="0" precision="FP16" names="model.postnet.cbhg.highways.1.W1.bias">
					<dim>1</dim>
					<dim>1</dim>
					<dim>256</dim>
				</port>
			</output>
		</layer>
		<layer id="278" name="Add_93" type="Add" version="opset1">
			<data auto_broadcast="numpy"/>
			<input>
				<port id="0" precision="FP16">
					<dim>1</dim>
					<dim>805</dim>
					<dim>256</dim>
				</port>
				<port id="1" precision="FP16">
					<dim>1</dim>
					<dim>1</dim>
					<dim>256</dim>
				</port>
			</input>
			<output>
				<port id="2" precision="FP16" names="515">
					<dim>1</dim>
					<dim>805</dim>
					<dim>256</dim>
				</port>
			</output>
		</layer>
		<layer id="279" name="Relu_97" type="ReLU" version="opset1">
			<input>
				<port id="0" precision="FP16">
					<dim>1</dim>
					<dim>805</dim>
					<dim>256</dim>
				</port>
			</input>
			<output>
				<port id="1" precision="FP16" names="520">
					<dim>1</dim>
					<dim>805</dim>
					<dim>256</dim>
				</port>
			</output>
		</layer>
		<layer id="280" name="Mul_98" type="Multiply" version="opset1">
			<data auto_broadcast="numpy"/>
			<input>
				<port id="0" precision="FP16">
					<dim>1</dim>
					<dim>805</dim>
					<dim>256</dim>
				</port>
				<port id="1" precision="FP16">
					<dim>1</dim>
					<dim>805</dim>
					<dim>256</dim>
				</port>
			</input>
			<output>
				<port id="2" precision="FP16" names="521">
					<dim>1</dim>
					<dim>805</dim>
					<dim>256</dim>
				</port>
			</output>
		</layer>
		<layer id="281" name="Constant_99" type="Const" version="opset1">
			<data element_type="f16" shape="1, 1, 1" offset="13617678" size="2"/>
			<output>
				<port id="0" precision="FP16" names="522">
					<dim>1</dim>
					<dim>1</dim>
					<dim>1</dim>
				</port>
			</output>
		</layer>
		<layer id="282" name="Sub_100/sub" type="Subtract" version="opset1">
			<data auto_broadcast="numpy"/>
			<input>
				<port id="0" precision="FP16">
					<dim>1</dim>
					<dim>1</dim>
					<dim>1</dim>
				</port>
				<port id="1" precision="FP16">
					<dim>1</dim>
					<dim>805</dim>
					<dim>256</dim>
				</port>
			</input>
			<output>
				<port id="2" precision="FP16" names="523">
					<dim>1</dim>
					<dim>805</dim>
					<dim>256</dim>
				</port>
			</output>
		</layer>
		<layer id="283" name="Mul_101" type="Multiply" version="opset1">
			<data auto_broadcast="numpy"/>
			<input>
				<port id="0" precision="FP16">
					<dim>1</dim>
					<dim>805</dim>
					<dim>256</dim>
				</port>
				<port id="1" precision="FP16">
					<dim>1</dim>
					<dim>805</dim>
					<dim>256</dim>
				</port>
			</input>
			<output>
				<port id="2" precision="FP16" names="524">
					<dim>1</dim>
					<dim>805</dim>
					<dim>256</dim>
				</port>
			</output>
		</layer>
		<layer id="284" name="Add_102" type="Add" version="opset1">
			<data auto_broadcast="numpy"/>
			<input>
				<port id="0" precision="FP16">
					<dim>1</dim>
					<dim>805</dim>
					<dim>256</dim>
				</port>
				<port id="1" precision="FP16">
					<dim>1</dim>
					<dim>805</dim>
					<dim>256</dim>
				</port>
			</input>
			<output>
				<port id="2" precision="FP16" names="525">
					<dim>1</dim>
					<dim>805</dim>
					<dim>256</dim>
				</port>
			</output>
		</layer>
		<layer id="285" name="759" type="Const" version="opset1">
			<data element_type="f16" shape="256, 256" offset="13880848" size="131072"/>
			<output>
				<port id="0" precision="FP16" names="759">
					<dim>256</dim>
					<dim>256</dim>
				</port>
			</output>
		</layer>
		<layer id="286" name="MatMul_105" type="MatMul" version="opset1">
			<data transpose_a="false" transpose_b="true"/>
			<input>
				<port id="0" precision="FP16">
					<dim>1</dim>
					<dim>805</dim>
					<dim>256</dim>
				</port>
				<port id="1" precision="FP16">
					<dim>256</dim>
					<dim>256</dim>
				</port>
			</input>
			<output>
				<port id="2" precision="FP16" names="530">
					<dim>1</dim>
					<dim>805</dim>
					<dim>256</dim>
				</port>
			</output>
		</layer>
		<layer id="287" name="model.postnet.cbhg.highways.2.W2.bias" type="Const" version="opset1">
			<data element_type="f16" shape="1, 1, 256" offset="14011920" size="512"/>
			<output>
				<port id="0" precision="FP16" names="model.postnet.cbhg.highways.2.W2.bias">
					<dim>1</dim>
					<dim>1</dim>
					<dim>256</dim>
				</port>
			</output>
		</layer>
		<layer id="288" name="Add_106" type="Add" version="opset1">
			<data auto_broadcast="numpy"/>
			<input>
				<port id="0" precision="FP16">
					<dim>1</dim>
					<dim>805</dim>
					<dim>256</dim>
				</port>
				<port id="1" precision="FP16">
					<dim>1</dim>
					<dim>1</dim>
					<dim>256</dim>
				</port>
			</input>
			<output>
				<port id="2" precision="FP16" names="531">
					<dim>1</dim>
					<dim>805</dim>
					<dim>256</dim>
				</port>
			</output>
		</layer>
		<layer id="289" name="Sigmoid_107" type="Sigmoid" version="opset1">
			<input>
				<port id="0" precision="FP16">
					<dim>1</dim>
					<dim>805</dim>
					<dim>256</dim>
				</port>
			</input>
			<output>
				<port id="1" precision="FP16">
					<dim>1</dim>
					<dim>805</dim>
					<dim>256</dim>
				</port>
			</output>
		</layer>
		<layer id="290" name="758" type="Const" version="opset1">
			<data element_type="f16" shape="256, 256" offset="14012432" size="131072"/>
			<output>
				<port id="0" precision="FP16" names="758">
					<dim>256</dim>
					<dim>256</dim>
				</port>
			</output>
		</layer>
		<layer id="291" name="MatMul_103" type="MatMul" version="opset1">
			<data transpose_a="false" transpose_b="true"/>
			<input>
				<port id="0" precision="FP16">
					<dim>1</dim>
					<dim>805</dim>
					<dim>256</dim>
				</port>
				<port id="1" precision="FP16">
					<dim>256</dim>
					<dim>256</dim>
				</port>
			</input>
			<output>
				<port id="2" precision="FP16" names="527">
					<dim>1</dim>
					<dim>805</dim>
					<dim>256</dim>
				</port>
			</output>
		</layer>
		<layer id="292" name="model.postnet.cbhg.highways.2.W1.bias" type="Const" version="opset1">
			<data element_type="f16" shape="1, 1, 256" offset="14143504" size="512"/>
			<output>
				<port id="0" precision="FP16" names="model.postnet.cbhg.highways.2.W1.bias">
					<dim>1</dim>
					<dim>1</dim>
					<dim>256</dim>
				</port>
			</output>
		</layer>
		<layer id="293" name="Add_104" type="Add" version="opset1">
			<data auto_broadcast="numpy"/>
			<input>
				<port id="0" precision="FP16">
					<dim>1</dim>
					<dim>805</dim>
					<dim>256</dim>
				</port>
				<port id="1" precision="FP16">
					<dim>1</dim>
					<dim>1</dim>
					<dim>256</dim>
				</port>
			</input>
			<output>
				<port id="2" precision="FP16" names="528">
					<dim>1</dim>
					<dim>805</dim>
					<dim>256</dim>
				</port>
			</output>
		</layer>
		<layer id="294" name="Relu_108" type="ReLU" version="opset1">
			<input>
				<port id="0" precision="FP16">
					<dim>1</dim>
					<dim>805</dim>
					<dim>256</dim>
				</port>
			</input>
			<output>
				<port id="1" precision="FP16" names="533">
					<dim>1</dim>
					<dim>805</dim>
					<dim>256</dim>
				</port>
			</output>
		</layer>
		<layer id="295" name="Mul_109" type="Multiply" version="opset1">
			<data auto_broadcast="numpy"/>
			<input>
				<port id="0" precision="FP16">
					<dim>1</dim>
					<dim>805</dim>
					<dim>256</dim>
				</port>
				<port id="1" precision="FP16">
					<dim>1</dim>
					<dim>805</dim>
					<dim>256</dim>
				</port>
			</input>
			<output>
				<port id="2" precision="FP16" names="534">
					<dim>1</dim>
					<dim>805</dim>
					<dim>256</dim>
				</port>
			</output>
		</layer>
		<layer id="296" name="Constant_110" type="Const" version="opset1">
			<data element_type="f16" shape="1, 1, 1" offset="13617678" size="2"/>
			<output>
				<port id="0" precision="FP16" names="535">
					<dim>1</dim>
					<dim>1</dim>
					<dim>1</dim>
				</port>
			</output>
		</layer>
		<layer id="297" name="Sub_111/sub" type="Subtract" version="opset1">
			<data auto_broadcast="numpy"/>
			<input>
				<port id="0" precision="FP16">
					<dim>1</dim>
					<dim>1</dim>
					<dim>1</dim>
				</port>
				<port id="1" precision="FP16">
					<dim>1</dim>
					<dim>805</dim>
					<dim>256</dim>
				</port>
			</input>
			<output>
				<port id="2" precision="FP16" names="536">
					<dim>1</dim>
					<dim>805</dim>
					<dim>256</dim>
				</port>
			</output>
		</layer>
		<layer id="298" name="Mul_112" type="Multiply" version="opset1">
			<data auto_broadcast="numpy"/>
			<input>
				<port id="0" precision="FP16">
					<dim>1</dim>
					<dim>805</dim>
					<dim>256</dim>
				</port>
				<port id="1" precision="FP16">
					<dim>1</dim>
					<dim>805</dim>
					<dim>256</dim>
				</port>
			</input>
			<output>
				<port id="2" precision="FP16" names="537">
					<dim>1</dim>
					<dim>805</dim>
					<dim>256</dim>
				</port>
			</output>
		</layer>
		<layer id="299" name="Add_113" type="Add" version="opset1">
			<data auto_broadcast="numpy"/>
			<input>
				<port id="0" precision="FP16">
					<dim>1</dim>
					<dim>805</dim>
					<dim>256</dim>
				</port>
				<port id="1" precision="FP16">
					<dim>1</dim>
					<dim>805</dim>
					<dim>256</dim>
				</port>
			</input>
			<output>
				<port id="2" precision="FP16" names="538">
					<dim>1</dim>
					<dim>805</dim>
					<dim>256</dim>
				</port>
			</output>
		</layer>
		<layer id="300" name="761" type="Const" version="opset1">
			<data element_type="f16" shape="256, 256" offset="14144016" size="131072"/>
			<output>
				<port id="0" precision="FP16" names="761">
					<dim>256</dim>
					<dim>256</dim>
				</port>
			</output>
		</layer>
		<layer id="301" name="MatMul_116" type="MatMul" version="opset1">
			<data transpose_a="false" transpose_b="true"/>
			<input>
				<port id="0" precision="FP16">
					<dim>1</dim>
					<dim>805</dim>
					<dim>256</dim>
				</port>
				<port id="1" precision="FP16">
					<dim>256</dim>
					<dim>256</dim>
				</port>
			</input>
			<output>
				<port id="2" precision="FP16" names="543">
					<dim>1</dim>
					<dim>805</dim>
					<dim>256</dim>
				</port>
			</output>
		</layer>
		<layer id="302" name="model.postnet.cbhg.highways.3.W2.bias" type="Const" version="opset1">
			<data element_type="f16" shape="1, 1, 256" offset="14275088" size="512"/>
			<output>
				<port id="0" precision="FP16" names="model.postnet.cbhg.highways.3.W2.bias">
					<dim>1</dim>
					<dim>1</dim>
					<dim>256</dim>
				</port>
			</output>
		</layer>
		<layer id="303" name="Add_117" type="Add" version="opset1">
			<data auto_broadcast="numpy"/>
			<input>
				<port id="0" precision="FP16">
					<dim>1</dim>
					<dim>805</dim>
					<dim>256</dim>
				</port>
				<port id="1" precision="FP16">
					<dim>1</dim>
					<dim>1</dim>
					<dim>256</dim>
				</port>
			</input>
			<output>
				<port id="2" precision="FP16" names="544">
					<dim>1</dim>
					<dim>805</dim>
					<dim>256</dim>
				</port>
			</output>
		</layer>
		<layer id="304" name="Sigmoid_118" type="Sigmoid" version="opset1">
			<input>
				<port id="0" precision="FP16">
					<dim>1</dim>
					<dim>805</dim>
					<dim>256</dim>
				</port>
			</input>
			<output>
				<port id="1" precision="FP16">
					<dim>1</dim>
					<dim>805</dim>
					<dim>256</dim>
				</port>
			</output>
		</layer>
		<layer id="305" name="760" type="Const" version="opset1">
			<data element_type="f16" shape="256, 256" offset="14275600" size="131072"/>
			<output>
				<port id="0" precision="FP16" names="760">
					<dim>256</dim>
					<dim>256</dim>
				</port>
			</output>
		</layer>
		<layer id="306" name="MatMul_114" type="MatMul" version="opset1">
			<data transpose_a="false" transpose_b="true"/>
			<input>
				<port id="0" precision="FP16">
					<dim>1</dim>
					<dim>805</dim>
					<dim>256</dim>
				</port>
				<port id="1" precision="FP16">
					<dim>256</dim>
					<dim>256</dim>
				</port>
			</input>
			<output>
				<port id="2" precision="FP16" names="540">
					<dim>1</dim>
					<dim>805</dim>
					<dim>256</dim>
				</port>
			</output>
		</layer>
		<layer id="307" name="model.postnet.cbhg.highways.3.W1.bias" type="Const" version="opset1">
			<data element_type="f16" shape="1, 1, 256" offset="14406672" size="512"/>
			<output>
				<port id="0" precision="FP16" names="model.postnet.cbhg.highways.3.W1.bias">
					<dim>1</dim>
					<dim>1</dim>
					<dim>256</dim>
				</port>
			</output>
		</layer>
		<layer id="308" name="Add_115" type="Add" version="opset1">
			<data auto_broadcast="numpy"/>
			<input>
				<port id="0" precision="FP16">
					<dim>1</dim>
					<dim>805</dim>
					<dim>256</dim>
				</port>
				<port id="1" precision="FP16">
					<dim>1</dim>
					<dim>1</dim>
					<dim>256</dim>
				</port>
			</input>
			<output>
				<port id="2" precision="FP16" names="541">
					<dim>1</dim>
					<dim>805</dim>
					<dim>256</dim>
				</port>
			</output>
		</layer>
		<layer id="309" name="Relu_119" type="ReLU" version="opset1">
			<input>
				<port id="0" precision="FP16">
					<dim>1</dim>
					<dim>805</dim>
					<dim>256</dim>
				</port>
			</input>
			<output>
				<port id="1" precision="FP16" names="546">
					<dim>1</dim>
					<dim>805</dim>
					<dim>256</dim>
				</port>
			</output>
		</layer>
		<layer id="310" name="Mul_120" type="Multiply" version="opset1">
			<data auto_broadcast="numpy"/>
			<input>
				<port id="0" precision="FP16">
					<dim>1</dim>
					<dim>805</dim>
					<dim>256</dim>
				</port>
				<port id="1" precision="FP16">
					<dim>1</dim>
					<dim>805</dim>
					<dim>256</dim>
				</port>
			</input>
			<output>
				<port id="2" precision="FP16" names="547">
					<dim>1</dim>
					<dim>805</dim>
					<dim>256</dim>
				</port>
			</output>
		</layer>
		<layer id="311" name="Constant_121" type="Const" version="opset1">
			<data element_type="f16" shape="1, 1, 1" offset="13617678" size="2"/>
			<output>
				<port id="0" precision="FP16" names="548">
					<dim>1</dim>
					<dim>1</dim>
					<dim>1</dim>
				</port>
			</output>
		</layer>
		<layer id="312" name="Sub_122/sub" type="Subtract" version="opset1">
			<data auto_broadcast="numpy"/>
			<input>
				<port id="0" precision="FP16">
					<dim>1</dim>
					<dim>1</dim>
					<dim>1</dim>
				</port>
				<port id="1" precision="FP16">
					<dim>1</dim>
					<dim>805</dim>
					<dim>256</dim>
				</port>
			</input>
			<output>
				<port id="2" precision="FP16" names="549">
					<dim>1</dim>
					<dim>805</dim>
					<dim>256</dim>
				</port>
			</output>
		</layer>
		<layer id="313" name="Mul_123" type="Multiply" version="opset1">
			<data auto_broadcast="numpy"/>
			<input>
				<port id="0" precision="FP16">
					<dim>1</dim>
					<dim>805</dim>
					<dim>256</dim>
				</port>
				<port id="1" precision="FP16">
					<dim>1</dim>
					<dim>805</dim>
					<dim>256</dim>
				</port>
			</input>
			<output>
				<port id="2" precision="FP16" names="550">
					<dim>1</dim>
					<dim>805</dim>
					<dim>256</dim>
				</port>
			</output>
		</layer>
		<layer id="314" name="Add_124" type="Add" version="opset1">
			<data auto_broadcast="numpy"/>
			<input>
				<port id="0" precision="FP16">
					<dim>1</dim>
					<dim>805</dim>
					<dim>256</dim>
				</port>
				<port id="1" precision="FP16">
					<dim>1</dim>
					<dim>805</dim>
					<dim>256</dim>
				</port>
			</input>
			<output>
				<port id="2" precision="FP16" names="551">
					<dim>1</dim>
					<dim>805</dim>
					<dim>256</dim>
				</port>
			</output>
		</layer>
		<layer id="315" name="245" type="Const" version="opset1">
			<data element_type="i64" shape="3" offset="0" size="24"/>
			<output>
				<port id="0" precision="I64">
					<dim>3</dim>
				</port>
			</output>
		</layer>
		<layer id="316" name="Transpose_131" type="Transpose" version="opset1">
			<input>
				<port id="0" precision="FP16">
					<dim>1</dim>
					<dim>805</dim>
					<dim>256</dim>
				</port>
				<port id="1" precision="I64">
					<dim>3</dim>
				</port>
			</input>
			<output>
				<port id="2" precision="FP16" names="562">
					<dim>805</dim>
					<dim>1</dim>
					<dim>256</dim>
				</port>
			</output>
		</layer>
		<layer id="317" name="ConstantOfShape_130/Broadcast/FillValue" type="Const" version="opset1">
			<data element_type="f16" shape="1" offset="24" size="2"/>
			<output>
				<port id="0" precision="FP16">
					<dim>1</dim>
				</port>
			</output>
		</layer>
		<layer id="318" name="762" type="Const" version="opset1">
			<data element_type="i64" shape="1" offset="26" size="8"/>
			<output>
				<port id="0" precision="I64" names="762">
					<dim>1</dim>
				</port>
			</output>
		</layer>
		<layer id="319" name="Shape_125" type="ShapeOf" version="opset3">
			<data output_type="i64"/>
			<input>
				<port id="0" precision="FP16">
					<dim>1</dim>
					<dim>805</dim>
					<dim>256</dim>
				</port>
			</input>
			<output>
				<port id="1" precision="I64" names="552">
					<dim>3</dim>
				</port>
			</output>
		</layer>
		<layer id="320" name="Constant_126" type="Const" version="opset1">
			<data element_type="i32" shape="" offset="34" size="4"/>
			<output>
				<port id="0" precision="I32" names="553"/>
			</output>
		</layer>
		<layer id="321" name="Gather_127/axis" type="Const" version="opset1">
			<data element_type="i64" shape="" offset="38" size="8"/>
			<output>
				<port id="0" precision="I64"/>
			</output>
		</layer>
		<layer id="322" name="Gather_127286" type="Gather" version="opset7">
			<data batch_dims="0"/>
			<input>
				<port id="0" precision="I64">
					<dim>3</dim>
				</port>
				<port id="1" precision="I32"/>
				<port id="2" precision="I64"/>
			</input>
			<output>
				<port id="3" precision="I64" names="554"/>
			</output>
		</layer>
		<layer id="323" name="Unsqueeze_128/Dims" type="Const" version="opset1">
			<data element_type="i64" shape="1" offset="38" size="8"/>
			<output>
				<port id="0" precision="I64">
					<dim>1</dim>
				</port>
			</output>
		</layer>
		<layer id="324" name="Unsqueeze_128/Unsqueeze" type="Unsqueeze" version="opset1">
			<input>
				<port id="0" precision="I64"/>
				<port id="1" precision="I64">
					<dim>1</dim>
				</port>
			</input>
			<output>
				<port id="2" precision="I64" names="558">
					<dim>1</dim>
				</port>
			</output>
		</layer>
		<layer id="325" name="763" type="Const" version="opset1">
			<data element_type="i64" shape="1" offset="14407184" size="8"/>
			<output>
				<port id="0" precision="I64" names="763">
					<dim>1</dim>
				</port>
			</output>
		</layer>
		<layer id="326" name="Concat_129" type="Concat" version="opset1">
			<data axis="0"/>
			<input>
				<port id="0" precision="I64">
					<dim>1</dim>
				</port>
				<port id="1" precision="I64">
					<dim>1</dim>
				</port>
				<port id="2" precision="I64">
					<dim>1</dim>
				</port>
			</input>
			<output>
				<port id="3" precision="I64" names="560">
					<dim>3</dim>
				</port>
			</output>
		</layer>
		<layer id="327" name="ConstantOfShape_130/Broadcast" type="Broadcast" version="opset3">
			<data mode="numpy"/>
			<input>
				<port id="0" precision="FP16">
					<dim>1</dim>
				</port>
				<port id="1" precision="I64">
					<dim>3</dim>
				</port>
			</input>
			<output>
				<port id="2" precision="FP16" names="561">
					<dim>2</dim>
					<dim>1</dim>
					<dim>256</dim>
				</port>
			</output>
		</layer>
		<layer id="328" name="215413647" type="Const" version="opset1">
			<data element_type="i64" shape="" offset="38" size="8"/>
			<output>
				<port id="0" precision="I64"/>
			</output>
		</layer>
		<layer id="329" name="ConstantOfShape_130/Broadcast/Output_0/Data_/DecomposedBiLSTM_0" type="Split" version="opset1">
			<data num_splits="2"/>
			<input>
				<port id="0" precision="FP16">
					<dim>2</dim>
					<dim>1</dim>
					<dim>256</dim>
				</port>
				<port id="1" precision="I64"/>
			</input>
			<output>
				<port id="2" precision="FP16">
					<dim>1</dim>
					<dim>1</dim>
					<dim>256</dim>
				</port>
				<port id="3" precision="FP16">
					<dim>1</dim>
					<dim>1</dim>
					<dim>256</dim>
				</port>
			</output>
		</layer>
		<layer id="330" name="GRU_132/Split/forward/ShapeOf" type="ShapeOf" version="opset3">
			<data output_type="i64"/>
			<input>
				<port id="0" precision="FP16">
					<dim>805</dim>
					<dim>1</dim>
					<dim>256</dim>
				</port>
			</input>
			<output>
				<port id="1" precision="I64">
					<dim>3</dim>
				</port>
			</output>
		</layer>
		<layer id="331" name="GRU_132/Split/forward/ShapeOf/Indices229613761" type="Const" version="opset1">
			<data element_type="i32" shape="1" offset="54" size="4"/>
			<output>
				<port id="0" precision="I32">
					<dim>1</dim>
				</port>
			</output>
		</layer>
		<layer id="332" name="GRU_132/Split/forward/ShapeOf/Axis229714076" type="Const" version="opset1">
			<data element_type="i64" shape="" offset="38" size="8"/>
			<output>
				<port id="0" precision="I64"/>
			</output>
		</layer>
		<layer id="333" name="GRU_132/Split/forward/ShapeOf/Gather" type="Gather" version="opset7">
			<data batch_dims="0"/>
			<input>
				<port id="0" precision="I64">
					<dim>3</dim>
				</port>
				<port id="1" precision="I32">
					<dim>1</dim>
				</port>
				<port id="2" precision="I64"/>
			</input>
			<output>
				<port id="3" precision="I64">
					<dim>1</dim>
				</port>
			</output>
		</layer>
		<layer id="334" name="GRU_132/Split/forward/HiddenStateResizeDim/value230114085" type="Const" version="opset1">
			<data element_type="i64" shape="1" offset="14407184" size="8"/>
			<output>
				<port id="0" precision="I64">
					<dim>1</dim>
				</port>
			</output>
		</layer>
		<layer id="335" name="GRU_132/Split/forward/HiddenStateResizeDim" type="Concat" version="opset1">
			<data axis="0"/>
			<input>
				<port id="0" precision="I64">
					<dim>1</dim>
				</port>
				<port id="1" precision="I64">
					<dim>1</dim>
				</port>
			</input>
			<output>
				<port id="2" precision="I64">
					<dim>2</dim>
				</port>
			</output>
		</layer>
		<layer id="336" name="GRU_132/Split/forward/HiddenStateResize" type="Reshape" version="opset1">
			<data special_zero="true"/>
			<input>
				<port id="0" precision="FP16">
					<dim>1</dim>
					<dim>1</dim>
					<dim>256</dim>
				</port>
				<port id="1" precision="I64">
					<dim>2</dim>
				</port>
			</input>
			<output>
				<port id="2" precision="FP16">
					<dim>1</dim>
					<dim>256</dim>
				</port>
			</output>
		</layer>
		<layer id="337" name="GRU_132/Split/forward/TensorIterator" type="TensorIterator" version="opset1">
			<port_map>
				<input axis="0" external_port_id="0" internal_layer_id="1" start="0" end="-1" stride="1" part_size="1"/>
				<input external_port_id="1" internal_layer_id="0"/>
				<output axis="0" external_port_id="2" internal_layer_id="10" start="0" end="-1" stride="1" part_size="1"/>
				<output external_port_id="3" internal_layer_id="11"/>
			</port_map>
			<back_edges>
				<edge from-layer="11" to-layer="0"/>
			</back_edges>
			<input>
				<port id="0" precision="FP16">
					<dim>805</dim>
					<dim>1</dim>
					<dim>256</dim>
				</port>
				<port id="1" precision="FP16">
					<dim>1</dim>
					<dim>256</dim>
				</port>
			</input>
			<output>
				<port id="2" precision="FP16">
					<dim>805</dim>
					<dim>1</dim>
					<dim>256</dim>
				</port>
				<port id="3" precision="FP16">
					<dim>1</dim>
					<dim>256</dim>
				</port>
			</output>
			<body>
				<layers>
					<layer id="0" name="19" type="Parameter" version="opset1">
						<data shape="1, 256" element_type="f16"/>
						<output>
							<port id="0" precision="FP16">
								<dim>1</dim>
								<dim>256</dim>
							</port>
						</output>
					</layer>
					<layer id="1" name="17" type="Parameter" version="opset1">
						<data shape="1, 1, 256" element_type="f16"/>
						<output>
							<port id="0" precision="FP16">
								<dim>1</dim>
								<dim>1</dim>
								<dim>256</dim>
							</port>
						</output>
					</layer>
					<layer id="2" name="6270" type="Const" version="opset1">
						<data element_type="i64" shape="1" offset="38" size="8"/>
						<output>
							<port id="0" precision="I64">
								<dim>1</dim>
							</port>
						</output>
					</layer>
					<layer id="3" name="GRU_132/Split/forward/input_squeeze" type="Squeeze" version="opset1">
						<input>
							<port id="0" precision="FP16">
								<dim>1</dim>
								<dim>1</dim>
								<dim>256</dim>
							</port>
							<port id="1" precision="I64">
								<dim>1</dim>
							</port>
						</input>
						<output>
							<port id="2" precision="FP16">
								<dim>1</dim>
								<dim>256</dim>
							</port>
						</output>
					</layer>
					<layer id="4" name="GRU_132/Split/forward/GRUCell/Split220267" type="Const" version="opset1">
						<data element_type="f16" shape="768, 256" offset="14407192" size="393216"/>
						<output>
							<port id="0" precision="FP16">
								<dim>768</dim>
								<dim>256</dim>
							</port>
						</output>
					</layer>
					<layer id="5" name="GRU_132/Split/forward/GRUCell/Split221279" type="Const" version="opset1">
						<data element_type="f16" shape="768, 256" offset="14800408" size="393216"/>
						<output>
							<port id="0" precision="FP16">
								<dim>768</dim>
								<dim>256</dim>
							</port>
						</output>
					</layer>
					<layer id="6" name="GRU_132/Split/forward/inport/2273" type="Const" version="opset1">
						<data element_type="f16" shape="1024" offset="15193624" size="2048"/>
						<output>
							<port id="0" precision="FP16">
								<dim>1024</dim>
							</port>
						</output>
					</layer>
					<layer id="7" name="GRU_132/Split/forward/GRUCell" type="GRUCell" version="opset3">
						<data linear_before_reset="true" hidden_size="256" activations="sigmoid, tanh" activations_alpha="" activations_beta="" clip="0"/>
						<input>
							<port id="0" precision="FP16">
								<dim>1</dim>
								<dim>256</dim>
							</port>
							<port id="1" precision="FP16">
								<dim>1</dim>
								<dim>256</dim>
							</port>
							<port id="2" precision="FP16">
								<dim>768</dim>
								<dim>256</dim>
							</port>
							<port id="3" precision="FP16">
								<dim>768</dim>
								<dim>256</dim>
							</port>
							<port id="4" precision="FP16">
								<dim>1024</dim>
							</port>
						</input>
						<output>
							<port id="5" precision="FP16">
								<dim>1</dim>
								<dim>256</dim>
							</port>
						</output>
					</layer>
					<layer id="8" name="12276" type="Const" version="opset1">
						<data element_type="i64" shape="1" offset="38" size="8"/>
						<output>
							<port id="0" precision="I64">
								<dim>1</dim>
							</port>
						</output>
					</layer>
					<layer id="9" name="GRU_132/Split/forward/output_unsqueeze/" type="Unsqueeze" version="opset1">
						<input>
							<port id="0" precision="FP16">
								<dim>1</dim>
								<dim>256</dim>
							</port>
							<port id="1" precision="I64">
								<dim>1</dim>
							</port>
						</input>
						<output>
							<port id="2" precision="FP16">
								<dim>1</dim>
								<dim>1</dim>
								<dim>256</dim>
							</port>
						</output>
					</layer>
					<layer id="10" name="15/sink_port_0" type="Result" version="opset1">
						<input>
							<port id="0" precision="FP16">
								<dim>1</dim>
								<dim>1</dim>
								<dim>256</dim>
							</port>
						</input>
					</layer>
					<layer id="11" name="GRU_132/Split/forward/outport/0/sink_port_0" type="Result" version="opset1">
						<input>
							<port id="0" precision="FP16">
								<dim>1</dim>
								<dim>256</dim>
							</port>
						</input>
					</layer>
				</layers>
				<edges>
					<edge from-layer="0" from-port="0" to-layer="7" to-port="1"/>
					<edge from-layer="1" from-port="0" to-layer="3" to-port="0"/>
					<edge from-layer="2" from-port="0" to-layer="3" to-port="1"/>
					<edge from-layer="3" from-port="2" to-layer="7" to-port="0"/>
					<edge from-layer="4" from-port="0" to-layer="7" to-port="2"/>
					<edge from-layer="5" from-port="0" to-layer="7" to-port="3"/>
					<edge from-layer="6" from-port="0" to-layer="7" to-port="4"/>
					<edge from-layer="7" from-port="5" to-layer="9" to-port="0"/>
					<edge from-layer="7" from-port="5" to-layer="11" to-port="0"/>
					<edge from-layer="8" from-port="0" to-layer="9" to-port="1"/>
					<edge from-layer="9" from-port="2" to-layer="10" to-port="0"/>
				</edges>
			</body>
		</layer>
		<layer id="338" name="228913701" type="Const" version="opset1">
			<data element_type="i64" shape="1" offset="38" size="8"/>
			<output>
				<port id="0" precision="I64">
					<dim>1</dim>
				</port>
			</output>
		</layer>
		<layer id="339" name="GRU_132/Split/forward/UnsqueezeNumDirections/1" type="Unsqueeze" version="opset1">
			<input>
				<port id="0" precision="FP16">
					<dim>1</dim>
					<dim>256</dim>
				</port>
				<port id="1" precision="I64">
					<dim>1</dim>
				</port>
			</input>
			<output>
				<port id="2" precision="FP16">
					<dim>1</dim>
					<dim>1</dim>
					<dim>256</dim>
				</port>
			</output>
		</layer>
		<layer id="340" name="GRU_132/Split/reverse/ShapeOf" type="ShapeOf" version="opset3">
			<data output_type="i64"/>
			<input>
				<port id="0" precision="FP16">
					<dim>805</dim>
					<dim>1</dim>
					<dim>256</dim>
				</port>
			</input>
			<output>
				<port id="1" precision="I64">
					<dim>3</dim>
				</port>
			</output>
		</layer>
		<layer id="341" name="GRU_132/Split/reverse/ShapeOf/Indices227213791" type="Const" version="opset1">
			<data element_type="i32" shape="1" offset="54" size="4"/>
			<output>
				<port id="0" precision="I32">
					<dim>1</dim>
				</port>
			</output>
		</layer>
		<layer id="342" name="GRU_132/Split/reverse/ShapeOf/Axis227313695" type="Const" version="opset1">
			<data element_type="i64" shape="" offset="38" size="8"/>
			<output>
				<port id="0" precision="I64"/>
			</output>
		</layer>
		<layer id="343" name="GRU_132/Split/reverse/ShapeOf/Gather" type="Gather" version="opset7">
			<data batch_dims="0"/>
			<input>
				<port id="0" precision="I64">
					<dim>3</dim>
				</port>
				<port id="1" precision="I32">
					<dim>1</dim>
				</port>
				<port id="2" precision="I64"/>
			</input>
			<output>
				<port id="3" precision="I64">
					<dim>1</dim>
				</port>
			</output>
		</layer>
		<layer id="344" name="GRU_132/Split/reverse/HiddenStateResizeDim/value227714094" type="Const" version="opset1">
			<data element_type="i64" shape="1" offset="14407184" size="8"/>
			<output>
				<port id="0" precision="I64">
					<dim>1</dim>
				</port>
			</output>
		</layer>
		<layer id="345" name="GRU_132/Split/reverse/HiddenStateResizeDim" type="Concat" version="opset1">
			<data axis="0"/>
			<input>
				<port id="0" precision="I64">
					<dim>1</dim>
				</port>
				<port id="1" precision="I64">
					<dim>1</dim>
				</port>
			</input>
			<output>
				<port id="2" precision="I64">
					<dim>2</dim>
				</port>
			</output>
		</layer>
		<layer id="346" name="GRU_132/Split/reverse/HiddenStateResize" type="Reshape" version="opset1">
			<data special_zero="true"/>
			<input>
				<port id="0" precision="FP16">
					<dim>1</dim>
					<dim>1</dim>
					<dim>256</dim>
				</port>
				<port id="1" precision="I64">
					<dim>2</dim>
				</port>
			</input>
			<output>
				<port id="2" precision="FP16">
					<dim>1</dim>
					<dim>256</dim>
				</port>
			</output>
		</layer>
		<layer id="347" name="GRU_132/Split/reverse/TensorIterator" type="TensorIterator" version="opset1">
			<port_map>
				<input axis="0" external_port_id="0" internal_layer_id="1" start="-1" end="0" stride="-1" part_size="1"/>
				<input external_port_id="1" internal_layer_id="0"/>
				<output axis="0" external_port_id="2" internal_layer_id="10" start="-1" end="0" stride="-1" part_size="1"/>
				<output external_port_id="3" internal_layer_id="11"/>
			</port_map>
			<back_edges>
				<edge from-layer="11" to-layer="0"/>
			</back_edges>
			<input>
				<port id="0" precision="FP16">
					<dim>805</dim>
					<dim>1</dim>
					<dim>256</dim>
				</port>
				<port id="1" precision="FP16">
					<dim>1</dim>
					<dim>256</dim>
				</port>
			</input>
			<output>
				<port id="2" precision="FP16">
					<dim>805</dim>
					<dim>1</dim>
					<dim>256</dim>
				</port>
				<port id="3" precision="FP16">
					<dim>1</dim>
					<dim>256</dim>
				</port>
			</output>
			<body>
				<layers>
					<layer id="0" name="19" type="Parameter" version="opset1">
						<data shape="1, 256" element_type="f16"/>
						<output>
							<port id="0" precision="FP16">
								<dim>1</dim>
								<dim>256</dim>
							</port>
						</output>
					</layer>
					<layer id="1" name="17" type="Parameter" version="opset1">
						<data shape="1, 1, 256" element_type="f16"/>
						<output>
							<port id="0" precision="FP16">
								<dim>1</dim>
								<dim>1</dim>
								<dim>256</dim>
							</port>
						</output>
					</layer>
					<layer id="2" name="6267" type="Const" version="opset1">
						<data element_type="i64" shape="1" offset="38" size="8"/>
						<output>
							<port id="0" precision="I64">
								<dim>1</dim>
							</port>
						</output>
					</layer>
					<layer id="3" name="GRU_132/Split/reverse/input_squeeze" type="Squeeze" version="opset1">
						<input>
							<port id="0" precision="FP16">
								<dim>1</dim>
								<dim>1</dim>
								<dim>256</dim>
							</port>
							<port id="1" precision="I64">
								<dim>1</dim>
							</port>
						</input>
						<output>
							<port id="2" precision="FP16">
								<dim>1</dim>
								<dim>256</dim>
							</port>
						</output>
					</layer>
					<layer id="4" name="GRU_132/Split/reverse/GRUCell/Split220279" type="Const" version="opset1">
						<data element_type="f16" shape="768, 256" offset="15195672" size="393216"/>
						<output>
							<port id="0" precision="FP16">
								<dim>768</dim>
								<dim>256</dim>
							</port>
						</output>
					</layer>
					<layer id="5" name="GRU_132/Split/reverse/GRUCell/Split221273" type="Const" version="opset1">
						<data element_type="f16" shape="768, 256" offset="15588888" size="393216"/>
						<output>
							<port id="0" precision="FP16">
								<dim>768</dim>
								<dim>256</dim>
							</port>
						</output>
					</layer>
					<layer id="6" name="GRU_132/Split/reverse/inport/2270" type="Const" version="opset1">
						<data element_type="f16" shape="1024" offset="15982104" size="2048"/>
						<output>
							<port id="0" precision="FP16">
								<dim>1024</dim>
							</port>
						</output>
					</layer>
					<layer id="7" name="GRU_132/Split/reverse/GRUCell" type="GRUCell" version="opset3">
						<data linear_before_reset="true" hidden_size="256" activations="sigmoid, tanh" activations_alpha="" activations_beta="" clip="0"/>
						<input>
							<port id="0" precision="FP16">
								<dim>1</dim>
								<dim>256</dim>
							</port>
							<port id="1" precision="FP16">
								<dim>1</dim>
								<dim>256</dim>
							</port>
							<port id="2" precision="FP16">
								<dim>768</dim>
								<dim>256</dim>
							</port>
							<port id="3" precision="FP16">
								<dim>768</dim>
								<dim>256</dim>
							</port>
							<port id="4" precision="FP16">
								<dim>1024</dim>
							</port>
						</input>
						<output>
							<port id="5" precision="FP16">
								<dim>1</dim>
								<dim>256</dim>
							</port>
						</output>
					</layer>
					<layer id="8" name="12276" type="Const" version="opset1">
						<data element_type="i64" shape="1" offset="38" size="8"/>
						<output>
							<port id="0" precision="I64">
								<dim>1</dim>
							</port>
						</output>
					</layer>
					<layer id="9" name="GRU_132/Split/reverse/output_unsqueeze/" type="Unsqueeze" version="opset1">
						<input>
							<port id="0" precision="FP16">
								<dim>1</dim>
								<dim>256</dim>
							</port>
							<port id="1" precision="I64">
								<dim>1</dim>
							</port>
						</input>
						<output>
							<port id="2" precision="FP16">
								<dim>1</dim>
								<dim>1</dim>
								<dim>256</dim>
							</port>
						</output>
					</layer>
					<layer id="10" name="15/sink_port_0" type="Result" version="opset1">
						<input>
							<port id="0" precision="FP16">
								<dim>1</dim>
								<dim>1</dim>
								<dim>256</dim>
							</port>
						</input>
					</layer>
					<layer id="11" name="GRU_132/Split/reverse/outport/0/sink_port_0" type="Result" version="opset1">
						<input>
							<port id="0" precision="FP16">
								<dim>1</dim>
								<dim>256</dim>
							</port>
						</input>
					</layer>
				</layers>
				<edges>
					<edge from-layer="0" from-port="0" to-layer="7" to-port="1"/>
					<edge from-layer="1" from-port="0" to-layer="3" to-port="0"/>
					<edge from-layer="2" from-port="0" to-layer="3" to-port="1"/>
					<edge from-layer="3" from-port="2" to-layer="7" to-port="0"/>
					<edge from-layer="4" from-port="0" to-layer="7" to-port="2"/>
					<edge from-layer="5" from-port="0" to-layer="7" to-port="3"/>
					<edge from-layer="6" from-port="0" to-layer="7" to-port="4"/>
					<edge from-layer="7" from-port="5" to-layer="9" to-port="0"/>
					<edge from-layer="7" from-port="5" to-layer="11" to-port="0"/>
					<edge from-layer="8" from-port="0" to-layer="9" to-port="1"/>
					<edge from-layer="9" from-port="2" to-layer="10" to-port="0"/>
				</edges>
			</body>
		</layer>
		<layer id="348" name="226514049" type="Const" version="opset1">
			<data element_type="i64" shape="1" offset="38" size="8"/>
			<output>
				<port id="0" precision="I64">
					<dim>1</dim>
				</port>
			</output>
		</layer>
		<layer id="349" name="GRU_132/Split/reverse/UnsqueezeNumDirections/1" type="Unsqueeze" version="opset1">
			<input>
				<port id="0" precision="FP16">
					<dim>1</dim>
					<dim>256</dim>
				</port>
				<port id="1" precision="I64">
					<dim>1</dim>
				</port>
			</input>
			<output>
				<port id="2" precision="FP16">
					<dim>1</dim>
					<dim>1</dim>
					<dim>256</dim>
				</port>
			</output>
		</layer>
		<layer id="350" name="GRU_132/FinalConcat/HiddenState" type="Concat" version="opset1">
			<data axis="0"/>
			<input>
				<port id="0" precision="FP16">
					<dim>1</dim>
					<dim>1</dim>
					<dim>256</dim>
				</port>
				<port id="1" precision="FP16">
					<dim>1</dim>
					<dim>1</dim>
					<dim>256</dim>
				</port>
			</input>
			<output>
				<port id="2" precision="FP16">
					<dim>2</dim>
					<dim>1</dim>
					<dim>256</dim>
				</port>
			</output>
		</layer>
		<layer id="351" name="GRU_132/FinalConcat/HiddenState/sink_port_0" type="Result" version="opset1">
			<input>
				<port id="0" precision="FP16">
					<dim>2</dim>
					<dim>1</dim>
					<dim>256</dim>
				</port>
			</input>
		</layer>
		<layer id="352" name="228513941" type="Const" version="opset1">
			<data element_type="i64" shape="1" offset="8396858" size="8"/>
			<output>
				<port id="0" precision="I64">
					<dim>1</dim>
				</port>
			</output>
		</layer>
		<layer id="353" name="GRU_132/Split/forward/UnsqueezeNumDirections/0" type="Unsqueeze" version="opset1">
			<input>
				<port id="0" precision="FP16">
					<dim>805</dim>
					<dim>1</dim>
					<dim>256</dim>
				</port>
				<port id="1" precision="I64">
					<dim>1</dim>
				</port>
			</input>
			<output>
				<port id="2" precision="FP16">
					<dim>805</dim>
					<dim>1</dim>
					<dim>1</dim>
					<dim>256</dim>
				</port>
			</output>
		</layer>
		<layer id="354" name="226113830" type="Const" version="opset1">
			<data element_type="i64" shape="1" offset="8396858" size="8"/>
			<output>
				<port id="0" precision="I64">
					<dim>1</dim>
				</port>
			</output>
		</layer>
		<layer id="355" name="GRU_132/Split/reverse/UnsqueezeNumDirections/0" type="Unsqueeze" version="opset1">
			<input>
				<port id="0" precision="FP16">
					<dim>805</dim>
					<dim>1</dim>
					<dim>256</dim>
				</port>
				<port id="1" precision="I64">
					<dim>1</dim>
				</port>
			</input>
			<output>
				<port id="2" precision="FP16">
					<dim>805</dim>
					<dim>1</dim>
					<dim>1</dim>
					<dim>256</dim>
				</port>
			</output>
		</layer>
		<layer id="356" name="GRU_132/FinalConcat/Data" type="Concat" version="opset1">
			<data axis="1"/>
			<input>
				<port id="0" precision="FP16">
					<dim>805</dim>
					<dim>1</dim>
					<dim>1</dim>
					<dim>256</dim>
				</port>
				<port id="1" precision="FP16">
					<dim>805</dim>
					<dim>1</dim>
					<dim>1</dim>
					<dim>256</dim>
				</port>
			</input>
			<output>
				<port id="2" precision="FP16" names="679">
					<dim>805</dim>
					<dim>2</dim>
					<dim>1</dim>
					<dim>256</dim>
				</port>
			</output>
		</layer>
		<layer id="357" name="242" type="Const" version="opset1">
			<data element_type="i64" shape="4" offset="8396866" size="32"/>
			<output>
				<port id="0" precision="I64">
					<dim>4</dim>
				</port>
			</output>
		</layer>
		<layer id="358" name="Transpose_133" type="Transpose" version="opset1">
			<input>
				<port id="0" precision="FP16">
					<dim>805</dim>
					<dim>2</dim>
					<dim>1</dim>
					<dim>256</dim>
				</port>
				<port id="1" precision="I64">
					<dim>4</dim>
				</port>
			</input>
			<output>
				<port id="2" precision="FP16" names="681">
					<dim>805</dim>
					<dim>1</dim>
					<dim>2</dim>
					<dim>256</dim>
				</port>
			</output>
		</layer>
		<layer id="359" name="Constant_134" type="Const" version="opset1">
			<data element_type="i64" shape="3" offset="8396898" size="24"/>
			<output>
				<port id="0" precision="I64" names="682">
					<dim>3</dim>
				</port>
			</output>
		</layer>
		<layer id="360" name="Reshape_135" type="Reshape" version="opset1">
			<data special_zero="true"/>
			<input>
				<port id="0" precision="FP16">
					<dim>805</dim>
					<dim>1</dim>
					<dim>2</dim>
					<dim>256</dim>
				</port>
				<port id="1" precision="I64">
					<dim>3</dim>
				</port>
			</input>
			<output>
				<port id="2" precision="FP16" names="683">
					<dim>805</dim>
					<dim>1</dim>
					<dim>512</dim>
				</port>
			</output>
		</layer>
		<layer id="361" name="250" type="Const" version="opset1">
			<data element_type="i64" shape="3" offset="0" size="24"/>
			<output>
				<port id="0" precision="I64">
					<dim>3</dim>
				</port>
			</output>
		</layer>
		<layer id="362" name="Transpose_136" type="Transpose" version="opset1">
			<input>
				<port id="0" precision="FP16">
					<dim>805</dim>
					<dim>1</dim>
					<dim>512</dim>
				</port>
				<port id="1" precision="I64">
					<dim>3</dim>
				</port>
			</input>
			<output>
				<port id="2" precision="FP16" names="684">
					<dim>1</dim>
					<dim>805</dim>
					<dim>512</dim>
				</port>
			</output>
		</layer>
		<layer id="363" name="807" type="Const" version="opset1">
			<data element_type="f16" shape="80, 512" offset="15984152" size="81920"/>
			<output>
				<port id="0" precision="FP16" names="807">
					<dim>80</dim>
					<dim>512</dim>
				</port>
			</output>
		</layer>
		<layer id="364" name="MatMul_137" type="MatMul" version="opset1">
			<data transpose_a="false" transpose_b="true"/>
			<input>
				<port id="0" precision="FP16">
					<dim>1</dim>
					<dim>805</dim>
					<dim>512</dim>
				</port>
				<port id="1" precision="FP16">
					<dim>80</dim>
					<dim>512</dim>
				</port>
			</input>
			<output>
				<port id="2" precision="FP16" names="686">
					<dim>1</dim>
					<dim>805</dim>
					<dim>80</dim>
				</port>
			</output>
		</layer>
		<layer id="365" name="246" type="Const" version="opset1">
			<data element_type="i64" shape="3" offset="8560922" size="24"/>
			<output>
				<port id="0" precision="I64">
					<dim>3</dim>
				</port>
			</output>
		</layer>
		<layer id="366" name="Transpose_138" type="Transpose" version="opset1">
			<input>
				<port id="0" precision="FP16">
					<dim>1</dim>
					<dim>805</dim>
					<dim>80</dim>
				</port>
				<port id="1" precision="I64">
					<dim>3</dim>
				</port>
			</input>
			<output>
				<port id="2" precision="FP16" names="687">
					<dim>1</dim>
					<dim>80</dim>
					<dim>805</dim>
				</port>
			</output>
		</layer>
		<layer id="367" name="Squeeze_139/Dims" type="Const" version="opset1">
			<data element_type="i64" shape="1" offset="38" size="8"/>
			<output>
				<port id="0" precision="I64">
					<dim>1</dim>
				</port>
			</output>
		</layer>
		<layer id="368" name="mel" type="Squeeze" version="opset1">
			<input>
				<port id="0" precision="FP16">
					<dim>1</dim>
					<dim>80</dim>
					<dim>805</dim>
				</port>
				<port id="1" precision="I64">
					<dim>1</dim>
				</port>
			</input>
			<output>
				<port id="2" precision="FP16" names="mel">
					<dim>80</dim>
					<dim>805</dim>
				</port>
			</output>
		</layer>
		<layer id="369" name="mel/sink_port_0" type="Result" version="opset1">
			<input>
				<port id="0" precision="FP16">
					<dim>80</dim>
					<dim>805</dim>
				</port>
			</input>
		</layer>
	</layers>
	<edges>
		<edge from-layer="0" from-port="0" to-layer="5" to-port="0"/>
		<edge from-layer="0" from-port="0" to-layer="2" to-port="0"/>
		<edge from-layer="1" from-port="0" to-layer="2" to-port="1"/>
		<edge from-layer="2" from-port="2" to-layer="29" to-port="0"/>
		<edge from-layer="2" from-port="2" to-layer="26" to-port="0"/>
		<edge from-layer="2" from-port="2" to-layer="37" to-port="0"/>
		<edge from-layer="2" from-port="2" to-layer="16" to-port="0"/>
		<edge from-layer="3" from-port="0" to-layer="13" to-port="0"/>
		<edge from-layer="4" from-port="0" to-layer="12" to-port="0"/>
		<edge from-layer="5" from-port="1" to-layer="8" to-port="0"/>
		<edge from-layer="6" from-port="0" to-layer="8" to-port="1"/>
		<edge from-layer="7" from-port="0" to-layer="8" to-port="2"/>
		<edge from-layer="8" from-port="3" to-layer="10" to-port="0"/>
		<edge from-layer="9" from-port="0" to-layer="10" to-port="1"/>
		<edge from-layer="10" from-port="2" to-layer="12" to-port="1"/>
		<edge from-layer="11" from-port="0" to-layer="12" to-port="2"/>
		<edge from-layer="12" from-port="3" to-layer="13" to-port="1"/>
		<edge from-layer="13" from-port="2" to-layer="15" to-port="0"/>
		<edge from-layer="13" from-port="2" to-layer="24" to-port="0"/>
		<edge from-layer="14" from-port="0" to-layer="15" to-port="1"/>
		<edge from-layer="15" from-port="3" to-layer="35" to-port="0"/>
		<edge from-layer="15" from-port="2" to-layer="22" to-port="0"/>
		<edge from-layer="16" from-port="1" to-layer="19" to-port="0"/>
		<edge from-layer="17" from-port="0" to-layer="19" to-port="1"/>
		<edge from-layer="18" from-port="0" to-layer="19" to-port="2"/>
		<edge from-layer="19" from-port="3" to-layer="21" to-port="0"/>
		<edge from-layer="20" from-port="0" to-layer="21" to-port="1"/>
		<edge from-layer="21" from-port="2" to-layer="22" to-port="1"/>
		<edge from-layer="21" from-port="2" to-layer="25" to-port="1"/>
		<edge from-layer="22" from-port="2" to-layer="26" to-port="1"/>
		<edge from-layer="23" from-port="0" to-layer="24" to-port="1"/>
		<edge from-layer="24" from-port="2" to-layer="25" to-port="0"/>
		<edge from-layer="24" from-port="3" to-layer="36" to-port="0"/>
		<edge from-layer="25" from-port="2" to-layer="26" to-port="2"/>
		<edge from-layer="26" from-port="5" to-layer="28" to-port="0"/>
		<edge from-layer="26" from-port="3" to-layer="49" to-port="0"/>
		<edge from-layer="26" from-port="4" to-layer="43" to-port="0"/>
		<edge from-layer="27" from-port="0" to-layer="28" to-port="1"/>
		<edge from-layer="28" from-port="2" to-layer="40" to-port="0"/>
		<edge from-layer="29" from-port="1" to-layer="32" to-port="0"/>
		<edge from-layer="30" from-port="0" to-layer="32" to-port="1"/>
		<edge from-layer="31" from-port="0" to-layer="32" to-port="2"/>
		<edge from-layer="32" from-port="3" to-layer="34" to-port="0"/>
		<edge from-layer="33" from-port="0" to-layer="34" to-port="1"/>
		<edge from-layer="34" from-port="2" to-layer="36" to-port="1"/>
		<edge from-layer="34" from-port="2" to-layer="35" to-port="1"/>
		<edge from-layer="35" from-port="2" to-layer="37" to-port="1"/>
		<edge from-layer="36" from-port="2" to-layer="37" to-port="2"/>
		<edge from-layer="37" from-port="5" to-layer="39" to-port="0"/>
		<edge from-layer="37" from-port="3" to-layer="51" to-port="0"/>
		<edge from-layer="37" from-port="4" to-layer="45" to-port="0"/>
		<edge from-layer="38" from-port="0" to-layer="39" to-port="1"/>
		<edge from-layer="39" from-port="2" to-layer="40" to-port="1"/>
		<edge from-layer="40" from-port="2" to-layer="41" to-port="0"/>
		<edge from-layer="42" from-port="0" to-layer="43" to-port="1"/>
		<edge from-layer="43" from-port="2" to-layer="46" to-port="0"/>
		<edge from-layer="44" from-port="0" to-layer="45" to-port="1"/>
		<edge from-layer="45" from-port="2" to-layer="46" to-port="1"/>
		<edge from-layer="46" from-port="2" to-layer="47" to-port="0"/>
		<edge from-layer="48" from-port="0" to-layer="49" to-port="1"/>
		<edge from-layer="49" from-port="2" to-layer="52" to-port="0"/>
		<edge from-layer="50" from-port="0" to-layer="51" to-port="1"/>
		<edge from-layer="51" from-port="2" to-layer="52" to-port="1"/>
		<edge from-layer="52" from-port="2" to-layer="54" to-port="0"/>
		<edge from-layer="53" from-port="0" to-layer="54" to-port="1"/>
		<edge from-layer="54" from-port="2" to-layer="56" to-port="0"/>
		<edge from-layer="55" from-port="0" to-layer="56" to-port="1"/>
		<edge from-layer="56" from-port="2" to-layer="58" to-port="0"/>
		<edge from-layer="57" from-port="0" to-layer="58" to-port="1"/>
		<edge from-layer="58" from-port="2" to-layer="60" to-port="0"/>
		<edge from-layer="59" from-port="0" to-layer="60" to-port="1"/>
		<edge from-layer="60" from-port="2" to-layer="62" to-port="0"/>
		<edge from-layer="61" from-port="0" to-layer="62" to-port="1"/>
		<edge from-layer="62" from-port="2" to-layer="64" to-port="0"/>
		<edge from-layer="63" from-port="0" to-layer="64" to-port="1"/>
		<edge from-layer="64" from-port="2" to-layer="66" to-port="0"/>
		<edge from-layer="64" from-port="2" to-layer="75" to-port="0"/>
		<edge from-layer="64" from-port="2" to-layer="108" to-port="0"/>
		<edge from-layer="64" from-port="2" to-layer="127" to-port="0"/>
		<edge from-layer="64" from-port="2" to-layer="146" to-port="0"/>
		<edge from-layer="64" from-port="2" to-layer="203" to-port="0"/>
		<edge from-layer="64" from-port="2" to-layer="89" to-port="0"/>
		<edge from-layer="64" from-port="2" to-layer="250" to-port="1"/>
		<edge from-layer="64" from-port="2" to-layer="165" to-port="0"/>
		<edge from-layer="64" from-port="2" to-layer="184" to-port="0"/>
		<edge from-layer="65" from-port="0" to-layer="66" to-port="1"/>
		<edge from-layer="66" from-port="2" to-layer="67" to-port="0"/>
		<edge from-layer="67" from-port="1" to-layer="69" to-port="0"/>
		<edge from-layer="68" from-port="0" to-layer="69" to-port="1"/>
		<edge from-layer="69" from-port="2" to-layer="71" to-port="0"/>
		<edge from-layer="70" from-port="0" to-layer="71" to-port="1"/>
		<edge from-layer="71" from-port="2" to-layer="87" to-port="0"/>
		<edge from-layer="72" from-port="0" to-layer="87" to-port="1"/>
		<edge from-layer="73" from-port="0" to-layer="85" to-port="0"/>
		<edge from-layer="74" from-port="0" to-layer="85" to-port="1"/>
		<edge from-layer="75" from-port="1" to-layer="78" to-port="0"/>
		<edge from-layer="76" from-port="0" to-layer="78" to-port="1"/>
		<edge from-layer="77" from-port="0" to-layer="78" to-port="2"/>
		<edge from-layer="78" from-port="3" to-layer="194" to-port="0"/>
		<edge from-layer="78" from-port="3" to-layer="175" to-port="0"/>
		<edge from-layer="78" from-port="3" to-layer="213" to-port="0"/>
		<edge from-layer="78" from-port="3" to-layer="156" to-port="0"/>
		<edge from-layer="78" from-port="3" to-layer="231" to-port="0"/>
		<edge from-layer="78" from-port="3" to-layer="137" to-port="0"/>
		<edge from-layer="78" from-port="3" to-layer="118" to-port="0"/>
		<edge from-layer="78" from-port="3" to-layer="99" to-port="0"/>
		<edge from-layer="78" from-port="3" to-layer="80" to-port="0"/>
		<edge from-layer="79" from-port="0" to-layer="80" to-port="1"/>
		<edge from-layer="80" from-port="2" to-layer="81" to-port="0"/>
		<edge from-layer="81" from-port="1" to-layer="84" to-port="0"/>
		<edge from-layer="82" from-port="0" to-layer="84" to-port="1"/>
		<edge from-layer="83" from-port="0" to-layer="84" to-port="2"/>
		<edge from-layer="84" from-port="3" to-layer="85" to-port="2"/>
		<edge from-layer="85" from-port="3" to-layer="87" to-port="2"/>
		<edge from-layer="86" from-port="0" to-layer="87" to-port="3"/>
		<edge from-layer="87" from-port="4" to-layer="221" to-port="0"/>
		<edge from-layer="88" from-port="0" to-layer="89" to-port="1"/>
		<edge from-layer="89" from-port="2" to-layer="90" to-port="0"/>
		<edge from-layer="90" from-port="1" to-layer="92" to-port="0"/>
		<edge from-layer="91" from-port="0" to-layer="92" to-port="1"/>
		<edge from-layer="92" from-port="2" to-layer="94" to-port="0"/>
		<edge from-layer="93" from-port="0" to-layer="94" to-port="1"/>
		<edge from-layer="94" from-port="2" to-layer="106" to-port="0"/>
		<edge from-layer="95" from-port="0" to-layer="106" to-port="1"/>
		<edge from-layer="96" from-port="0" to-layer="104" to-port="0"/>
		<edge from-layer="97" from-port="0" to-layer="104" to-port="1"/>
		<edge from-layer="98" from-port="0" to-layer="99" to-port="1"/>
		<edge from-layer="99" from-port="2" to-layer="100" to-port="0"/>
		<edge from-layer="100" from-port="1" to-layer="103" to-port="0"/>
		<edge from-layer="101" from-port="0" to-layer="103" to-port="1"/>
		<edge from-layer="102" from-port="0" to-layer="103" to-port="2"/>
		<edge from-layer="103" from-port="3" to-layer="104" to-port="2"/>
		<edge from-layer="104" from-port="3" to-layer="106" to-port="2"/>
		<edge from-layer="105" from-port="0" to-layer="106" to-port="3"/>
		<edge from-layer="106" from-port="4" to-layer="221" to-port="1"/>
		<edge from-layer="107" from-port="0" to-layer="108" to-port="1"/>
		<edge from-layer="108" from-port="2" to-layer="109" to-port="0"/>
		<edge from-layer="109" from-port="1" to-layer="111" to-port="0"/>
		<edge from-layer="110" from-port="0" to-layer="111" to-port="1"/>
		<edge from-layer="111" from-port="2" to-layer="113" to-port="0"/>
		<edge from-layer="112" from-port="0" to-layer="113" to-port="1"/>
		<edge from-layer="113" from-port="2" to-layer="125" to-port="0"/>
		<edge from-layer="114" from-port="0" to-layer="125" to-port="1"/>
		<edge from-layer="115" from-port="0" to-layer="123" to-port="0"/>
		<edge from-layer="116" from-port="0" to-layer="123" to-port="1"/>
		<edge from-layer="117" from-port="0" to-layer="118" to-port="1"/>
		<edge from-layer="118" from-port="2" to-layer="119" to-port="0"/>
		<edge from-layer="119" from-port="1" to-layer="122" to-port="0"/>
		<edge from-layer="120" from-port="0" to-layer="122" to-port="1"/>
		<edge from-layer="121" from-port="0" to-layer="122" to-port="2"/>
		<edge from-layer="122" from-port="3" to-layer="123" to-port="2"/>
		<edge from-layer="123" from-port="3" to-layer="125" to-port="2"/>
		<edge from-layer="124" from-port="0" to-layer="125" to-port="3"/>
		<edge from-layer="125" from-port="4" to-layer="221" to-port="2"/>
		<edge from-layer="126" from-port="0" to-layer="127" to-port="1"/>
		<edge from-layer="127" from-port="2" to-layer="128" to-port="0"/>
		<edge from-layer="128" from-port="1" to-layer="130" to-port="0"/>
		<edge from-layer="129" from-port="0" to-layer="130" to-port="1"/>
		<edge from-layer="130" from-port="2" to-layer="132" to-port="0"/>
		<edge from-layer="131" from-port="0" to-layer="132" to-port="1"/>
		<edge from-layer="132" from-port="2" to-layer="144" to-port="0"/>
		<edge from-layer="133" from-port="0" to-layer="144" to-port="1"/>
		<edge from-layer="134" from-port="0" to-layer="142" to-port="0"/>
		<edge from-layer="135" from-port="0" to-layer="142" to-port="1"/>
		<edge from-layer="136" from-port="0" to-layer="137" to-port="1"/>
		<edge from-layer="137" from-port="2" to-layer="138" to-port="0"/>
		<edge from-layer="138" from-port="1" to-layer="141" to-port="0"/>
		<edge from-layer="139" from-port="0" to-layer="141" to-port="1"/>
		<edge from-layer="140" from-port="0" to-layer="141" to-port="2"/>
		<edge from-layer="141" from-port="3" to-layer="142" to-port="2"/>
		<edge from-layer="142" from-port="3" to-layer="144" to-port="2"/>
		<edge from-layer="143" from-port="0" to-layer="144" to-port="3"/>
		<edge from-layer="144" from-port="4" to-layer="221" to-port="3"/>
		<edge from-layer="145" from-port="0" to-layer="146" to-port="1"/>
		<edge from-layer="146" from-port="2" to-layer="147" to-port="0"/>
		<edge from-layer="147" from-port="1" to-layer="149" to-port="0"/>
		<edge from-layer="148" from-port="0" to-layer="149" to-port="1"/>
		<edge from-layer="149" from-port="2" to-layer="151" to-port="0"/>
		<edge from-layer="150" from-port="0" to-layer="151" to-port="1"/>
		<edge from-layer="151" from-port="2" to-layer="163" to-port="0"/>
		<edge from-layer="152" from-port="0" to-layer="163" to-port="1"/>
		<edge from-layer="153" from-port="0" to-layer="161" to-port="0"/>
		<edge from-layer="154" from-port="0" to-layer="161" to-port="1"/>
		<edge from-layer="155" from-port="0" to-layer="156" to-port="1"/>
		<edge from-layer="156" from-port="2" to-layer="157" to-port="0"/>
		<edge from-layer="157" from-port="1" to-layer="160" to-port="0"/>
		<edge from-layer="158" from-port="0" to-layer="160" to-port="1"/>
		<edge from-layer="159" from-port="0" to-layer="160" to-port="2"/>
		<edge from-layer="160" from-port="3" to-layer="161" to-port="2"/>
		<edge from-layer="161" from-port="3" to-layer="163" to-port="2"/>
		<edge from-layer="162" from-port="0" to-layer="163" to-port="3"/>
		<edge from-layer="163" from-port="4" to-layer="221" to-port="4"/>
		<edge from-layer="164" from-port="0" to-layer="165" to-port="1"/>
		<edge from-layer="165" from-port="2" to-layer="166" to-port="0"/>
		<edge from-layer="166" from-port="1" to-layer="168" to-port="0"/>
		<edge from-layer="167" from-port="0" to-layer="168" to-port="1"/>
		<edge from-layer="168" from-port="2" to-layer="170" to-port="0"/>
		<edge from-layer="169" from-port="0" to-layer="170" to-port="1"/>
		<edge from-layer="170" from-port="2" to-layer="182" to-port="0"/>
		<edge from-layer="171" from-port="0" to-layer="182" to-port="1"/>
		<edge from-layer="172" from-port="0" to-layer="180" to-port="0"/>
		<edge from-layer="173" from-port="0" to-layer="180" to-port="1"/>
		<edge from-layer="174" from-port="0" to-layer="175" to-port="1"/>
		<edge from-layer="175" from-port="2" to-layer="176" to-port="0"/>
		<edge from-layer="176" from-port="1" to-layer="179" to-port="0"/>
		<edge from-layer="177" from-port="0" to-layer="179" to-port="1"/>
		<edge from-layer="178" from-port="0" to-layer="179" to-port="2"/>
		<edge from-layer="179" from-port="3" to-layer="180" to-port="2"/>
		<edge from-layer="180" from-port="3" to-layer="182" to-port="2"/>
		<edge from-layer="181" from-port="0" to-layer="182" to-port="3"/>
		<edge from-layer="182" from-port="4" to-layer="221" to-port="5"/>
		<edge from-layer="183" from-port="0" to-layer="184" to-port="1"/>
		<edge from-layer="184" from-port="2" to-layer="185" to-port="0"/>
		<edge from-layer="185" from-port="1" to-layer="187" to-port="0"/>
		<edge from-layer="186" from-port="0" to-layer="187" to-port="1"/>
		<edge from-layer="187" from-port="2" to-layer="189" to-port="0"/>
		<edge from-layer="188" from-port="0" to-layer="189" to-port="1"/>
		<edge from-layer="189" from-port="2" to-layer="201" to-port="0"/>
		<edge from-layer="190" from-port="0" to-layer="201" to-port="1"/>
		<edge from-layer="191" from-port="0" to-layer="199" to-port="0"/>
		<edge from-layer="192" from-port="0" to-layer="199" to-port="1"/>
		<edge from-layer="193" from-port="0" to-layer="194" to-port="1"/>
		<edge from-layer="194" from-port="2" to-layer="195" to-port="0"/>
		<edge from-layer="195" from-port="1" to-layer="198" to-port="0"/>
		<edge from-layer="196" from-port="0" to-layer="198" to-port="1"/>
		<edge from-layer="197" from-port="0" to-layer="198" to-port="2"/>
		<edge from-layer="198" from-port="3" to-layer="199" to-port="2"/>
		<edge from-layer="199" from-port="3" to-layer="201" to-port="2"/>
		<edge from-layer="200" from-port="0" to-layer="201" to-port="3"/>
		<edge from-layer="201" from-port="4" to-layer="221" to-port="6"/>
		<edge from-layer="202" from-port="0" to-layer="203" to-port="1"/>
		<edge from-layer="203" from-port="2" to-layer="204" to-port="0"/>
		<edge from-layer="204" from-port="1" to-layer="206" to-port="0"/>
		<edge from-layer="205" from-port="0" to-layer="206" to-port="1"/>
		<edge from-layer="206" from-port="2" to-layer="208" to-port="0"/>
		<edge from-layer="207" from-port="0" to-layer="208" to-port="1"/>
		<edge from-layer="208" from-port="2" to-layer="220" to-port="0"/>
		<edge from-layer="209" from-port="0" to-layer="220" to-port="1"/>
		<edge from-layer="210" from-port="0" to-layer="218" to-port="0"/>
		<edge from-layer="211" from-port="0" to-layer="218" to-port="1"/>
		<edge from-layer="212" from-port="0" to-layer="213" to-port="1"/>
		<edge from-layer="213" from-port="2" to-layer="214" to-port="0"/>
		<edge from-layer="214" from-port="1" to-layer="217" to-port="0"/>
		<edge from-layer="215" from-port="0" to-layer="217" to-port="1"/>
		<edge from-layer="216" from-port="0" to-layer="217" to-port="2"/>
		<edge from-layer="217" from-port="3" to-layer="218" to-port="2"/>
		<edge from-layer="218" from-port="3" to-layer="220" to-port="2"/>
		<edge from-layer="219" from-port="0" to-layer="220" to-port="3"/>
		<edge from-layer="220" from-port="4" to-layer="221" to-port="7"/>
		<edge from-layer="221" from-port="8" to-layer="223" to-port="0"/>
		<edge from-layer="222" from-port="0" to-layer="223" to-port="1"/>
		<edge from-layer="223" from-port="2" to-layer="224" to-port="0"/>
		<edge from-layer="224" from-port="1" to-layer="226" to-port="0"/>
		<edge from-layer="225" from-port="0" to-layer="226" to-port="1"/>
		<edge from-layer="226" from-port="2" to-layer="238" to-port="0"/>
		<edge from-layer="227" from-port="0" to-layer="238" to-port="1"/>
		<edge from-layer="228" from-port="0" to-layer="236" to-port="0"/>
		<edge from-layer="229" from-port="0" to-layer="236" to-port="1"/>
		<edge from-layer="230" from-port="0" to-layer="231" to-port="1"/>
		<edge from-layer="231" from-port="2" to-layer="232" to-port="0"/>
		<edge from-layer="232" from-port="1" to-layer="235" to-port="0"/>
		<edge from-layer="233" from-port="0" to-layer="235" to-port="1"/>
		<edge from-layer="234" from-port="0" to-layer="235" to-port="2"/>
		<edge from-layer="235" from-port="3" to-layer="236" to-port="2"/>
		<edge from-layer="236" from-port="3" to-layer="238" to-port="2"/>
		<edge from-layer="237" from-port="0" to-layer="238" to-port="3"/>
		<edge from-layer="238" from-port="4" to-layer="240" to-port="0"/>
		<edge from-layer="239" from-port="0" to-layer="240" to-port="1"/>
		<edge from-layer="240" from-port="2" to-layer="241" to-port="0"/>
		<edge from-layer="241" from-port="1" to-layer="243" to-port="0"/>
		<edge from-layer="242" from-port="0" to-layer="243" to-port="1"/>
		<edge from-layer="243" from-port="2" to-layer="245" to-port="0"/>
		<edge from-layer="244" from-port="0" to-layer="245" to-port="1"/>
		<edge from-layer="245" from-port="2" to-layer="247" to-port="0"/>
		<edge from-layer="246" from-port="0" to-layer="247" to-port="1"/>
		<edge from-layer="247" from-port="2" to-layer="249" to-port="0"/>
		<edge from-layer="248" from-port="0" to-layer="249" to-port="1"/>
		<edge from-layer="249" from-port="2" to-layer="250" to-port="0"/>
		<edge from-layer="250" from-port="2" to-layer="252" to-port="0"/>
		<edge from-layer="251" from-port="0" to-layer="252" to-port="1"/>
		<edge from-layer="252" from-port="2" to-layer="254" to-port="0"/>
		<edge from-layer="253" from-port="0" to-layer="254" to-port="1"/>
		<edge from-layer="254" from-port="2" to-layer="268" to-port="1"/>
		<edge from-layer="254" from-port="2" to-layer="261" to-port="0"/>
		<edge from-layer="254" from-port="2" to-layer="256" to-port="0"/>
		<edge from-layer="255" from-port="0" to-layer="256" to-port="1"/>
		<edge from-layer="256" from-port="2" to-layer="258" to-port="0"/>
		<edge from-layer="257" from-port="0" to-layer="258" to-port="1"/>
		<edge from-layer="258" from-port="2" to-layer="259" to-port="0"/>
		<edge from-layer="259" from-port="1" to-layer="265" to-port="0"/>
		<edge from-layer="259" from-port="1" to-layer="267" to-port="1"/>
		<edge from-layer="260" from-port="0" to-layer="261" to-port="1"/>
		<edge from-layer="261" from-port="2" to-layer="263" to-port="0"/>
		<edge from-layer="262" from-port="0" to-layer="263" to-port="1"/>
		<edge from-layer="263" from-port="2" to-layer="264" to-port="0"/>
		<edge from-layer="264" from-port="1" to-layer="265" to-port="1"/>
		<edge from-layer="265" from-port="2" to-layer="269" to-port="0"/>
		<edge from-layer="266" from-port="0" to-layer="267" to-port="0"/>
		<edge from-layer="267" from-port="2" to-layer="268" to-port="0"/>
		<edge from-layer="268" from-port="2" to-layer="269" to-port="1"/>
		<edge from-layer="269" from-port="2" to-layer="271" to-port="0"/>
		<edge from-layer="269" from-port="2" to-layer="283" to-port="1"/>
		<edge from-layer="269" from-port="2" to-layer="276" to-port="0"/>
		<edge from-layer="270" from-port="0" to-layer="271" to-port="1"/>
		<edge from-layer="271" from-port="2" to-layer="273" to-port="0"/>
		<edge from-layer="272" from-port="0" to-layer="273" to-port="1"/>
		<edge from-layer="273" from-port="2" to-layer="274" to-port="0"/>
		<edge from-layer="274" from-port="1" to-layer="280" to-port="0"/>
		<edge from-layer="274" from-port="1" to-layer="282" to-port="1"/>
		<edge from-layer="275" from-port="0" to-layer="276" to-port="1"/>
		<edge from-layer="276" from-port="2" to-layer="278" to-port="0"/>
		<edge from-layer="277" from-port="0" to-layer="278" to-port="1"/>
		<edge from-layer="278" from-port="2" to-layer="279" to-port="0"/>
		<edge from-layer="279" from-port="1" to-layer="280" to-port="1"/>
		<edge from-layer="280" from-port="2" to-layer="284" to-port="0"/>
		<edge from-layer="281" from-port="0" to-layer="282" to-port="0"/>
		<edge from-layer="282" from-port="2" to-layer="283" to-port="0"/>
		<edge from-layer="283" from-port="2" to-layer="284" to-port="1"/>
		<edge from-layer="284" from-port="2" to-layer="286" to-port="0"/>
		<edge from-layer="284" from-port="2" to-layer="298" to-port="1"/>
		<edge from-layer="284" from-port="2" to-layer="291" to-port="0"/>
		<edge from-layer="285" from-port="0" to-layer="286" to-port="1"/>
		<edge from-layer="286" from-port="2" to-layer="288" to-port="0"/>
		<edge from-layer="287" from-port="0" to-layer="288" to-port="1"/>
		<edge from-layer="288" from-port="2" to-layer="289" to-port="0"/>
		<edge from-layer="289" from-port="1" to-layer="295" to-port="0"/>
		<edge from-layer="289" from-port="1" to-layer="297" to-port="1"/>
		<edge from-layer="290" from-port="0" to-layer="291" to-port="1"/>
		<edge from-layer="291" from-port="2" to-layer="293" to-port="0"/>
		<edge from-layer="292" from-port="0" to-layer="293" to-port="1"/>
		<edge from-layer="293" from-port="2" to-layer="294" to-port="0"/>
		<edge from-layer="294" from-port="1" to-layer="295" to-port="1"/>
		<edge from-layer="295" from-port="2" to-layer="299" to-port="0"/>
		<edge from-layer="296" from-port="0" to-layer="297" to-port="0"/>
		<edge from-layer="297" from-port="2" to-layer="298" to-port="0"/>
		<edge from-layer="298" from-port="2" to-layer="299" to-port="1"/>
		<edge from-layer="299" from-port="2" to-layer="301" to-port="0"/>
		<edge from-layer="299" from-port="2" to-layer="306" to-port="0"/>
		<edge from-layer="299" from-port="2" to-layer="313" to-port="1"/>
		<edge from-layer="300" from-port="0" to-layer="301" to-port="1"/>
		<edge from-layer="301" from-port="2" to-layer="303" to-port="0"/>
		<edge from-layer="302" from-port="0" to-layer="303" to-port="1"/>
		<edge from-layer="303" from-port="2" to-layer="304" to-port="0"/>
		<edge from-layer="304" from-port="1" to-layer="310" to-port="0"/>
		<edge from-layer="304" from-port="1" to-layer="312" to-port="1"/>
		<edge from-layer="305" from-port="0" to-layer="306" to-port="1"/>
		<edge from-layer="306" from-port="2" to-layer="308" to-port="0"/>
		<edge from-layer="307" from-port="0" to-layer="308" to-port="1"/>
		<edge from-layer="308" from-port="2" to-layer="309" to-port="0"/>
		<edge from-layer="309" from-port="1" to-layer="310" to-port="1"/>
		<edge from-layer="310" from-port="2" to-layer="314" to-port="0"/>
		<edge from-layer="311" from-port="0" to-layer="312" to-port="0"/>
		<edge from-layer="312" from-port="2" to-layer="313" to-port="0"/>
		<edge from-layer="313" from-port="2" to-layer="314" to-port="1"/>
		<edge from-layer="314" from-port="2" to-layer="316" to-port="0"/>
		<edge from-layer="314" from-port="2" to-layer="319" to-port="0"/>
		<edge from-layer="315" from-port="0" to-layer="316" to-port="1"/>
		<edge from-layer="316" from-port="2" to-layer="337" to-port="0"/>
		<edge from-layer="316" from-port="2" to-layer="340" to-port="0"/>
		<edge from-layer="316" from-port="2" to-layer="347" to-port="0"/>
		<edge from-layer="316" from-port="2" to-layer="330" to-port="0"/>
		<edge from-layer="317" from-port="0" to-layer="327" to-port="0"/>
		<edge from-layer="318" from-port="0" to-layer="326" to-port="0"/>
		<edge from-layer="319" from-port="1" to-layer="322" to-port="0"/>
		<edge from-layer="320" from-port="0" to-layer="322" to-port="1"/>
		<edge from-layer="321" from-port="0" to-layer="322" to-port="2"/>
		<edge from-layer="322" from-port="3" to-layer="324" to-port="0"/>
		<edge from-layer="323" from-port="0" to-layer="324" to-port="1"/>
		<edge from-layer="324" from-port="2" to-layer="326" to-port="1"/>
		<edge from-layer="325" from-port="0" to-layer="326" to-port="2"/>
		<edge from-layer="326" from-port="3" to-layer="327" to-port="1"/>
		<edge from-layer="327" from-port="2" to-layer="329" to-port="0"/>
		<edge from-layer="328" from-port="0" to-layer="329" to-port="1"/>
		<edge from-layer="329" from-port="2" to-layer="336" to-port="0"/>
		<edge from-layer="329" from-port="3" to-layer="346" to-port="0"/>
		<edge from-layer="330" from-port="1" to-layer="333" to-port="0"/>
		<edge from-layer="331" from-port="0" to-layer="333" to-port="1"/>
		<edge from-layer="332" from-port="0" to-layer="333" to-port="2"/>
		<edge from-layer="333" from-port="3" to-layer="335" to-port="0"/>
		<edge from-layer="334" from-port="0" to-layer="335" to-port="1"/>
		<edge from-layer="335" from-port="2" to-layer="336" to-port="1"/>
		<edge from-layer="336" from-port="2" to-layer="337" to-port="1"/>
		<edge from-layer="337" from-port="2" to-layer="353" to-port="0"/>
		<edge from-layer="337" from-port="3" to-layer="339" to-port="0"/>
		<edge from-layer="338" from-port="0" to-layer="339" to-port="1"/>
		<edge from-layer="339" from-port="2" to-layer="350" to-port="0"/>
		<edge from-layer="340" from-port="1" to-layer="343" to-port="0"/>
		<edge from-layer="341" from-port="0" to-layer="343" to-port="1"/>
		<edge from-layer="342" from-port="0" to-layer="343" to-port="2"/>
		<edge from-layer="343" from-port="3" to-layer="345" to-port="0"/>
		<edge from-layer="344" from-port="0" to-layer="345" to-port="1"/>
		<edge from-layer="345" from-port="2" to-layer="346" to-port="1"/>
		<edge from-layer="346" from-port="2" to-layer="347" to-port="1"/>
		<edge from-layer="347" from-port="3" to-layer="349" to-port="0"/>
		<edge from-layer="347" from-port="2" to-layer="355" to-port="0"/>
		<edge from-layer="348" from-port="0" to-layer="349" to-port="1"/>
		<edge from-layer="349" from-port="2" to-layer="350" to-port="1"/>
		<edge from-layer="350" from-port="2" to-layer="351" to-port="0"/>
		<edge from-layer="352" from-port="0" to-layer="353" to-port="1"/>
		<edge from-layer="353" from-port="2" to-layer="356" to-port="0"/>
		<edge from-layer="354" from-port="0" to-layer="355" to-port="1"/>
		<edge from-layer="355" from-port="2" to-layer="356" to-port="1"/>
		<edge from-layer="356" from-port="2" to-layer="358" to-port="0"/>
		<edge from-layer="357" from-port="0" to-layer="358" to-port="1"/>
		<edge from-layer="358" from-port="2" to-layer="360" to-port="0"/>
		<edge from-layer="359" from-port="0" to-layer="360" to-port="1"/>
		<edge from-layer="360" from-port="2" to-layer="362" to-port="0"/>
		<edge from-layer="361" from-port="0" to-layer="362" to-port="1"/>
		<edge from-layer="362" from-port="2" to-layer="364" to-port="0"/>
		<edge from-layer="363" from-port="0" to-layer="364" to-port="1"/>
		<edge from-layer="364" from-port="2" to-layer="366" to-port="0"/>
		<edge from-layer="365" from-port="0" to-layer="366" to-port="1"/>
		<edge from-layer="366" from-port="2" to-layer="368" to-port="0"/>
		<edge from-layer="367" from-port="0" to-layer="368" to-port="1"/>
		<edge from-layer="368" from-port="2" to-layer="369" to-port="0"/>
	</edges>
	<meta_data>
		<MO_version value="2021.4.0-3839-cd81789d294-releases/2021/4"/>
		<cli_parameters>
			<caffe_parser_path value="DIR"/>
			<data_type value="FP16"/>
			<disable_nhwc_to_nchw value="False"/>
			<disable_omitting_optional value="False"/>
			<disable_resnet_optimization value="False"/>
			<disable_weights_compression value="False"/>
			<enable_concat_optimization value="False"/>
			<enable_flattening_nested_params value="False"/>
			<enable_ssd_gluoncv value="False"/>
			<extensions value="DIR"/>
			<framework value="onnx"/>
			<freeze_placeholder_with_value value="{}"/>
			<generate_deprecated_IR_V7 value="False"/>
			<input value="data"/>
			<input_model value="DIR/forward_tacotron_regression.onnx"/>
			<input_model_is_text value="False"/>
			<input_shape value="[1,805,512]"/>
			<k value="DIR/CustomLayersMapping.xml"/>
			<keep_shape_ops value="True"/>
			<legacy_ir_generation value="False"/>
			<legacy_mxnet_model value="False"/>
			<log_level value="ERROR"/>
			<mean_scale_values value="{}"/>
			<mean_values value="()"/>
			<model_name value="forward-tacotron-regression"/>
			<output value="['mel']"/>
			<output_dir value="DIR"/>
			<placeholder_data_types value="{}"/>
			<placeholder_shapes value="{'data': array([  1, 805, 512])}"/>
			<progress value="False"/>
			<remove_memory value="False"/>
			<remove_output_softmax value="False"/>
			<reverse_input_channels value="False"/>
			<save_params_from_nd value="False"/>
			<scale_values value="()"/>
			<silent value="False"/>
			<static_shape value="False"/>
			<stream_output value="False"/>
			<transform value=""/>
			<unset unset_cli_parameters="batch, counts, disable_fusing, disable_gfusing, finegrain_fusing, input_checkpoint, input_meta_graph, input_proto, input_symbol, mean_file, mean_file_offsets, move_to_preprocess, nd_prefix_name, pretrained_model_name, saved_model_dir, saved_model_tags, scale, tensorboard_logdir, tensorflow_custom_layer_libraries, tensorflow_custom_operations_config_update, tensorflow_object_detection_api_pipeline_config, tensorflow_use_custom_operations_config, transformations_config"/>
		</cli_parameters>
	</meta_data>
</net>
