<?xml version="1.0" ?>
<net name="wavernn-upsampler" version="10">
	<layers>
		<layer id="0" name="mels" type="Parameter" version="opset1">
			<data shape="1, 200, 80" element_type="f32"/>
			<output>
				<port id="0" precision="FP32" names="mels">
					<dim>1</dim>
					<dim>200</dim>
					<dim>80</dim>
				</port>
			</output>
		</layer>
		<layer id="1" name="216" type="Const" version="opset1">
			<data element_type="i64" shape="3" offset="0" size="24"/>
			<output>
				<port id="0" precision="I64">
					<dim>3</dim>
				</port>
			</output>
		</layer>
		<layer id="2" name="Transpose_0" type="Transpose" version="opset1">
			<input>
				<port id="0" precision="FP32">
					<dim>1</dim>
					<dim>200</dim>
					<dim>80</dim>
				</port>
				<port id="1" precision="I64">
					<dim>3</dim>
				</port>
			</input>
			<output>
				<port id="2" precision="FP32" names="191">
					<dim>1</dim>
					<dim>80</dim>
					<dim>200</dim>
				</port>
			</output>
		</layer>
		<layer id="3" name="model.upsample.resnet.conv_in_f.weight" type="Const" version="opset1">
			<data element_type="f32" shape="128, 80, 5" offset="24" size="204800"/>
			<output>
				<port id="0" precision="FP32" names="model.upsample.resnet.conv_in_f.weight">
					<dim>128</dim>
					<dim>80</dim>
					<dim>5</dim>
				</port>
			</output>
		</layer>
		<layer id="4" name="Conv_1/WithoutBiases" type="Convolution" version="opset1">
			<data strides="1" dilations="1" pads_begin="0" pads_end="0" auto_pad="explicit"/>
			<input>
				<port id="0" precision="FP32">
					<dim>1</dim>
					<dim>80</dim>
					<dim>200</dim>
				</port>
				<port id="1" precision="FP32">
					<dim>128</dim>
					<dim>80</dim>
					<dim>5</dim>
				</port>
			</input>
			<output>
				<port id="2" precision="FP32">
					<dim>1</dim>
					<dim>128</dim>
					<dim>196</dim>
				</port>
			</output>
		</layer>
		<layer id="5" name="Conv_1/Dims2128" type="Const" version="opset1">
			<data element_type="f32" shape="1, 128, 1" offset="204824" size="512"/>
			<output>
				<port id="0" precision="FP32">
					<dim>1</dim>
					<dim>128</dim>
					<dim>1</dim>
				</port>
			</output>
		</layer>
		<layer id="6" name="Conv_1" type="Add" version="opset1">
			<data auto_broadcast="numpy"/>
			<input>
				<port id="0" precision="FP32">
					<dim>1</dim>
					<dim>128</dim>
					<dim>196</dim>
				</port>
				<port id="1" precision="FP32">
					<dim>1</dim>
					<dim>128</dim>
					<dim>1</dim>
				</port>
			</input>
			<output>
				<port id="2" precision="FP32" names="192">
					<dim>1</dim>
					<dim>128</dim>
					<dim>196</dim>
				</port>
			</output>
		</layer>
		<layer id="7" name="Relu_2" type="ReLU" version="opset1">
			<input>
				<port id="0" precision="FP32">
					<dim>1</dim>
					<dim>128</dim>
					<dim>196</dim>
				</port>
			</input>
			<output>
				<port id="1" precision="FP32" names="193">
					<dim>1</dim>
					<dim>128</dim>
					<dim>196</dim>
				</port>
			</output>
		</layer>
		<layer id="8" name="model.upsample.resnet.layers.0.conv1_f.weight" type="Const" version="opset1">
			<data element_type="f32" shape="128, 128, 1" offset="205336" size="65536"/>
			<output>
				<port id="0" precision="FP32" names="model.upsample.resnet.layers.0.conv1_f.weight">
					<dim>128</dim>
					<dim>128</dim>
					<dim>1</dim>
				</port>
			</output>
		</layer>
		<layer id="9" name="Conv_3/WithoutBiases" type="Convolution" version="opset1">
			<data strides="1" dilations="1" pads_begin="0" pads_end="0" auto_pad="explicit"/>
			<input>
				<port id="0" precision="FP32">
					<dim>1</dim>
					<dim>128</dim>
					<dim>196</dim>
				</port>
				<port id="1" precision="FP32">
					<dim>128</dim>
					<dim>128</dim>
					<dim>1</dim>
				</port>
			</input>
			<output>
				<port id="2" precision="FP32">
					<dim>1</dim>
					<dim>128</dim>
					<dim>196</dim>
				</port>
			</output>
		</layer>
		<layer id="10" name="Conv_3/Dims2170" type="Const" version="opset1">
			<data element_type="f32" shape="1, 128, 1" offset="270872" size="512"/>
			<output>
				<port id="0" precision="FP32">
					<dim>1</dim>
					<dim>128</dim>
					<dim>1</dim>
				</port>
			</output>
		</layer>
		<layer id="11" name="Conv_3" type="Add" version="opset1">
			<data auto_broadcast="numpy"/>
			<input>
				<port id="0" precision="FP32">
					<dim>1</dim>
					<dim>128</dim>
					<dim>196</dim>
				</port>
				<port id="1" precision="FP32">
					<dim>1</dim>
					<dim>128</dim>
					<dim>1</dim>
				</port>
			</input>
			<output>
				<port id="2" precision="FP32" names="194">
					<dim>1</dim>
					<dim>128</dim>
					<dim>196</dim>
				</port>
			</output>
		</layer>
		<layer id="12" name="Relu_4" type="ReLU" version="opset1">
			<input>
				<port id="0" precision="FP32">
					<dim>1</dim>
					<dim>128</dim>
					<dim>196</dim>
				</port>
			</input>
			<output>
				<port id="1" precision="FP32" names="195">
					<dim>1</dim>
					<dim>128</dim>
					<dim>196</dim>
				</port>
			</output>
		</layer>
		<layer id="13" name="model.upsample.resnet.layers.0.conv2_f.weight" type="Const" version="opset1">
			<data element_type="f32" shape="128, 128, 1" offset="271384" size="65536"/>
			<output>
				<port id="0" precision="FP32" names="model.upsample.resnet.layers.0.conv2_f.weight">
					<dim>128</dim>
					<dim>128</dim>
					<dim>1</dim>
				</port>
			</output>
		</layer>
		<layer id="14" name="Conv_5/WithoutBiases" type="Convolution" version="opset1">
			<data strides="1" dilations="1" pads_begin="0" pads_end="0" auto_pad="explicit"/>
			<input>
				<port id="0" precision="FP32">
					<dim>1</dim>
					<dim>128</dim>
					<dim>196</dim>
				</port>
				<port id="1" precision="FP32">
					<dim>128</dim>
					<dim>128</dim>
					<dim>1</dim>
				</port>
			</input>
			<output>
				<port id="2" precision="FP32">
					<dim>1</dim>
					<dim>128</dim>
					<dim>196</dim>
				</port>
			</output>
		</layer>
		<layer id="15" name="Conv_5/Dims2230" type="Const" version="opset1">
			<data element_type="f32" shape="1, 128, 1" offset="336920" size="512"/>
			<output>
				<port id="0" precision="FP32">
					<dim>1</dim>
					<dim>128</dim>
					<dim>1</dim>
				</port>
			</output>
		</layer>
		<layer id="16" name="Conv_5" type="Add" version="opset1">
			<data auto_broadcast="numpy"/>
			<input>
				<port id="0" precision="FP32">
					<dim>1</dim>
					<dim>128</dim>
					<dim>196</dim>
				</port>
				<port id="1" precision="FP32">
					<dim>1</dim>
					<dim>128</dim>
					<dim>1</dim>
				</port>
			</input>
			<output>
				<port id="2" precision="FP32" names="196">
					<dim>1</dim>
					<dim>128</dim>
					<dim>196</dim>
				</port>
			</output>
		</layer>
		<layer id="17" name="Add_6" type="Add" version="opset1">
			<data auto_broadcast="numpy"/>
			<input>
				<port id="0" precision="FP32">
					<dim>1</dim>
					<dim>128</dim>
					<dim>196</dim>
				</port>
				<port id="1" precision="FP32">
					<dim>1</dim>
					<dim>128</dim>
					<dim>196</dim>
				</port>
			</input>
			<output>
				<port id="2" precision="FP32" names="197">
					<dim>1</dim>
					<dim>128</dim>
					<dim>196</dim>
				</port>
			</output>
		</layer>
		<layer id="18" name="model.upsample.resnet.layers.1.conv1_f.weight" type="Const" version="opset1">
			<data element_type="f32" shape="128, 128, 1" offset="337432" size="65536"/>
			<output>
				<port id="0" precision="FP32" names="model.upsample.resnet.layers.1.conv1_f.weight">
					<dim>128</dim>
					<dim>128</dim>
					<dim>1</dim>
				</port>
			</output>
		</layer>
		<layer id="19" name="Conv_7/WithoutBiases" type="Convolution" version="opset1">
			<data strides="1" dilations="1" pads_begin="0" pads_end="0" auto_pad="explicit"/>
			<input>
				<port id="0" precision="FP32">
					<dim>1</dim>
					<dim>128</dim>
					<dim>196</dim>
				</port>
				<port id="1" precision="FP32">
					<dim>128</dim>
					<dim>128</dim>
					<dim>1</dim>
				</port>
			</input>
			<output>
				<port id="2" precision="FP32">
					<dim>1</dim>
					<dim>128</dim>
					<dim>196</dim>
				</port>
			</output>
		</layer>
		<layer id="20" name="Conv_7/Dims2212" type="Const" version="opset1">
			<data element_type="f32" shape="1, 128, 1" offset="402968" size="512"/>
			<output>
				<port id="0" precision="FP32">
					<dim>1</dim>
					<dim>128</dim>
					<dim>1</dim>
				</port>
			</output>
		</layer>
		<layer id="21" name="Conv_7" type="Add" version="opset1">
			<data auto_broadcast="numpy"/>
			<input>
				<port id="0" precision="FP32">
					<dim>1</dim>
					<dim>128</dim>
					<dim>196</dim>
				</port>
				<port id="1" precision="FP32">
					<dim>1</dim>
					<dim>128</dim>
					<dim>1</dim>
				</port>
			</input>
			<output>
				<port id="2" precision="FP32" names="198">
					<dim>1</dim>
					<dim>128</dim>
					<dim>196</dim>
				</port>
			</output>
		</layer>
		<layer id="22" name="Relu_8" type="ReLU" version="opset1">
			<input>
				<port id="0" precision="FP32">
					<dim>1</dim>
					<dim>128</dim>
					<dim>196</dim>
				</port>
			</input>
			<output>
				<port id="1" precision="FP32" names="199">
					<dim>1</dim>
					<dim>128</dim>
					<dim>196</dim>
				</port>
			</output>
		</layer>
		<layer id="23" name="model.upsample.resnet.layers.1.conv2_f.weight" type="Const" version="opset1">
			<data element_type="f32" shape="128, 128, 1" offset="403480" size="65536"/>
			<output>
				<port id="0" precision="FP32" names="model.upsample.resnet.layers.1.conv2_f.weight">
					<dim>128</dim>
					<dim>128</dim>
					<dim>1</dim>
				</port>
			</output>
		</layer>
		<layer id="24" name="Conv_9/WithoutBiases" type="Convolution" version="opset1">
			<data strides="1" dilations="1" pads_begin="0" pads_end="0" auto_pad="explicit"/>
			<input>
				<port id="0" precision="FP32">
					<dim>1</dim>
					<dim>128</dim>
					<dim>196</dim>
				</port>
				<port id="1" precision="FP32">
					<dim>128</dim>
					<dim>128</dim>
					<dim>1</dim>
				</port>
			</input>
			<output>
				<port id="2" precision="FP32">
					<dim>1</dim>
					<dim>128</dim>
					<dim>196</dim>
				</port>
			</output>
		</layer>
		<layer id="25" name="Conv_9/Dims2182" type="Const" version="opset1">
			<data element_type="f32" shape="1, 128, 1" offset="469016" size="512"/>
			<output>
				<port id="0" precision="FP32">
					<dim>1</dim>
					<dim>128</dim>
					<dim>1</dim>
				</port>
			</output>
		</layer>
		<layer id="26" name="Conv_9" type="Add" version="opset1">
			<data auto_broadcast="numpy"/>
			<input>
				<port id="0" precision="FP32">
					<dim>1</dim>
					<dim>128</dim>
					<dim>196</dim>
				</port>
				<port id="1" precision="FP32">
					<dim>1</dim>
					<dim>128</dim>
					<dim>1</dim>
				</port>
			</input>
			<output>
				<port id="2" precision="FP32" names="200">
					<dim>1</dim>
					<dim>128</dim>
					<dim>196</dim>
				</port>
			</output>
		</layer>
		<layer id="27" name="Add_10" type="Add" version="opset1">
			<data auto_broadcast="numpy"/>
			<input>
				<port id="0" precision="FP32">
					<dim>1</dim>
					<dim>128</dim>
					<dim>196</dim>
				</port>
				<port id="1" precision="FP32">
					<dim>1</dim>
					<dim>128</dim>
					<dim>196</dim>
				</port>
			</input>
			<output>
				<port id="2" precision="FP32" names="201">
					<dim>1</dim>
					<dim>128</dim>
					<dim>196</dim>
				</port>
			</output>
		</layer>
		<layer id="28" name="model.upsample.resnet.layers.2.conv1_f.weight" type="Const" version="opset1">
			<data element_type="f32" shape="128, 128, 1" offset="469528" size="65536"/>
			<output>
				<port id="0" precision="FP32" names="model.upsample.resnet.layers.2.conv1_f.weight">
					<dim>128</dim>
					<dim>128</dim>
					<dim>1</dim>
				</port>
			</output>
		</layer>
		<layer id="29" name="Conv_11/WithoutBiases" type="Convolution" version="opset1">
			<data strides="1" dilations="1" pads_begin="0" pads_end="0" auto_pad="explicit"/>
			<input>
				<port id="0" precision="FP32">
					<dim>1</dim>
					<dim>128</dim>
					<dim>196</dim>
				</port>
				<port id="1" precision="FP32">
					<dim>128</dim>
					<dim>128</dim>
					<dim>1</dim>
				</port>
			</input>
			<output>
				<port id="2" precision="FP32">
					<dim>1</dim>
					<dim>128</dim>
					<dim>196</dim>
				</port>
			</output>
		</layer>
		<layer id="30" name="Conv_11/Dims2146" type="Const" version="opset1">
			<data element_type="f32" shape="1, 128, 1" offset="535064" size="512"/>
			<output>
				<port id="0" precision="FP32">
					<dim>1</dim>
					<dim>128</dim>
					<dim>1</dim>
				</port>
			</output>
		</layer>
		<layer id="31" name="Conv_11" type="Add" version="opset1">
			<data auto_broadcast="numpy"/>
			<input>
				<port id="0" precision="FP32">
					<dim>1</dim>
					<dim>128</dim>
					<dim>196</dim>
				</port>
				<port id="1" precision="FP32">
					<dim>1</dim>
					<dim>128</dim>
					<dim>1</dim>
				</port>
			</input>
			<output>
				<port id="2" precision="FP32" names="202">
					<dim>1</dim>
					<dim>128</dim>
					<dim>196</dim>
				</port>
			</output>
		</layer>
		<layer id="32" name="Relu_12" type="ReLU" version="opset1">
			<input>
				<port id="0" precision="FP32">
					<dim>1</dim>
					<dim>128</dim>
					<dim>196</dim>
				</port>
			</input>
			<output>
				<port id="1" precision="FP32" names="203">
					<dim>1</dim>
					<dim>128</dim>
					<dim>196</dim>
				</port>
			</output>
		</layer>
		<layer id="33" name="model.upsample.resnet.layers.2.conv2_f.weight" type="Const" version="opset1">
			<data element_type="f32" shape="128, 128, 1" offset="535576" size="65536"/>
			<output>
				<port id="0" precision="FP32" names="model.upsample.resnet.layers.2.conv2_f.weight">
					<dim>128</dim>
					<dim>128</dim>
					<dim>1</dim>
				</port>
			</output>
		</layer>
		<layer id="34" name="Conv_13/WithoutBiases" type="Convolution" version="opset1">
			<data strides="1" dilations="1" pads_begin="0" pads_end="0" auto_pad="explicit"/>
			<input>
				<port id="0" precision="FP32">
					<dim>1</dim>
					<dim>128</dim>
					<dim>196</dim>
				</port>
				<port id="1" precision="FP32">
					<dim>128</dim>
					<dim>128</dim>
					<dim>1</dim>
				</port>
			</input>
			<output>
				<port id="2" precision="FP32">
					<dim>1</dim>
					<dim>128</dim>
					<dim>196</dim>
				</port>
			</output>
		</layer>
		<layer id="35" name="Conv_13/Dims2140" type="Const" version="opset1">
			<data element_type="f32" shape="1, 128, 1" offset="601112" size="512"/>
			<output>
				<port id="0" precision="FP32">
					<dim>1</dim>
					<dim>128</dim>
					<dim>1</dim>
				</port>
			</output>
		</layer>
		<layer id="36" name="Conv_13" type="Add" version="opset1">
			<data auto_broadcast="numpy"/>
			<input>
				<port id="0" precision="FP32">
					<dim>1</dim>
					<dim>128</dim>
					<dim>196</dim>
				</port>
				<port id="1" precision="FP32">
					<dim>1</dim>
					<dim>128</dim>
					<dim>1</dim>
				</port>
			</input>
			<output>
				<port id="2" precision="FP32" names="204">
					<dim>1</dim>
					<dim>128</dim>
					<dim>196</dim>
				</port>
			</output>
		</layer>
		<layer id="37" name="Add_14" type="Add" version="opset1">
			<data auto_broadcast="numpy"/>
			<input>
				<port id="0" precision="FP32">
					<dim>1</dim>
					<dim>128</dim>
					<dim>196</dim>
				</port>
				<port id="1" precision="FP32">
					<dim>1</dim>
					<dim>128</dim>
					<dim>196</dim>
				</port>
			</input>
			<output>
				<port id="2" precision="FP32" names="205">
					<dim>1</dim>
					<dim>128</dim>
					<dim>196</dim>
				</port>
			</output>
		</layer>
		<layer id="38" name="model.upsample.resnet.layers.3.conv1_f.weight" type="Const" version="opset1">
			<data element_type="f32" shape="128, 128, 1" offset="601624" size="65536"/>
			<output>
				<port id="0" precision="FP32" names="model.upsample.resnet.layers.3.conv1_f.weight">
					<dim>128</dim>
					<dim>128</dim>
					<dim>1</dim>
				</port>
			</output>
		</layer>
		<layer id="39" name="Conv_15/WithoutBiases" type="Convolution" version="opset1">
			<data strides="1" dilations="1" pads_begin="0" pads_end="0" auto_pad="explicit"/>
			<input>
				<port id="0" precision="FP32">
					<dim>1</dim>
					<dim>128</dim>
					<dim>196</dim>
				</port>
				<port id="1" precision="FP32">
					<dim>128</dim>
					<dim>128</dim>
					<dim>1</dim>
				</port>
			</input>
			<output>
				<port id="2" precision="FP32">
					<dim>1</dim>
					<dim>128</dim>
					<dim>196</dim>
				</port>
			</output>
		</layer>
		<layer id="40" name="Conv_15/Dims2176" type="Const" version="opset1">
			<data element_type="f32" shape="1, 128, 1" offset="667160" size="512"/>
			<output>
				<port id="0" precision="FP32">
					<dim>1</dim>
					<dim>128</dim>
					<dim>1</dim>
				</port>
			</output>
		</layer>
		<layer id="41" name="Conv_15" type="Add" version="opset1">
			<data auto_broadcast="numpy"/>
			<input>
				<port id="0" precision="FP32">
					<dim>1</dim>
					<dim>128</dim>
					<dim>196</dim>
				</port>
				<port id="1" precision="FP32">
					<dim>1</dim>
					<dim>128</dim>
					<dim>1</dim>
				</port>
			</input>
			<output>
				<port id="2" precision="FP32" names="206">
					<dim>1</dim>
					<dim>128</dim>
					<dim>196</dim>
				</port>
			</output>
		</layer>
		<layer id="42" name="Relu_16" type="ReLU" version="opset1">
			<input>
				<port id="0" precision="FP32">
					<dim>1</dim>
					<dim>128</dim>
					<dim>196</dim>
				</port>
			</input>
			<output>
				<port id="1" precision="FP32" names="207">
					<dim>1</dim>
					<dim>128</dim>
					<dim>196</dim>
				</port>
			</output>
		</layer>
		<layer id="43" name="model.upsample.resnet.layers.3.conv2_f.weight" type="Const" version="opset1">
			<data element_type="f32" shape="128, 128, 1" offset="667672" size="65536"/>
			<output>
				<port id="0" precision="FP32" names="model.upsample.resnet.layers.3.conv2_f.weight">
					<dim>128</dim>
					<dim>128</dim>
					<dim>1</dim>
				</port>
			</output>
		</layer>
		<layer id="44" name="Conv_17/WithoutBiases" type="Convolution" version="opset1">
			<data strides="1" dilations="1" pads_begin="0" pads_end="0" auto_pad="explicit"/>
			<input>
				<port id="0" precision="FP32">
					<dim>1</dim>
					<dim>128</dim>
					<dim>196</dim>
				</port>
				<port id="1" precision="FP32">
					<dim>128</dim>
					<dim>128</dim>
					<dim>1</dim>
				</port>
			</input>
			<output>
				<port id="2" precision="FP32">
					<dim>1</dim>
					<dim>128</dim>
					<dim>196</dim>
				</port>
			</output>
		</layer>
		<layer id="45" name="Conv_17/Dims2158" type="Const" version="opset1">
			<data element_type="f32" shape="1, 128, 1" offset="733208" size="512"/>
			<output>
				<port id="0" precision="FP32">
					<dim>1</dim>
					<dim>128</dim>
					<dim>1</dim>
				</port>
			</output>
		</layer>
		<layer id="46" name="Conv_17" type="Add" version="opset1">
			<data auto_broadcast="numpy"/>
			<input>
				<port id="0" precision="FP32">
					<dim>1</dim>
					<dim>128</dim>
					<dim>196</dim>
				</port>
				<port id="1" precision="FP32">
					<dim>1</dim>
					<dim>128</dim>
					<dim>1</dim>
				</port>
			</input>
			<output>
				<port id="2" precision="FP32" names="208">
					<dim>1</dim>
					<dim>128</dim>
					<dim>196</dim>
				</port>
			</output>
		</layer>
		<layer id="47" name="Add_18" type="Add" version="opset1">
			<data auto_broadcast="numpy"/>
			<input>
				<port id="0" precision="FP32">
					<dim>1</dim>
					<dim>128</dim>
					<dim>196</dim>
				</port>
				<port id="1" precision="FP32">
					<dim>1</dim>
					<dim>128</dim>
					<dim>196</dim>
				</port>
			</input>
			<output>
				<port id="2" precision="FP32" names="209">
					<dim>1</dim>
					<dim>128</dim>
					<dim>196</dim>
				</port>
			</output>
		</layer>
		<layer id="48" name="model.upsample.resnet.layers.4.conv1_f.weight" type="Const" version="opset1">
			<data element_type="f32" shape="128, 128, 1" offset="733720" size="65536"/>
			<output>
				<port id="0" precision="FP32" names="model.upsample.resnet.layers.4.conv1_f.weight">
					<dim>128</dim>
					<dim>128</dim>
					<dim>1</dim>
				</port>
			</output>
		</layer>
		<layer id="49" name="Conv_19/WithoutBiases" type="Convolution" version="opset1">
			<data strides="1" dilations="1" pads_begin="0" pads_end="0" auto_pad="explicit"/>
			<input>
				<port id="0" precision="FP32">
					<dim>1</dim>
					<dim>128</dim>
					<dim>196</dim>
				</port>
				<port id="1" precision="FP32">
					<dim>128</dim>
					<dim>128</dim>
					<dim>1</dim>
				</port>
			</input>
			<output>
				<port id="2" precision="FP32">
					<dim>1</dim>
					<dim>128</dim>
					<dim>196</dim>
				</port>
			</output>
		</layer>
		<layer id="50" name="Conv_19/Dims2200" type="Const" version="opset1">
			<data element_type="f32" shape="1, 128, 1" offset="799256" size="512"/>
			<output>
				<port id="0" precision="FP32">
					<dim>1</dim>
					<dim>128</dim>
					<dim>1</dim>
				</port>
			</output>
		</layer>
		<layer id="51" name="Conv_19" type="Add" version="opset1">
			<data auto_broadcast="numpy"/>
			<input>
				<port id="0" precision="FP32">
					<dim>1</dim>
					<dim>128</dim>
					<dim>196</dim>
				</port>
				<port id="1" precision="FP32">
					<dim>1</dim>
					<dim>128</dim>
					<dim>1</dim>
				</port>
			</input>
			<output>
				<port id="2" precision="FP32" names="210">
					<dim>1</dim>
					<dim>128</dim>
					<dim>196</dim>
				</port>
			</output>
		</layer>
		<layer id="52" name="Relu_20" type="ReLU" version="opset1">
			<input>
				<port id="0" precision="FP32">
					<dim>1</dim>
					<dim>128</dim>
					<dim>196</dim>
				</port>
			</input>
			<output>
				<port id="1" precision="FP32" names="211">
					<dim>1</dim>
					<dim>128</dim>
					<dim>196</dim>
				</port>
			</output>
		</layer>
		<layer id="53" name="model.upsample.resnet.layers.4.conv2_f.weight" type="Const" version="opset1">
			<data element_type="f32" shape="128, 128, 1" offset="799768" size="65536"/>
			<output>
				<port id="0" precision="FP32" names="model.upsample.resnet.layers.4.conv2_f.weight">
					<dim>128</dim>
					<dim>128</dim>
					<dim>1</dim>
				</port>
			</output>
		</layer>
		<layer id="54" name="Conv_21/WithoutBiases" type="Convolution" version="opset1">
			<data strides="1" dilations="1" pads_begin="0" pads_end="0" auto_pad="explicit"/>
			<input>
				<port id="0" precision="FP32">
					<dim>1</dim>
					<dim>128</dim>
					<dim>196</dim>
				</port>
				<port id="1" precision="FP32">
					<dim>128</dim>
					<dim>128</dim>
					<dim>1</dim>
				</port>
			</input>
			<output>
				<port id="2" precision="FP32">
					<dim>1</dim>
					<dim>128</dim>
					<dim>196</dim>
				</port>
			</output>
		</layer>
		<layer id="55" name="Conv_21/Dims2218" type="Const" version="opset1">
			<data element_type="f32" shape="1, 128, 1" offset="865304" size="512"/>
			<output>
				<port id="0" precision="FP32">
					<dim>1</dim>
					<dim>128</dim>
					<dim>1</dim>
				</port>
			</output>
		</layer>
		<layer id="56" name="Conv_21" type="Add" version="opset1">
			<data auto_broadcast="numpy"/>
			<input>
				<port id="0" precision="FP32">
					<dim>1</dim>
					<dim>128</dim>
					<dim>196</dim>
				</port>
				<port id="1" precision="FP32">
					<dim>1</dim>
					<dim>128</dim>
					<dim>1</dim>
				</port>
			</input>
			<output>
				<port id="2" precision="FP32" names="212">
					<dim>1</dim>
					<dim>128</dim>
					<dim>196</dim>
				</port>
			</output>
		</layer>
		<layer id="57" name="Add_22" type="Add" version="opset1">
			<data auto_broadcast="numpy"/>
			<input>
				<port id="0" precision="FP32">
					<dim>1</dim>
					<dim>128</dim>
					<dim>196</dim>
				</port>
				<port id="1" precision="FP32">
					<dim>1</dim>
					<dim>128</dim>
					<dim>196</dim>
				</port>
			</input>
			<output>
				<port id="2" precision="FP32" names="213">
					<dim>1</dim>
					<dim>128</dim>
					<dim>196</dim>
				</port>
			</output>
		</layer>
		<layer id="58" name="model.upsample.resnet.layers.5.conv1_f.weight" type="Const" version="opset1">
			<data element_type="f32" shape="128, 128, 1" offset="865816" size="65536"/>
			<output>
				<port id="0" precision="FP32" names="model.upsample.resnet.layers.5.conv1_f.weight">
					<dim>128</dim>
					<dim>128</dim>
					<dim>1</dim>
				</port>
			</output>
		</layer>
		<layer id="59" name="Conv_23/WithoutBiases" type="Convolution" version="opset1">
			<data strides="1" dilations="1" pads_begin="0" pads_end="0" auto_pad="explicit"/>
			<input>
				<port id="0" precision="FP32">
					<dim>1</dim>
					<dim>128</dim>
					<dim>196</dim>
				</port>
				<port id="1" precision="FP32">
					<dim>128</dim>
					<dim>128</dim>
					<dim>1</dim>
				</port>
			</input>
			<output>
				<port id="2" precision="FP32">
					<dim>1</dim>
					<dim>128</dim>
					<dim>196</dim>
				</port>
			</output>
		</layer>
		<layer id="60" name="Conv_23/Dims2224" type="Const" version="opset1">
			<data element_type="f32" shape="1, 128, 1" offset="931352" size="512"/>
			<output>
				<port id="0" precision="FP32">
					<dim>1</dim>
					<dim>128</dim>
					<dim>1</dim>
				</port>
			</output>
		</layer>
		<layer id="61" name="Conv_23" type="Add" version="opset1">
			<data auto_broadcast="numpy"/>
			<input>
				<port id="0" precision="FP32">
					<dim>1</dim>
					<dim>128</dim>
					<dim>196</dim>
				</port>
				<port id="1" precision="FP32">
					<dim>1</dim>
					<dim>128</dim>
					<dim>1</dim>
				</port>
			</input>
			<output>
				<port id="2" precision="FP32" names="214">
					<dim>1</dim>
					<dim>128</dim>
					<dim>196</dim>
				</port>
			</output>
		</layer>
		<layer id="62" name="Relu_24" type="ReLU" version="opset1">
			<input>
				<port id="0" precision="FP32">
					<dim>1</dim>
					<dim>128</dim>
					<dim>196</dim>
				</port>
			</input>
			<output>
				<port id="1" precision="FP32" names="215">
					<dim>1</dim>
					<dim>128</dim>
					<dim>196</dim>
				</port>
			</output>
		</layer>
		<layer id="63" name="model.upsample.resnet.layers.5.conv2_f.weight" type="Const" version="opset1">
			<data element_type="f32" shape="128, 128, 1" offset="931864" size="65536"/>
			<output>
				<port id="0" precision="FP32" names="model.upsample.resnet.layers.5.conv2_f.weight">
					<dim>128</dim>
					<dim>128</dim>
					<dim>1</dim>
				</port>
			</output>
		</layer>
		<layer id="64" name="Conv_25/WithoutBiases" type="Convolution" version="opset1">
			<data strides="1" dilations="1" pads_begin="0" pads_end="0" auto_pad="explicit"/>
			<input>
				<port id="0" precision="FP32">
					<dim>1</dim>
					<dim>128</dim>
					<dim>196</dim>
				</port>
				<port id="1" precision="FP32">
					<dim>128</dim>
					<dim>128</dim>
					<dim>1</dim>
				</port>
			</input>
			<output>
				<port id="2" precision="FP32">
					<dim>1</dim>
					<dim>128</dim>
					<dim>196</dim>
				</port>
			</output>
		</layer>
		<layer id="65" name="Conv_25/Dims2164" type="Const" version="opset1">
			<data element_type="f32" shape="1, 128, 1" offset="997400" size="512"/>
			<output>
				<port id="0" precision="FP32">
					<dim>1</dim>
					<dim>128</dim>
					<dim>1</dim>
				</port>
			</output>
		</layer>
		<layer id="66" name="Conv_25" type="Add" version="opset1">
			<data auto_broadcast="numpy"/>
			<input>
				<port id="0" precision="FP32">
					<dim>1</dim>
					<dim>128</dim>
					<dim>196</dim>
				</port>
				<port id="1" precision="FP32">
					<dim>1</dim>
					<dim>128</dim>
					<dim>1</dim>
				</port>
			</input>
			<output>
				<port id="2" precision="FP32" names="216">
					<dim>1</dim>
					<dim>128</dim>
					<dim>196</dim>
				</port>
			</output>
		</layer>
		<layer id="67" name="Add_26" type="Add" version="opset1">
			<data auto_broadcast="numpy"/>
			<input>
				<port id="0" precision="FP32">
					<dim>1</dim>
					<dim>128</dim>
					<dim>196</dim>
				</port>
				<port id="1" precision="FP32">
					<dim>1</dim>
					<dim>128</dim>
					<dim>196</dim>
				</port>
			</input>
			<output>
				<port id="2" precision="FP32" names="217">
					<dim>1</dim>
					<dim>128</dim>
					<dim>196</dim>
				</port>
			</output>
		</layer>
		<layer id="68" name="model.upsample.resnet.layers.6.conv1_f.weight" type="Const" version="opset1">
			<data element_type="f32" shape="128, 128, 1" offset="997912" size="65536"/>
			<output>
				<port id="0" precision="FP32" names="model.upsample.resnet.layers.6.conv1_f.weight">
					<dim>128</dim>
					<dim>128</dim>
					<dim>1</dim>
				</port>
			</output>
		</layer>
		<layer id="69" name="Conv_27/WithoutBiases" type="Convolution" version="opset1">
			<data strides="1" dilations="1" pads_begin="0" pads_end="0" auto_pad="explicit"/>
			<input>
				<port id="0" precision="FP32">
					<dim>1</dim>
					<dim>128</dim>
					<dim>196</dim>
				</port>
				<port id="1" precision="FP32">
					<dim>128</dim>
					<dim>128</dim>
					<dim>1</dim>
				</port>
			</input>
			<output>
				<port id="2" precision="FP32">
					<dim>1</dim>
					<dim>128</dim>
					<dim>196</dim>
				</port>
			</output>
		</layer>
		<layer id="70" name="Conv_27/Dims2152" type="Const" version="opset1">
			<data element_type="f32" shape="1, 128, 1" offset="1063448" size="512"/>
			<output>
				<port id="0" precision="FP32">
					<dim>1</dim>
					<dim>128</dim>
					<dim>1</dim>
				</port>
			</output>
		</layer>
		<layer id="71" name="Conv_27" type="Add" version="opset1">
			<data auto_broadcast="numpy"/>
			<input>
				<port id="0" precision="FP32">
					<dim>1</dim>
					<dim>128</dim>
					<dim>196</dim>
				</port>
				<port id="1" precision="FP32">
					<dim>1</dim>
					<dim>128</dim>
					<dim>1</dim>
				</port>
			</input>
			<output>
				<port id="2" precision="FP32" names="218">
					<dim>1</dim>
					<dim>128</dim>
					<dim>196</dim>
				</port>
			</output>
		</layer>
		<layer id="72" name="Relu_28" type="ReLU" version="opset1">
			<input>
				<port id="0" precision="FP32">
					<dim>1</dim>
					<dim>128</dim>
					<dim>196</dim>
				</port>
			</input>
			<output>
				<port id="1" precision="FP32" names="219">
					<dim>1</dim>
					<dim>128</dim>
					<dim>196</dim>
				</port>
			</output>
		</layer>
		<layer id="73" name="model.upsample.resnet.layers.6.conv2_f.weight" type="Const" version="opset1">
			<data element_type="f32" shape="128, 128, 1" offset="1063960" size="65536"/>
			<output>
				<port id="0" precision="FP32" names="model.upsample.resnet.layers.6.conv2_f.weight">
					<dim>128</dim>
					<dim>128</dim>
					<dim>1</dim>
				</port>
			</output>
		</layer>
		<layer id="74" name="Conv_29/WithoutBiases" type="Convolution" version="opset1">
			<data strides="1" dilations="1" pads_begin="0" pads_end="0" auto_pad="explicit"/>
			<input>
				<port id="0" precision="FP32">
					<dim>1</dim>
					<dim>128</dim>
					<dim>196</dim>
				</port>
				<port id="1" precision="FP32">
					<dim>128</dim>
					<dim>128</dim>
					<dim>1</dim>
				</port>
			</input>
			<output>
				<port id="2" precision="FP32">
					<dim>1</dim>
					<dim>128</dim>
					<dim>196</dim>
				</port>
			</output>
		</layer>
		<layer id="75" name="Conv_29/Dims2206" type="Const" version="opset1">
			<data element_type="f32" shape="1, 128, 1" offset="1129496" size="512"/>
			<output>
				<port id="0" precision="FP32">
					<dim>1</dim>
					<dim>128</dim>
					<dim>1</dim>
				</port>
			</output>
		</layer>
		<layer id="76" name="Conv_29" type="Add" version="opset1">
			<data auto_broadcast="numpy"/>
			<input>
				<port id="0" precision="FP32">
					<dim>1</dim>
					<dim>128</dim>
					<dim>196</dim>
				</port>
				<port id="1" precision="FP32">
					<dim>1</dim>
					<dim>128</dim>
					<dim>1</dim>
				</port>
			</input>
			<output>
				<port id="2" precision="FP32" names="220">
					<dim>1</dim>
					<dim>128</dim>
					<dim>196</dim>
				</port>
			</output>
		</layer>
		<layer id="77" name="Add_30" type="Add" version="opset1">
			<data auto_broadcast="numpy"/>
			<input>
				<port id="0" precision="FP32">
					<dim>1</dim>
					<dim>128</dim>
					<dim>196</dim>
				</port>
				<port id="1" precision="FP32">
					<dim>1</dim>
					<dim>128</dim>
					<dim>196</dim>
				</port>
			</input>
			<output>
				<port id="2" precision="FP32" names="221">
					<dim>1</dim>
					<dim>128</dim>
					<dim>196</dim>
				</port>
			</output>
		</layer>
		<layer id="78" name="model.upsample.resnet.layers.7.conv1_f.weight" type="Const" version="opset1">
			<data element_type="f32" shape="128, 128, 1" offset="1130008" size="65536"/>
			<output>
				<port id="0" precision="FP32" names="model.upsample.resnet.layers.7.conv1_f.weight">
					<dim>128</dim>
					<dim>128</dim>
					<dim>1</dim>
				</port>
			</output>
		</layer>
		<layer id="79" name="Conv_31/WithoutBiases" type="Convolution" version="opset1">
			<data strides="1" dilations="1" pads_begin="0" pads_end="0" auto_pad="explicit"/>
			<input>
				<port id="0" precision="FP32">
					<dim>1</dim>
					<dim>128</dim>
					<dim>196</dim>
				</port>
				<port id="1" precision="FP32">
					<dim>128</dim>
					<dim>128</dim>
					<dim>1</dim>
				</port>
			</input>
			<output>
				<port id="2" precision="FP32">
					<dim>1</dim>
					<dim>128</dim>
					<dim>196</dim>
				</port>
			</output>
		</layer>
		<layer id="80" name="Conv_31/Dims2122" type="Const" version="opset1">
			<data element_type="f32" shape="1, 128, 1" offset="1195544" size="512"/>
			<output>
				<port id="0" precision="FP32">
					<dim>1</dim>
					<dim>128</dim>
					<dim>1</dim>
				</port>
			</output>
		</layer>
		<layer id="81" name="Conv_31" type="Add" version="opset1">
			<data auto_broadcast="numpy"/>
			<input>
				<port id="0" precision="FP32">
					<dim>1</dim>
					<dim>128</dim>
					<dim>196</dim>
				</port>
				<port id="1" precision="FP32">
					<dim>1</dim>
					<dim>128</dim>
					<dim>1</dim>
				</port>
			</input>
			<output>
				<port id="2" precision="FP32" names="222">
					<dim>1</dim>
					<dim>128</dim>
					<dim>196</dim>
				</port>
			</output>
		</layer>
		<layer id="82" name="Relu_32" type="ReLU" version="opset1">
			<input>
				<port id="0" precision="FP32">
					<dim>1</dim>
					<dim>128</dim>
					<dim>196</dim>
				</port>
			</input>
			<output>
				<port id="1" precision="FP32" names="223">
					<dim>1</dim>
					<dim>128</dim>
					<dim>196</dim>
				</port>
			</output>
		</layer>
		<layer id="83" name="model.upsample.resnet.layers.7.conv2_f.weight" type="Const" version="opset1">
			<data element_type="f32" shape="128, 128, 1" offset="1196056" size="65536"/>
			<output>
				<port id="0" precision="FP32" names="model.upsample.resnet.layers.7.conv2_f.weight">
					<dim>128</dim>
					<dim>128</dim>
					<dim>1</dim>
				</port>
			</output>
		</layer>
		<layer id="84" name="Conv_33/WithoutBiases" type="Convolution" version="opset1">
			<data strides="1" dilations="1" pads_begin="0" pads_end="0" auto_pad="explicit"/>
			<input>
				<port id="0" precision="FP32">
					<dim>1</dim>
					<dim>128</dim>
					<dim>196</dim>
				</port>
				<port id="1" precision="FP32">
					<dim>128</dim>
					<dim>128</dim>
					<dim>1</dim>
				</port>
			</input>
			<output>
				<port id="2" precision="FP32">
					<dim>1</dim>
					<dim>128</dim>
					<dim>196</dim>
				</port>
			</output>
		</layer>
		<layer id="85" name="Conv_33/Dims2194" type="Const" version="opset1">
			<data element_type="f32" shape="1, 128, 1" offset="1261592" size="512"/>
			<output>
				<port id="0" precision="FP32">
					<dim>1</dim>
					<dim>128</dim>
					<dim>1</dim>
				</port>
			</output>
		</layer>
		<layer id="86" name="Conv_33" type="Add" version="opset1">
			<data auto_broadcast="numpy"/>
			<input>
				<port id="0" precision="FP32">
					<dim>1</dim>
					<dim>128</dim>
					<dim>196</dim>
				</port>
				<port id="1" precision="FP32">
					<dim>1</dim>
					<dim>128</dim>
					<dim>1</dim>
				</port>
			</input>
			<output>
				<port id="2" precision="FP32" names="224">
					<dim>1</dim>
					<dim>128</dim>
					<dim>196</dim>
				</port>
			</output>
		</layer>
		<layer id="87" name="Add_34" type="Add" version="opset1">
			<data auto_broadcast="numpy"/>
			<input>
				<port id="0" precision="FP32">
					<dim>1</dim>
					<dim>128</dim>
					<dim>196</dim>
				</port>
				<port id="1" precision="FP32">
					<dim>1</dim>
					<dim>128</dim>
					<dim>196</dim>
				</port>
			</input>
			<output>
				<port id="2" precision="FP32" names="225">
					<dim>1</dim>
					<dim>128</dim>
					<dim>196</dim>
				</port>
			</output>
		</layer>
		<layer id="88" name="model.upsample.resnet.layers.8.conv1_f.weight" type="Const" version="opset1">
			<data element_type="f32" shape="128, 128, 1" offset="1262104" size="65536"/>
			<output>
				<port id="0" precision="FP32" names="model.upsample.resnet.layers.8.conv1_f.weight">
					<dim>128</dim>
					<dim>128</dim>
					<dim>1</dim>
				</port>
			</output>
		</layer>
		<layer id="89" name="Conv_35/WithoutBiases" type="Convolution" version="opset1">
			<data strides="1" dilations="1" pads_begin="0" pads_end="0" auto_pad="explicit"/>
			<input>
				<port id="0" precision="FP32">
					<dim>1</dim>
					<dim>128</dim>
					<dim>196</dim>
				</port>
				<port id="1" precision="FP32">
					<dim>128</dim>
					<dim>128</dim>
					<dim>1</dim>
				</port>
			</input>
			<output>
				<port id="2" precision="FP32">
					<dim>1</dim>
					<dim>128</dim>
					<dim>196</dim>
				</port>
			</output>
		</layer>
		<layer id="90" name="Conv_35/Dims2242" type="Const" version="opset1">
			<data element_type="f32" shape="1, 128, 1" offset="1327640" size="512"/>
			<output>
				<port id="0" precision="FP32">
					<dim>1</dim>
					<dim>128</dim>
					<dim>1</dim>
				</port>
			</output>
		</layer>
		<layer id="91" name="Conv_35" type="Add" version="opset1">
			<data auto_broadcast="numpy"/>
			<input>
				<port id="0" precision="FP32">
					<dim>1</dim>
					<dim>128</dim>
					<dim>196</dim>
				</port>
				<port id="1" precision="FP32">
					<dim>1</dim>
					<dim>128</dim>
					<dim>1</dim>
				</port>
			</input>
			<output>
				<port id="2" precision="FP32" names="226">
					<dim>1</dim>
					<dim>128</dim>
					<dim>196</dim>
				</port>
			</output>
		</layer>
		<layer id="92" name="Relu_36" type="ReLU" version="opset1">
			<input>
				<port id="0" precision="FP32">
					<dim>1</dim>
					<dim>128</dim>
					<dim>196</dim>
				</port>
			</input>
			<output>
				<port id="1" precision="FP32" names="227">
					<dim>1</dim>
					<dim>128</dim>
					<dim>196</dim>
				</port>
			</output>
		</layer>
		<layer id="93" name="model.upsample.resnet.layers.8.conv2_f.weight" type="Const" version="opset1">
			<data element_type="f32" shape="128, 128, 1" offset="1328152" size="65536"/>
			<output>
				<port id="0" precision="FP32" names="model.upsample.resnet.layers.8.conv2_f.weight">
					<dim>128</dim>
					<dim>128</dim>
					<dim>1</dim>
				</port>
			</output>
		</layer>
		<layer id="94" name="Conv_37/WithoutBiases" type="Convolution" version="opset1">
			<data strides="1" dilations="1" pads_begin="0" pads_end="0" auto_pad="explicit"/>
			<input>
				<port id="0" precision="FP32">
					<dim>1</dim>
					<dim>128</dim>
					<dim>196</dim>
				</port>
				<port id="1" precision="FP32">
					<dim>128</dim>
					<dim>128</dim>
					<dim>1</dim>
				</port>
			</input>
			<output>
				<port id="2" precision="FP32">
					<dim>1</dim>
					<dim>128</dim>
					<dim>196</dim>
				</port>
			</output>
		</layer>
		<layer id="95" name="Conv_37/Dims2248" type="Const" version="opset1">
			<data element_type="f32" shape="1, 128, 1" offset="1393688" size="512"/>
			<output>
				<port id="0" precision="FP32">
					<dim>1</dim>
					<dim>128</dim>
					<dim>1</dim>
				</port>
			</output>
		</layer>
		<layer id="96" name="Conv_37" type="Add" version="opset1">
			<data auto_broadcast="numpy"/>
			<input>
				<port id="0" precision="FP32">
					<dim>1</dim>
					<dim>128</dim>
					<dim>196</dim>
				</port>
				<port id="1" precision="FP32">
					<dim>1</dim>
					<dim>128</dim>
					<dim>1</dim>
				</port>
			</input>
			<output>
				<port id="2" precision="FP32" names="228">
					<dim>1</dim>
					<dim>128</dim>
					<dim>196</dim>
				</port>
			</output>
		</layer>
		<layer id="97" name="Add_38" type="Add" version="opset1">
			<data auto_broadcast="numpy"/>
			<input>
				<port id="0" precision="FP32">
					<dim>1</dim>
					<dim>128</dim>
					<dim>196</dim>
				</port>
				<port id="1" precision="FP32">
					<dim>1</dim>
					<dim>128</dim>
					<dim>196</dim>
				</port>
			</input>
			<output>
				<port id="2" precision="FP32" names="229">
					<dim>1</dim>
					<dim>128</dim>
					<dim>196</dim>
				</port>
			</output>
		</layer>
		<layer id="98" name="model.upsample.resnet.layers.9.conv1_f.weight" type="Const" version="opset1">
			<data element_type="f32" shape="128, 128, 1" offset="1394200" size="65536"/>
			<output>
				<port id="0" precision="FP32" names="model.upsample.resnet.layers.9.conv1_f.weight">
					<dim>128</dim>
					<dim>128</dim>
					<dim>1</dim>
				</port>
			</output>
		</layer>
		<layer id="99" name="Conv_39/WithoutBiases" type="Convolution" version="opset1">
			<data strides="1" dilations="1" pads_begin="0" pads_end="0" auto_pad="explicit"/>
			<input>
				<port id="0" precision="FP32">
					<dim>1</dim>
					<dim>128</dim>
					<dim>196</dim>
				</port>
				<port id="1" precision="FP32">
					<dim>128</dim>
					<dim>128</dim>
					<dim>1</dim>
				</port>
			</input>
			<output>
				<port id="2" precision="FP32">
					<dim>1</dim>
					<dim>128</dim>
					<dim>196</dim>
				</port>
			</output>
		</layer>
		<layer id="100" name="Conv_39/Dims2236" type="Const" version="opset1">
			<data element_type="f32" shape="1, 128, 1" offset="1459736" size="512"/>
			<output>
				<port id="0" precision="FP32">
					<dim>1</dim>
					<dim>128</dim>
					<dim>1</dim>
				</port>
			</output>
		</layer>
		<layer id="101" name="Conv_39" type="Add" version="opset1">
			<data auto_broadcast="numpy"/>
			<input>
				<port id="0" precision="FP32">
					<dim>1</dim>
					<dim>128</dim>
					<dim>196</dim>
				</port>
				<port id="1" precision="FP32">
					<dim>1</dim>
					<dim>128</dim>
					<dim>1</dim>
				</port>
			</input>
			<output>
				<port id="2" precision="FP32" names="230">
					<dim>1</dim>
					<dim>128</dim>
					<dim>196</dim>
				</port>
			</output>
		</layer>
		<layer id="102" name="Relu_40" type="ReLU" version="opset1">
			<input>
				<port id="0" precision="FP32">
					<dim>1</dim>
					<dim>128</dim>
					<dim>196</dim>
				</port>
			</input>
			<output>
				<port id="1" precision="FP32" names="231">
					<dim>1</dim>
					<dim>128</dim>
					<dim>196</dim>
				</port>
			</output>
		</layer>
		<layer id="103" name="model.upsample.resnet.layers.9.conv2_f.weight" type="Const" version="opset1">
			<data element_type="f32" shape="128, 128, 1" offset="1460248" size="65536"/>
			<output>
				<port id="0" precision="FP32" names="model.upsample.resnet.layers.9.conv2_f.weight">
					<dim>128</dim>
					<dim>128</dim>
					<dim>1</dim>
				</port>
			</output>
		</layer>
		<layer id="104" name="Conv_41/WithoutBiases" type="Convolution" version="opset1">
			<data strides="1" dilations="1" pads_begin="0" pads_end="0" auto_pad="explicit"/>
			<input>
				<port id="0" precision="FP32">
					<dim>1</dim>
					<dim>128</dim>
					<dim>196</dim>
				</port>
				<port id="1" precision="FP32">
					<dim>128</dim>
					<dim>128</dim>
					<dim>1</dim>
				</port>
			</input>
			<output>
				<port id="2" precision="FP32">
					<dim>1</dim>
					<dim>128</dim>
					<dim>196</dim>
				</port>
			</output>
		</layer>
		<layer id="105" name="Conv_41/Dims2188" type="Const" version="opset1">
			<data element_type="f32" shape="1, 128, 1" offset="1525784" size="512"/>
			<output>
				<port id="0" precision="FP32">
					<dim>1</dim>
					<dim>128</dim>
					<dim>1</dim>
				</port>
			</output>
		</layer>
		<layer id="106" name="Conv_41" type="Add" version="opset1">
			<data auto_broadcast="numpy"/>
			<input>
				<port id="0" precision="FP32">
					<dim>1</dim>
					<dim>128</dim>
					<dim>196</dim>
				</port>
				<port id="1" precision="FP32">
					<dim>1</dim>
					<dim>128</dim>
					<dim>1</dim>
				</port>
			</input>
			<output>
				<port id="2" precision="FP32" names="232">
					<dim>1</dim>
					<dim>128</dim>
					<dim>196</dim>
				</port>
			</output>
		</layer>
		<layer id="107" name="Add_42" type="Add" version="opset1">
			<data auto_broadcast="numpy"/>
			<input>
				<port id="0" precision="FP32">
					<dim>1</dim>
					<dim>128</dim>
					<dim>196</dim>
				</port>
				<port id="1" precision="FP32">
					<dim>1</dim>
					<dim>128</dim>
					<dim>196</dim>
				</port>
			</input>
			<output>
				<port id="2" precision="FP32" names="233">
					<dim>1</dim>
					<dim>128</dim>
					<dim>196</dim>
				</port>
			</output>
		</layer>
		<layer id="108" name="model.upsample.resnet.conv_out.weight" type="Const" version="opset1">
			<data element_type="f32" shape="128, 128, 1" offset="1526296" size="65536"/>
			<output>
				<port id="0" precision="FP32" names="model.upsample.resnet.conv_out.weight">
					<dim>128</dim>
					<dim>128</dim>
					<dim>1</dim>
				</port>
			</output>
		</layer>
		<layer id="109" name="Conv_43/WithoutBiases" type="Convolution" version="opset1">
			<data strides="1" dilations="1" pads_begin="0" pads_end="0" auto_pad="explicit"/>
			<input>
				<port id="0" precision="FP32">
					<dim>1</dim>
					<dim>128</dim>
					<dim>196</dim>
				</port>
				<port id="1" precision="FP32">
					<dim>128</dim>
					<dim>128</dim>
					<dim>1</dim>
				</port>
			</input>
			<output>
				<port id="2" precision="FP32">
					<dim>1</dim>
					<dim>128</dim>
					<dim>196</dim>
				</port>
			</output>
		</layer>
		<layer id="110" name="Conv_43/Dims2134" type="Const" version="opset1">
			<data element_type="f32" shape="1, 128, 1" offset="1591832" size="512"/>
			<output>
				<port id="0" precision="FP32">
					<dim>1</dim>
					<dim>128</dim>
					<dim>1</dim>
				</port>
			</output>
		</layer>
		<layer id="111" name="Conv_43" type="Add" version="opset1">
			<data auto_broadcast="numpy"/>
			<input>
				<port id="0" precision="FP32">
					<dim>1</dim>
					<dim>128</dim>
					<dim>196</dim>
				</port>
				<port id="1" precision="FP32">
					<dim>1</dim>
					<dim>128</dim>
					<dim>1</dim>
				</port>
			</input>
			<output>
				<port id="2" precision="FP32" names="234">
					<dim>1</dim>
					<dim>128</dim>
					<dim>196</dim>
				</port>
			</output>
		</layer>
		<layer id="112" name="Unsqueeze_44/Dims" type="Const" version="opset1">
			<data element_type="i64" shape="1" offset="1592344" size="8"/>
			<output>
				<port id="0" precision="I64">
					<dim>1</dim>
				</port>
			</output>
		</layer>
		<layer id="113" name="Unsqueeze_44/Unsqueeze" type="Unsqueeze" version="opset1">
			<input>
				<port id="0" precision="FP32">
					<dim>1</dim>
					<dim>128</dim>
					<dim>196</dim>
				</port>
				<port id="1" precision="I64">
					<dim>1</dim>
				</port>
			</input>
			<output>
				<port id="2" precision="FP32" names="235">
					<dim>1</dim>
					<dim>1</dim>
					<dim>128</dim>
					<dim>196</dim>
				</port>
			</output>
		</layer>
		<layer id="114" name="Shape_63" type="ShapeOf" version="opset3">
			<data output_type="i64"/>
			<input>
				<port id="0" precision="FP32">
					<dim>1</dim>
					<dim>1</dim>
					<dim>128</dim>
					<dim>196</dim>
				</port>
			</input>
			<output>
				<port id="1" precision="I64" names="254">
					<dim>4</dim>
				</port>
			</output>
		</layer>
		<layer id="115" name="Slice_67/Concat24079499" type="Const" version="opset1">
			<data element_type="i64" shape="1" offset="1592352" size="8"/>
			<output>
				<port id="0" precision="I64">
					<dim>1</dim>
				</port>
			</output>
		</layer>
		<layer id="116" name="Slice_67/Concat239724089448" type="Const" version="opset1">
			<data element_type="i64" shape="1" offset="1592360" size="8"/>
			<output>
				<port id="0" precision="I64">
					<dim>1</dim>
				</port>
			</output>
		</layer>
		<layer id="117" name="Slice_67/Strides24099268" type="Const" version="opset1">
			<data element_type="i64" shape="1" offset="1592344" size="8"/>
			<output>
				<port id="0" precision="I64">
					<dim>1</dim>
				</port>
			</output>
		</layer>
		<layer id="118" name="Slice_67" type="StridedSlice" version="opset1">
			<data begin_mask="0" end_mask="0" new_axis_mask="0" shrink_axis_mask="0" ellipsis_mask="0"/>
			<input>
				<port id="0" precision="I64">
					<dim>4</dim>
				</port>
				<port id="1" precision="I64">
					<dim>1</dim>
				</port>
				<port id="2" precision="I64">
					<dim>1</dim>
				</port>
				<port id="3" precision="I64">
					<dim>1</dim>
				</port>
			</input>
			<output>
				<port id="4" precision="I64" names="258">
					<dim>2</dim>
				</port>
			</output>
		</layer>
		<layer id="119" name="Shape_45" type="ShapeOf" version="opset3">
			<data output_type="i64"/>
			<input>
				<port id="0" precision="FP32">
					<dim>1</dim>
					<dim>1</dim>
					<dim>128</dim>
					<dim>196</dim>
				</port>
			</input>
			<output>
				<port id="1" precision="I64" names="236">
					<dim>4</dim>
				</port>
			</output>
		</layer>
		<layer id="120" name="Constant_46" type="Const" version="opset1">
			<data element_type="i32" shape="" offset="1592368" size="4"/>
			<output>
				<port id="0" precision="I32" names="237"/>
			</output>
		</layer>
		<layer id="121" name="Gather_47/axis" type="Const" version="opset1">
			<data element_type="i64" shape="" offset="1592352" size="8"/>
			<output>
				<port id="0" precision="I64"/>
			</output>
		</layer>
		<layer id="122" name="Gather_47252" type="Gather" version="opset7">
			<data batch_dims="0"/>
			<input>
				<port id="0" precision="I64">
					<dim>4</dim>
				</port>
				<port id="1" precision="I32"/>
				<port id="2" precision="I64"/>
			</input>
			<output>
				<port id="3" precision="I64" names="238"/>
			</output>
		</layer>
		<layer id="123" name="Cast_48" type="Convert" version="opset1">
			<data destination_type="f32"/>
			<input>
				<port id="0" precision="I64"/>
			</input>
			<output>
				<port id="1" precision="FP32" names="239,240"/>
			</output>
		</layer>
		<layer id="124" name="Floor_50" type="Floor" version="opset1">
			<input>
				<port id="0" precision="FP32"/>
			</input>
			<output>
				<port id="1" precision="FP32" names="241"/>
			</output>
		</layer>
		<layer id="125" name="Unsqueeze_59/Dims" type="Const" version="opset1">
			<data element_type="i64" shape="1" offset="1592352" size="8"/>
			<output>
				<port id="0" precision="I64">
					<dim>1</dim>
				</port>
			</output>
		</layer>
		<layer id="126" name="Unsqueeze_59/Unsqueeze" type="Unsqueeze" version="opset1">
			<input>
				<port id="0" precision="FP32"/>
				<port id="1" precision="I64">
					<dim>1</dim>
				</port>
			</input>
			<output>
				<port id="2" precision="FP32" names="250">
					<dim>1</dim>
				</port>
			</output>
		</layer>
		<layer id="127" name="Shape_51" type="ShapeOf" version="opset3">
			<data output_type="i64"/>
			<input>
				<port id="0" precision="FP32">
					<dim>1</dim>
					<dim>1</dim>
					<dim>128</dim>
					<dim>196</dim>
				</port>
			</input>
			<output>
				<port id="1" precision="I64" names="242">
					<dim>4</dim>
				</port>
			</output>
		</layer>
		<layer id="128" name="Constant_52" type="Const" version="opset1">
			<data element_type="i32" shape="" offset="1592372" size="4"/>
			<output>
				<port id="0" precision="I32" names="243"/>
			</output>
		</layer>
		<layer id="129" name="Gather_53/axis" type="Const" version="opset1">
			<data element_type="i64" shape="" offset="1592352" size="8"/>
			<output>
				<port id="0" precision="I64"/>
			</output>
		</layer>
		<layer id="130" name="Gather_53240" type="Gather" version="opset7">
			<data batch_dims="0"/>
			<input>
				<port id="0" precision="I64">
					<dim>4</dim>
				</port>
				<port id="1" precision="I32"/>
				<port id="2" precision="I64"/>
			</input>
			<output>
				<port id="3" precision="I64" names="244"/>
			</output>
		</layer>
		<layer id="131" name="Cast_54" type="Convert" version="opset1">
			<data destination_type="f32"/>
			<input>
				<port id="0" precision="I64"/>
			</input>
			<output>
				<port id="1" precision="FP32" names="245"/>
			</output>
		</layer>
		<layer id="132" name="Constant_55" type="Const" version="opset1">
			<data element_type="f32" shape="" offset="1592376" size="4"/>
			<output>
				<port id="0" precision="FP32" names="246"/>
			</output>
		</layer>
		<layer id="133" name="Mul_56" type="Multiply" version="opset1">
			<data auto_broadcast="numpy"/>
			<input>
				<port id="0" precision="FP32"/>
				<port id="1" precision="FP32"/>
			</input>
			<output>
				<port id="2" precision="FP32" names="247,248"/>
			</output>
		</layer>
		<layer id="134" name="Floor_58" type="Floor" version="opset1">
			<input>
				<port id="0" precision="FP32"/>
			</input>
			<output>
				<port id="1" precision="FP32" names="249"/>
			</output>
		</layer>
		<layer id="135" name="Unsqueeze_60/Dims" type="Const" version="opset1">
			<data element_type="i64" shape="1" offset="1592352" size="8"/>
			<output>
				<port id="0" precision="I64">
					<dim>1</dim>
				</port>
			</output>
		</layer>
		<layer id="136" name="Unsqueeze_60/Unsqueeze" type="Unsqueeze" version="opset1">
			<input>
				<port id="0" precision="FP32"/>
				<port id="1" precision="I64">
					<dim>1</dim>
				</port>
			</input>
			<output>
				<port id="2" precision="FP32" names="251">
					<dim>1</dim>
				</port>
			</output>
		</layer>
		<layer id="137" name="Concat_61" type="Concat" version="opset1">
			<data axis="0"/>
			<input>
				<port id="0" precision="FP32">
					<dim>1</dim>
				</port>
				<port id="1" precision="FP32">
					<dim>1</dim>
				</port>
			</input>
			<output>
				<port id="2" precision="FP32" names="252">
					<dim>2</dim>
				</port>
			</output>
		</layer>
		<layer id="138" name="Cast_68" type="Convert" version="opset1">
			<data destination_type="i64"/>
			<input>
				<port id="0" precision="FP32">
					<dim>2</dim>
				</port>
			</input>
			<output>
				<port id="1" precision="I64" names="259">
					<dim>2</dim>
				</port>
			</output>
		</layer>
		<layer id="139" name="Concat_69" type="Concat" version="opset1">
			<data axis="0"/>
			<input>
				<port id="0" precision="I64">
					<dim>2</dim>
				</port>
				<port id="1" precision="I64">
					<dim>2</dim>
				</port>
			</input>
			<output>
				<port id="2" precision="I64" names="260">
					<dim>4</dim>
				</port>
			</output>
		</layer>
		<layer id="140" name="Resize_71/StridedSlice_sizes_input_port_1/value16139187" type="Const" version="opset1">
			<data element_type="i64" shape="1" offset="1592360" size="8"/>
			<output>
				<port id="0" precision="I64">
					<dim>1</dim>
				</port>
			</output>
		</layer>
		<layer id="141" name="Resize_71/StridedSlice_sizes_input_port_2/value16159271" type="Const" version="opset1">
			<data element_type="i64" shape="1" offset="1592380" size="8"/>
			<output>
				<port id="0" precision="I64">
					<dim>1</dim>
				</port>
			</output>
		</layer>
		<layer id="142" name="Resize_71/StridedSlice_sizes_input_port_3/value16179412" type="Const" version="opset1">
			<data element_type="i64" shape="1" offset="1592344" size="8"/>
			<output>
				<port id="0" precision="I64">
					<dim>1</dim>
				</port>
			</output>
		</layer>
		<layer id="143" name="Resize_71/StridedSlice_sizes" type="StridedSlice" version="opset1">
			<data begin_mask="0" end_mask="0" new_axis_mask="0" shrink_axis_mask="0" ellipsis_mask="0"/>
			<input>
				<port id="0" precision="I64">
					<dim>4</dim>
				</port>
				<port id="1" precision="I64">
					<dim>1</dim>
				</port>
				<port id="2" precision="I64">
					<dim>1</dim>
				</port>
				<port id="3" precision="I64">
					<dim>1</dim>
				</port>
			</input>
			<output>
				<port id="4" precision="I64">
					<dim>2</dim>
				</port>
			</output>
		</layer>
		<layer id="144" name="1633" type="Convert" version="opset1">
			<data destination_type="f32"/>
			<input>
				<port id="0" precision="I64">
					<dim>4</dim>
				</port>
			</input>
			<output>
				<port id="1" precision="FP32">
					<dim>4</dim>
				</port>
			</output>
		</layer>
		<layer id="145" name="Resize_71/ShapeOf" type="ShapeOf" version="opset3">
			<data output_type="i64"/>
			<input>
				<port id="0" precision="FP32">
					<dim>1</dim>
					<dim>1</dim>
					<dim>128</dim>
					<dim>196</dim>
				</port>
			</input>
			<output>
				<port id="1" precision="I64">
					<dim>4</dim>
				</port>
			</output>
		</layer>
		<layer id="146" name="1632" type="Convert" version="opset1">
			<data destination_type="f32"/>
			<input>
				<port id="0" precision="I64">
					<dim>4</dim>
				</port>
			</input>
			<output>
				<port id="1" precision="FP32">
					<dim>4</dim>
				</port>
			</output>
		</layer>
		<layer id="147" name="Resize_71/Div" type="Divide" version="opset1">
			<data auto_broadcast="numpy" m_pythondiv="true"/>
			<input>
				<port id="0" precision="FP32">
					<dim>4</dim>
				</port>
				<port id="1" precision="FP32">
					<dim>4</dim>
				</port>
			</input>
			<output>
				<port id="2" precision="FP32">
					<dim>4</dim>
				</port>
			</output>
		</layer>
		<layer id="148" name="Resize_71/Add_input_port_1/value16319295" type="Const" version="opset1">
			<data element_type="f32" shape="1" offset="1592388" size="4"/>
			<output>
				<port id="0" precision="FP32">
					<dim>1</dim>
				</port>
			</output>
		</layer>
		<layer id="149" name="Resize_71/Add" type="Add" version="opset1">
			<data auto_broadcast="numpy"/>
			<input>
				<port id="0" precision="FP32">
					<dim>4</dim>
				</port>
				<port id="1" precision="FP32">
					<dim>1</dim>
				</port>
			</input>
			<output>
				<port id="2" precision="FP32">
					<dim>4</dim>
				</port>
			</output>
		</layer>
		<layer id="150" name="Resize_71/StridedSlice_scales_input_port_1/value16209517" type="Const" version="opset1">
			<data element_type="i64" shape="1" offset="1592360" size="8"/>
			<output>
				<port id="0" precision="I64">
					<dim>1</dim>
				</port>
			</output>
		</layer>
		<layer id="151" name="Resize_71/StridedSlice_scales_input_port_2/value16229202" type="Const" version="opset1">
			<data element_type="i64" shape="1" offset="1592380" size="8"/>
			<output>
				<port id="0" precision="I64">
					<dim>1</dim>
				</port>
			</output>
		</layer>
		<layer id="152" name="Resize_71/StridedSlice_scales_input_port_3/value16249160" type="Const" version="opset1">
			<data element_type="i64" shape="1" offset="1592344" size="8"/>
			<output>
				<port id="0" precision="I64">
					<dim>1</dim>
				</port>
			</output>
		</layer>
		<layer id="153" name="Resize_71/StridedSlice_scales" type="StridedSlice" version="opset1">
			<data begin_mask="0" end_mask="0" new_axis_mask="0" shrink_axis_mask="0" ellipsis_mask="0"/>
			<input>
				<port id="0" precision="FP32">
					<dim>4</dim>
				</port>
				<port id="1" precision="I64">
					<dim>1</dim>
				</port>
				<port id="2" precision="I64">
					<dim>1</dim>
				</port>
				<port id="3" precision="I64">
					<dim>1</dim>
				</port>
			</input>
			<output>
				<port id="4" precision="FP32">
					<dim>2</dim>
				</port>
			</output>
		</layer>
		<layer id="154" name="Resize_71/axis16279340" type="Const" version="opset1">
			<data element_type="i64" shape="2" offset="1592392" size="16"/>
			<output>
				<port id="0" precision="I64">
					<dim>2</dim>
				</port>
			</output>
		</layer>
		<layer id="155" name="Resize_71" type="Interpolate" version="opset4">
			<data mode="nearest" shape_calculation_mode="sizes" coordinate_transformation_mode="asymmetric" nearest_mode="floor" antialias="false" pads_begin="0, 0, 0, 0" pads_end="0, 0, 0, 0" cube_coeff="-0.75"/>
			<input>
				<port id="0" precision="FP32">
					<dim>1</dim>
					<dim>1</dim>
					<dim>128</dim>
					<dim>196</dim>
				</port>
				<port id="1" precision="I64">
					<dim>2</dim>
				</port>
				<port id="2" precision="FP32">
					<dim>2</dim>
				</port>
				<port id="3" precision="I64">
					<dim>2</dim>
				</port>
			</input>
			<output>
				<port id="4" precision="FP32" names="262">
					<dim>1</dim>
					<dim>1</dim>
					<dim>128</dim>
					<dim>53900</dim>
				</port>
			</output>
		</layer>
		<layer id="156" name="Squeeze_72/Dims" type="Const" version="opset1">
			<data element_type="i64" shape="1" offset="1592344" size="8"/>
			<output>
				<port id="0" precision="I64">
					<dim>1</dim>
				</port>
			</output>
		</layer>
		<layer id="157" name="Squeeze_72" type="Squeeze" version="opset1">
			<input>
				<port id="0" precision="FP32">
					<dim>1</dim>
					<dim>1</dim>
					<dim>128</dim>
					<dim>53900</dim>
				</port>
				<port id="1" precision="I64">
					<dim>1</dim>
				</port>
			</input>
			<output>
				<port id="2" precision="FP32" names="263">
					<dim>1</dim>
					<dim>128</dim>
					<dim>53900</dim>
				</port>
			</output>
		</layer>
		<layer id="158" name="215" type="Const" version="opset1">
			<data element_type="i64" shape="3" offset="0" size="24"/>
			<output>
				<port id="0" precision="I64">
					<dim>3</dim>
				</port>
			</output>
		</layer>
		<layer id="159" name="aux" type="Transpose" version="opset1">
			<input>
				<port id="0" precision="FP32">
					<dim>1</dim>
					<dim>128</dim>
					<dim>53900</dim>
				</port>
				<port id="1" precision="I64">
					<dim>3</dim>
				</port>
			</input>
			<output>
				<port id="2" precision="FP32" names="aux">
					<dim>1</dim>
					<dim>53900</dim>
					<dim>128</dim>
				</port>
			</output>
		</layer>
		<layer id="160" name="aux/sink_port_0" type="Result" version="opset1">
			<input>
				<port id="0" precision="FP32">
					<dim>1</dim>
					<dim>53900</dim>
					<dim>128</dim>
				</port>
			</input>
		</layer>
		<layer id="161" name="Unsqueeze_73/Dims" type="Const" version="opset1">
			<data element_type="i64" shape="1" offset="1592344" size="8"/>
			<output>
				<port id="0" precision="I64">
					<dim>1</dim>
				</port>
			</output>
		</layer>
		<layer id="162" name="Unsqueeze_73/Unsqueeze" type="Unsqueeze" version="opset1">
			<input>
				<port id="0" precision="FP32">
					<dim>1</dim>
					<dim>80</dim>
					<dim>200</dim>
				</port>
				<port id="1" precision="I64">
					<dim>1</dim>
				</port>
			</input>
			<output>
				<port id="2" precision="FP32" names="264">
					<dim>1</dim>
					<dim>1</dim>
					<dim>80</dim>
					<dim>200</dim>
				</port>
			</output>
		</layer>
		<layer id="163" name="Shape_92" type="ShapeOf" version="opset3">
			<data output_type="i64"/>
			<input>
				<port id="0" precision="FP32">
					<dim>1</dim>
					<dim>1</dim>
					<dim>80</dim>
					<dim>200</dim>
				</port>
			</input>
			<output>
				<port id="1" precision="I64" names="283">
					<dim>4</dim>
				</port>
			</output>
		</layer>
		<layer id="164" name="Slice_96/Concat24439169" type="Const" version="opset1">
			<data element_type="i64" shape="1" offset="1592352" size="8"/>
			<output>
				<port id="0" precision="I64">
					<dim>1</dim>
				</port>
			</output>
		</layer>
		<layer id="165" name="Slice_96/Concat243324449232" type="Const" version="opset1">
			<data element_type="i64" shape="1" offset="1592360" size="8"/>
			<output>
				<port id="0" precision="I64">
					<dim>1</dim>
				</port>
			</output>
		</layer>
		<layer id="166" name="Slice_96/Strides24459166" type="Const" version="opset1">
			<data element_type="i64" shape="1" offset="1592344" size="8"/>
			<output>
				<port id="0" precision="I64">
					<dim>1</dim>
				</port>
			</output>
		</layer>
		<layer id="167" name="Slice_96" type="StridedSlice" version="opset1">
			<data begin_mask="0" end_mask="0" new_axis_mask="0" shrink_axis_mask="0" ellipsis_mask="0"/>
			<input>
				<port id="0" precision="I64">
					<dim>4</dim>
				</port>
				<port id="1" precision="I64">
					<dim>1</dim>
				</port>
				<port id="2" precision="I64">
					<dim>1</dim>
				</port>
				<port id="3" precision="I64">
					<dim>1</dim>
				</port>
			</input>
			<output>
				<port id="4" precision="I64" names="287">
					<dim>2</dim>
				</port>
			</output>
		</layer>
		<layer id="168" name="Shape_74" type="ShapeOf" version="opset3">
			<data output_type="i64"/>
			<input>
				<port id="0" precision="FP32">
					<dim>1</dim>
					<dim>1</dim>
					<dim>80</dim>
					<dim>200</dim>
				</port>
			</input>
			<output>
				<port id="1" precision="I64" names="265">
					<dim>4</dim>
				</port>
			</output>
		</layer>
		<layer id="169" name="Constant_75" type="Const" version="opset1">
			<data element_type="i32" shape="" offset="1592368" size="4"/>
			<output>
				<port id="0" precision="I32" names="266"/>
			</output>
		</layer>
		<layer id="170" name="Gather_76/axis" type="Const" version="opset1">
			<data element_type="i64" shape="" offset="1592352" size="8"/>
			<output>
				<port id="0" precision="I64"/>
			</output>
		</layer>
		<layer id="171" name="Gather_76254" type="Gather" version="opset7">
			<data batch_dims="0"/>
			<input>
				<port id="0" precision="I64">
					<dim>4</dim>
				</port>
				<port id="1" precision="I32"/>
				<port id="2" precision="I64"/>
			</input>
			<output>
				<port id="3" precision="I64" names="267"/>
			</output>
		</layer>
		<layer id="172" name="Cast_77" type="Convert" version="opset1">
			<data destination_type="f32"/>
			<input>
				<port id="0" precision="I64"/>
			</input>
			<output>
				<port id="1" precision="FP32" names="268,269"/>
			</output>
		</layer>
		<layer id="173" name="Floor_79" type="Floor" version="opset1">
			<input>
				<port id="0" precision="FP32"/>
			</input>
			<output>
				<port id="1" precision="FP32" names="270"/>
			</output>
		</layer>
		<layer id="174" name="Unsqueeze_88/Dims" type="Const" version="opset1">
			<data element_type="i64" shape="1" offset="1592352" size="8"/>
			<output>
				<port id="0" precision="I64">
					<dim>1</dim>
				</port>
			</output>
		</layer>
		<layer id="175" name="Unsqueeze_88/Unsqueeze" type="Unsqueeze" version="opset1">
			<input>
				<port id="0" precision="FP32"/>
				<port id="1" precision="I64">
					<dim>1</dim>
				</port>
			</input>
			<output>
				<port id="2" precision="FP32" names="279">
					<dim>1</dim>
				</port>
			</output>
		</layer>
		<layer id="176" name="Shape_80" type="ShapeOf" version="opset3">
			<data output_type="i64"/>
			<input>
				<port id="0" precision="FP32">
					<dim>1</dim>
					<dim>1</dim>
					<dim>80</dim>
					<dim>200</dim>
				</port>
			</input>
			<output>
				<port id="1" precision="I64" names="271">
					<dim>4</dim>
				</port>
			</output>
		</layer>
		<layer id="177" name="Constant_81" type="Const" version="opset1">
			<data element_type="i32" shape="" offset="1592372" size="4"/>
			<output>
				<port id="0" precision="I32" names="272"/>
			</output>
		</layer>
		<layer id="178" name="Gather_82/axis" type="Const" version="opset1">
			<data element_type="i64" shape="" offset="1592352" size="8"/>
			<output>
				<port id="0" precision="I64"/>
			</output>
		</layer>
		<layer id="179" name="Gather_82246" type="Gather" version="opset7">
			<data batch_dims="0"/>
			<input>
				<port id="0" precision="I64">
					<dim>4</dim>
				</port>
				<port id="1" precision="I32"/>
				<port id="2" precision="I64"/>
			</input>
			<output>
				<port id="3" precision="I64" names="273"/>
			</output>
		</layer>
		<layer id="180" name="Cast_83" type="Convert" version="opset1">
			<data destination_type="f32"/>
			<input>
				<port id="0" precision="I64"/>
			</input>
			<output>
				<port id="1" precision="FP32" names="274"/>
			</output>
		</layer>
		<layer id="181" name="Constant_84" type="Const" version="opset1">
			<data element_type="f32" shape="" offset="1592408" size="4"/>
			<output>
				<port id="0" precision="FP32" names="275"/>
			</output>
		</layer>
		<layer id="182" name="Mul_85" type="Multiply" version="opset1">
			<data auto_broadcast="numpy"/>
			<input>
				<port id="0" precision="FP32"/>
				<port id="1" precision="FP32"/>
			</input>
			<output>
				<port id="2" precision="FP32" names="276,277"/>
			</output>
		</layer>
		<layer id="183" name="Floor_87" type="Floor" version="opset1">
			<input>
				<port id="0" precision="FP32"/>
			</input>
			<output>
				<port id="1" precision="FP32" names="278"/>
			</output>
		</layer>
		<layer id="184" name="Unsqueeze_89/Dims" type="Const" version="opset1">
			<data element_type="i64" shape="1" offset="1592352" size="8"/>
			<output>
				<port id="0" precision="I64">
					<dim>1</dim>
				</port>
			</output>
		</layer>
		<layer id="185" name="Unsqueeze_89/Unsqueeze" type="Unsqueeze" version="opset1">
			<input>
				<port id="0" precision="FP32"/>
				<port id="1" precision="I64">
					<dim>1</dim>
				</port>
			</input>
			<output>
				<port id="2" precision="FP32" names="280">
					<dim>1</dim>
				</port>
			</output>
		</layer>
		<layer id="186" name="Concat_90" type="Concat" version="opset1">
			<data axis="0"/>
			<input>
				<port id="0" precision="FP32">
					<dim>1</dim>
				</port>
				<port id="1" precision="FP32">
					<dim>1</dim>
				</port>
			</input>
			<output>
				<port id="2" precision="FP32" names="281">
					<dim>2</dim>
				</port>
			</output>
		</layer>
		<layer id="187" name="Cast_97" type="Convert" version="opset1">
			<data destination_type="i64"/>
			<input>
				<port id="0" precision="FP32">
					<dim>2</dim>
				</port>
			</input>
			<output>
				<port id="1" precision="I64" names="288">
					<dim>2</dim>
				</port>
			</output>
		</layer>
		<layer id="188" name="Concat_98" type="Concat" version="opset1">
			<data axis="0"/>
			<input>
				<port id="0" precision="I64">
					<dim>2</dim>
				</port>
				<port id="1" precision="I64">
					<dim>2</dim>
				</port>
			</input>
			<output>
				<port id="2" precision="I64" names="289">
					<dim>4</dim>
				</port>
			</output>
		</layer>
		<layer id="189" name="Resize_100/StridedSlice_sizes_input_port_1/value16459466" type="Const" version="opset1">
			<data element_type="i64" shape="1" offset="1592360" size="8"/>
			<output>
				<port id="0" precision="I64">
					<dim>1</dim>
				</port>
			</output>
		</layer>
		<layer id="190" name="Resize_100/StridedSlice_sizes_input_port_2/value16479418" type="Const" version="opset1">
			<data element_type="i64" shape="1" offset="1592380" size="8"/>
			<output>
				<port id="0" precision="I64">
					<dim>1</dim>
				</port>
			</output>
		</layer>
		<layer id="191" name="Resize_100/StridedSlice_sizes_input_port_3/value16499337" type="Const" version="opset1">
			<data element_type="i64" shape="1" offset="1592344" size="8"/>
			<output>
				<port id="0" precision="I64">
					<dim>1</dim>
				</port>
			</output>
		</layer>
		<layer id="192" name="Resize_100/StridedSlice_sizes" type="StridedSlice" version="opset1">
			<data begin_mask="0" end_mask="0" new_axis_mask="0" shrink_axis_mask="0" ellipsis_mask="0"/>
			<input>
				<port id="0" precision="I64">
					<dim>4</dim>
				</port>
				<port id="1" precision="I64">
					<dim>1</dim>
				</port>
				<port id="2" precision="I64">
					<dim>1</dim>
				</port>
				<port id="3" precision="I64">
					<dim>1</dim>
				</port>
			</input>
			<output>
				<port id="4" precision="I64">
					<dim>2</dim>
				</port>
			</output>
		</layer>
		<layer id="193" name="1665" type="Convert" version="opset1">
			<data destination_type="f32"/>
			<input>
				<port id="0" precision="I64">
					<dim>4</dim>
				</port>
			</input>
			<output>
				<port id="1" precision="FP32">
					<dim>4</dim>
				</port>
			</output>
		</layer>
		<layer id="194" name="Resize_100/ShapeOf" type="ShapeOf" version="opset3">
			<data output_type="i64"/>
			<input>
				<port id="0" precision="FP32">
					<dim>1</dim>
					<dim>1</dim>
					<dim>80</dim>
					<dim>200</dim>
				</port>
			</input>
			<output>
				<port id="1" precision="I64">
					<dim>4</dim>
				</port>
			</output>
		</layer>
		<layer id="195" name="1664" type="Convert" version="opset1">
			<data destination_type="f32"/>
			<input>
				<port id="0" precision="I64">
					<dim>4</dim>
				</port>
			</input>
			<output>
				<port id="1" precision="FP32">
					<dim>4</dim>
				</port>
			</output>
		</layer>
		<layer id="196" name="Resize_100/Div" type="Divide" version="opset1">
			<data auto_broadcast="numpy" m_pythondiv="true"/>
			<input>
				<port id="0" precision="FP32">
					<dim>4</dim>
				</port>
				<port id="1" precision="FP32">
					<dim>4</dim>
				</port>
			</input>
			<output>
				<port id="2" precision="FP32">
					<dim>4</dim>
				</port>
			</output>
		</layer>
		<layer id="197" name="Resize_100/Add_input_port_1/value16639352" type="Const" version="opset1">
			<data element_type="f32" shape="1" offset="1592388" size="4"/>
			<output>
				<port id="0" precision="FP32">
					<dim>1</dim>
				</port>
			</output>
		</layer>
		<layer id="198" name="Resize_100/Add" type="Add" version="opset1">
			<data auto_broadcast="numpy"/>
			<input>
				<port id="0" precision="FP32">
					<dim>4</dim>
				</port>
				<port id="1" precision="FP32">
					<dim>1</dim>
				</port>
			</input>
			<output>
				<port id="2" precision="FP32">
					<dim>4</dim>
				</port>
			</output>
		</layer>
		<layer id="199" name="Resize_100/StridedSlice_scales_input_port_1/value16529388" type="Const" version="opset1">
			<data element_type="i64" shape="1" offset="1592360" size="8"/>
			<output>
				<port id="0" precision="I64">
					<dim>1</dim>
				</port>
			</output>
		</layer>
		<layer id="200" name="Resize_100/StridedSlice_scales_input_port_2/value16549376" type="Const" version="opset1">
			<data element_type="i64" shape="1" offset="1592380" size="8"/>
			<output>
				<port id="0" precision="I64">
					<dim>1</dim>
				</port>
			</output>
		</layer>
		<layer id="201" name="Resize_100/StridedSlice_scales_input_port_3/value16569307" type="Const" version="opset1">
			<data element_type="i64" shape="1" offset="1592344" size="8"/>
			<output>
				<port id="0" precision="I64">
					<dim>1</dim>
				</port>
			</output>
		</layer>
		<layer id="202" name="Resize_100/StridedSlice_scales" type="StridedSlice" version="opset1">
			<data begin_mask="0" end_mask="0" new_axis_mask="0" shrink_axis_mask="0" ellipsis_mask="0"/>
			<input>
				<port id="0" precision="FP32">
					<dim>4</dim>
				</port>
				<port id="1" precision="I64">
					<dim>1</dim>
				</port>
				<port id="2" precision="I64">
					<dim>1</dim>
				</port>
				<port id="3" precision="I64">
					<dim>1</dim>
				</port>
			</input>
			<output>
				<port id="4" precision="FP32">
					<dim>2</dim>
				</port>
			</output>
		</layer>
		<layer id="203" name="Resize_100/axis16599304" type="Const" version="opset1">
			<data element_type="i64" shape="2" offset="1592392" size="16"/>
			<output>
				<port id="0" precision="I64">
					<dim>2</dim>
				</port>
			</output>
		</layer>
		<layer id="204" name="Resize_100" type="Interpolate" version="opset4">
			<data mode="nearest" shape_calculation_mode="sizes" coordinate_transformation_mode="asymmetric" nearest_mode="floor" antialias="false" pads_begin="0, 0, 0, 0" pads_end="0, 0, 0, 0" cube_coeff="-0.75"/>
			<input>
				<port id="0" precision="FP32">
					<dim>1</dim>
					<dim>1</dim>
					<dim>80</dim>
					<dim>200</dim>
				</port>
				<port id="1" precision="I64">
					<dim>2</dim>
				</port>
				<port id="2" precision="FP32">
					<dim>2</dim>
				</port>
				<port id="3" precision="I64">
					<dim>2</dim>
				</port>
			</input>
			<output>
				<port id="4" precision="FP32" names="291">
					<dim>1</dim>
					<dim>1</dim>
					<dim>80</dim>
					<dim>1000</dim>
				</port>
			</output>
		</layer>
		<layer id="205" name="model.upsample.up_layers.1.weight" type="Const" version="opset1">
			<data element_type="f32" shape="1, 1, 1, 11" offset="1592412" size="44"/>
			<output>
				<port id="0" precision="FP32" names="model.upsample.up_layers.1.weight">
					<dim>1</dim>
					<dim>1</dim>
					<dim>1</dim>
					<dim>11</dim>
				</port>
			</output>
		</layer>
		<layer id="206" name="Conv_101" type="Convolution" version="opset1">
			<data strides="1, 1" dilations="1, 1" pads_begin="0, 5" pads_end="0, 5" auto_pad="explicit"/>
			<input>
				<port id="0" precision="FP32">
					<dim>1</dim>
					<dim>1</dim>
					<dim>80</dim>
					<dim>1000</dim>
				</port>
				<port id="1" precision="FP32">
					<dim>1</dim>
					<dim>1</dim>
					<dim>1</dim>
					<dim>11</dim>
				</port>
			</input>
			<output>
				<port id="2" precision="FP32" names="292">
					<dim>1</dim>
					<dim>1</dim>
					<dim>80</dim>
					<dim>1000</dim>
				</port>
			</output>
		</layer>
		<layer id="207" name="Shape_120" type="ShapeOf" version="opset3">
			<data output_type="i64"/>
			<input>
				<port id="0" precision="FP32">
					<dim>1</dim>
					<dim>1</dim>
					<dim>80</dim>
					<dim>1000</dim>
				</port>
			</input>
			<output>
				<port id="1" precision="I64" names="311">
					<dim>4</dim>
				</port>
			</output>
		</layer>
		<layer id="208" name="Slice_124/Concat24799415" type="Const" version="opset1">
			<data element_type="i64" shape="1" offset="1592352" size="8"/>
			<output>
				<port id="0" precision="I64">
					<dim>1</dim>
				</port>
			</output>
		</layer>
		<layer id="209" name="Slice_124/Concat246924809241" type="Const" version="opset1">
			<data element_type="i64" shape="1" offset="1592360" size="8"/>
			<output>
				<port id="0" precision="I64">
					<dim>1</dim>
				</port>
			</output>
		</layer>
		<layer id="210" name="Slice_124/Strides24819313" type="Const" version="opset1">
			<data element_type="i64" shape="1" offset="1592344" size="8"/>
			<output>
				<port id="0" precision="I64">
					<dim>1</dim>
				</port>
			</output>
		</layer>
		<layer id="211" name="Slice_124" type="StridedSlice" version="opset1">
			<data begin_mask="0" end_mask="0" new_axis_mask="0" shrink_axis_mask="0" ellipsis_mask="0"/>
			<input>
				<port id="0" precision="I64">
					<dim>4</dim>
				</port>
				<port id="1" precision="I64">
					<dim>1</dim>
				</port>
				<port id="2" precision="I64">
					<dim>1</dim>
				</port>
				<port id="3" precision="I64">
					<dim>1</dim>
				</port>
			</input>
			<output>
				<port id="4" precision="I64" names="315">
					<dim>2</dim>
				</port>
			</output>
		</layer>
		<layer id="212" name="Shape_102" type="ShapeOf" version="opset3">
			<data output_type="i64"/>
			<input>
				<port id="0" precision="FP32">
					<dim>1</dim>
					<dim>1</dim>
					<dim>80</dim>
					<dim>1000</dim>
				</port>
			</input>
			<output>
				<port id="1" precision="I64" names="293">
					<dim>4</dim>
				</port>
			</output>
		</layer>
		<layer id="213" name="Constant_103" type="Const" version="opset1">
			<data element_type="i32" shape="" offset="1592368" size="4"/>
			<output>
				<port id="0" precision="I32" names="294"/>
			</output>
		</layer>
		<layer id="214" name="Gather_104/axis" type="Const" version="opset1">
			<data element_type="i64" shape="" offset="1592352" size="8"/>
			<output>
				<port id="0" precision="I64"/>
			</output>
		</layer>
		<layer id="215" name="Gather_104250" type="Gather" version="opset7">
			<data batch_dims="0"/>
			<input>
				<port id="0" precision="I64">
					<dim>4</dim>
				</port>
				<port id="1" precision="I32"/>
				<port id="2" precision="I64"/>
			</input>
			<output>
				<port id="3" precision="I64" names="295"/>
			</output>
		</layer>
		<layer id="216" name="Cast_105" type="Convert" version="opset1">
			<data destination_type="f32"/>
			<input>
				<port id="0" precision="I64"/>
			</input>
			<output>
				<port id="1" precision="FP32" names="296,297"/>
			</output>
		</layer>
		<layer id="217" name="Floor_107" type="Floor" version="opset1">
			<input>
				<port id="0" precision="FP32"/>
			</input>
			<output>
				<port id="1" precision="FP32" names="298"/>
			</output>
		</layer>
		<layer id="218" name="Unsqueeze_116/Dims" type="Const" version="opset1">
			<data element_type="i64" shape="1" offset="1592352" size="8"/>
			<output>
				<port id="0" precision="I64">
					<dim>1</dim>
				</port>
			</output>
		</layer>
		<layer id="219" name="Unsqueeze_116/Unsqueeze" type="Unsqueeze" version="opset1">
			<input>
				<port id="0" precision="FP32"/>
				<port id="1" precision="I64">
					<dim>1</dim>
				</port>
			</input>
			<output>
				<port id="2" precision="FP32" names="307">
					<dim>1</dim>
				</port>
			</output>
		</layer>
		<layer id="220" name="Shape_108" type="ShapeOf" version="opset3">
			<data output_type="i64"/>
			<input>
				<port id="0" precision="FP32">
					<dim>1</dim>
					<dim>1</dim>
					<dim>80</dim>
					<dim>1000</dim>
				</port>
			</input>
			<output>
				<port id="1" precision="I64" names="299">
					<dim>4</dim>
				</port>
			</output>
		</layer>
		<layer id="221" name="Constant_109" type="Const" version="opset1">
			<data element_type="i32" shape="" offset="1592372" size="4"/>
			<output>
				<port id="0" precision="I32" names="300"/>
			</output>
		</layer>
		<layer id="222" name="Gather_110/axis" type="Const" version="opset1">
			<data element_type="i64" shape="" offset="1592352" size="8"/>
			<output>
				<port id="0" precision="I64"/>
			</output>
		</layer>
		<layer id="223" name="Gather_110242" type="Gather" version="opset7">
			<data batch_dims="0"/>
			<input>
				<port id="0" precision="I64">
					<dim>4</dim>
				</port>
				<port id="1" precision="I32"/>
				<port id="2" precision="I64"/>
			</input>
			<output>
				<port id="3" precision="I64" names="301"/>
			</output>
		</layer>
		<layer id="224" name="Cast_111" type="Convert" version="opset1">
			<data destination_type="f32"/>
			<input>
				<port id="0" precision="I64"/>
			</input>
			<output>
				<port id="1" precision="FP32" names="302"/>
			</output>
		</layer>
		<layer id="225" name="Constant_112" type="Const" version="opset1">
			<data element_type="f32" shape="" offset="1592408" size="4"/>
			<output>
				<port id="0" precision="FP32" names="303"/>
			</output>
		</layer>
		<layer id="226" name="Mul_113" type="Multiply" version="opset1">
			<data auto_broadcast="numpy"/>
			<input>
				<port id="0" precision="FP32"/>
				<port id="1" precision="FP32"/>
			</input>
			<output>
				<port id="2" precision="FP32" names="304,305"/>
			</output>
		</layer>
		<layer id="227" name="Floor_115" type="Floor" version="opset1">
			<input>
				<port id="0" precision="FP32"/>
			</input>
			<output>
				<port id="1" precision="FP32" names="306"/>
			</output>
		</layer>
		<layer id="228" name="Unsqueeze_117/Dims" type="Const" version="opset1">
			<data element_type="i64" shape="1" offset="1592352" size="8"/>
			<output>
				<port id="0" precision="I64">
					<dim>1</dim>
				</port>
			</output>
		</layer>
		<layer id="229" name="Unsqueeze_117/Unsqueeze" type="Unsqueeze" version="opset1">
			<input>
				<port id="0" precision="FP32"/>
				<port id="1" precision="I64">
					<dim>1</dim>
				</port>
			</input>
			<output>
				<port id="2" precision="FP32" names="308">
					<dim>1</dim>
				</port>
			</output>
		</layer>
		<layer id="230" name="Concat_118" type="Concat" version="opset1">
			<data axis="0"/>
			<input>
				<port id="0" precision="FP32">
					<dim>1</dim>
				</port>
				<port id="1" precision="FP32">
					<dim>1</dim>
				</port>
			</input>
			<output>
				<port id="2" precision="FP32" names="309">
					<dim>2</dim>
				</port>
			</output>
		</layer>
		<layer id="231" name="Cast_125" type="Convert" version="opset1">
			<data destination_type="i64"/>
			<input>
				<port id="0" precision="FP32">
					<dim>2</dim>
				</port>
			</input>
			<output>
				<port id="1" precision="I64" names="316">
					<dim>2</dim>
				</port>
			</output>
		</layer>
		<layer id="232" name="Concat_126" type="Concat" version="opset1">
			<data axis="0"/>
			<input>
				<port id="0" precision="I64">
					<dim>2</dim>
				</port>
				<port id="1" precision="I64">
					<dim>2</dim>
				</port>
			</input>
			<output>
				<port id="2" precision="I64" names="317">
					<dim>4</dim>
				</port>
			</output>
		</layer>
		<layer id="233" name="Resize_128/StridedSlice_sizes_input_port_1/value16779226" type="Const" version="opset1">
			<data element_type="i64" shape="1" offset="1592360" size="8"/>
			<output>
				<port id="0" precision="I64">
					<dim>1</dim>
				</port>
			</output>
		</layer>
		<layer id="234" name="Resize_128/StridedSlice_sizes_input_port_2/value16799154" type="Const" version="opset1">
			<data element_type="i64" shape="1" offset="1592380" size="8"/>
			<output>
				<port id="0" precision="I64">
					<dim>1</dim>
				</port>
			</output>
		</layer>
		<layer id="235" name="Resize_128/StridedSlice_sizes_input_port_3/value16819157" type="Const" version="opset1">
			<data element_type="i64" shape="1" offset="1592344" size="8"/>
			<output>
				<port id="0" precision="I64">
					<dim>1</dim>
				</port>
			</output>
		</layer>
		<layer id="236" name="Resize_128/StridedSlice_sizes" type="StridedSlice" version="opset1">
			<data begin_mask="0" end_mask="0" new_axis_mask="0" shrink_axis_mask="0" ellipsis_mask="0"/>
			<input>
				<port id="0" precision="I64">
					<dim>4</dim>
				</port>
				<port id="1" precision="I64">
					<dim>1</dim>
				</port>
				<port id="2" precision="I64">
					<dim>1</dim>
				</port>
				<port id="3" precision="I64">
					<dim>1</dim>
				</port>
			</input>
			<output>
				<port id="4" precision="I64">
					<dim>2</dim>
				</port>
			</output>
		</layer>
		<layer id="237" name="1697" type="Convert" version="opset1">
			<data destination_type="f32"/>
			<input>
				<port id="0" precision="I64">
					<dim>4</dim>
				</port>
			</input>
			<output>
				<port id="1" precision="FP32">
					<dim>4</dim>
				</port>
			</output>
		</layer>
		<layer id="238" name="Resize_128/ShapeOf" type="ShapeOf" version="opset3">
			<data output_type="i64"/>
			<input>
				<port id="0" precision="FP32">
					<dim>1</dim>
					<dim>1</dim>
					<dim>80</dim>
					<dim>1000</dim>
				</port>
			</input>
			<output>
				<port id="1" precision="I64">
					<dim>4</dim>
				</port>
			</output>
		</layer>
		<layer id="239" name="1696" type="Convert" version="opset1">
			<data destination_type="f32"/>
			<input>
				<port id="0" precision="I64">
					<dim>4</dim>
				</port>
			</input>
			<output>
				<port id="1" precision="FP32">
					<dim>4</dim>
				</port>
			</output>
		</layer>
		<layer id="240" name="Resize_128/Div" type="Divide" version="opset1">
			<data auto_broadcast="numpy" m_pythondiv="true"/>
			<input>
				<port id="0" precision="FP32">
					<dim>4</dim>
				</port>
				<port id="1" precision="FP32">
					<dim>4</dim>
				</port>
			</input>
			<output>
				<port id="2" precision="FP32">
					<dim>4</dim>
				</port>
			</output>
		</layer>
		<layer id="241" name="Resize_128/Add_input_port_1/value16959460" type="Const" version="opset1">
			<data element_type="f32" shape="1" offset="1592388" size="4"/>
			<output>
				<port id="0" precision="FP32">
					<dim>1</dim>
				</port>
			</output>
		</layer>
		<layer id="242" name="Resize_128/Add" type="Add" version="opset1">
			<data auto_broadcast="numpy"/>
			<input>
				<port id="0" precision="FP32">
					<dim>4</dim>
				</port>
				<port id="1" precision="FP32">
					<dim>1</dim>
				</port>
			</input>
			<output>
				<port id="2" precision="FP32">
					<dim>4</dim>
				</port>
			</output>
		</layer>
		<layer id="243" name="Resize_128/StridedSlice_scales_input_port_1/value16849355" type="Const" version="opset1">
			<data element_type="i64" shape="1" offset="1592360" size="8"/>
			<output>
				<port id="0" precision="I64">
					<dim>1</dim>
				</port>
			</output>
		</layer>
		<layer id="244" name="Resize_128/StridedSlice_scales_input_port_2/value16869496" type="Const" version="opset1">
			<data element_type="i64" shape="1" offset="1592380" size="8"/>
			<output>
				<port id="0" precision="I64">
					<dim>1</dim>
				</port>
			</output>
		</layer>
		<layer id="245" name="Resize_128/StridedSlice_scales_input_port_3/value16889451" type="Const" version="opset1">
			<data element_type="i64" shape="1" offset="1592344" size="8"/>
			<output>
				<port id="0" precision="I64">
					<dim>1</dim>
				</port>
			</output>
		</layer>
		<layer id="246" name="Resize_128/StridedSlice_scales" type="StridedSlice" version="opset1">
			<data begin_mask="0" end_mask="0" new_axis_mask="0" shrink_axis_mask="0" ellipsis_mask="0"/>
			<input>
				<port id="0" precision="FP32">
					<dim>4</dim>
				</port>
				<port id="1" precision="I64">
					<dim>1</dim>
				</port>
				<port id="2" precision="I64">
					<dim>1</dim>
				</port>
				<port id="3" precision="I64">
					<dim>1</dim>
				</port>
			</input>
			<output>
				<port id="4" precision="FP32">
					<dim>2</dim>
				</port>
			</output>
		</layer>
		<layer id="247" name="Resize_128/axis16919172" type="Const" version="opset1">
			<data element_type="i64" shape="2" offset="1592392" size="16"/>
			<output>
				<port id="0" precision="I64">
					<dim>2</dim>
				</port>
			</output>
		</layer>
		<layer id="248" name="Resize_128" type="Interpolate" version="opset4">
			<data mode="nearest" shape_calculation_mode="sizes" coordinate_transformation_mode="asymmetric" nearest_mode="floor" antialias="false" pads_begin="0, 0, 0, 0" pads_end="0, 0, 0, 0" cube_coeff="-0.75"/>
			<input>
				<port id="0" precision="FP32">
					<dim>1</dim>
					<dim>1</dim>
					<dim>80</dim>
					<dim>1000</dim>
				</port>
				<port id="1" precision="I64">
					<dim>2</dim>
				</port>
				<port id="2" precision="FP32">
					<dim>2</dim>
				</port>
				<port id="3" precision="I64">
					<dim>2</dim>
				</port>
			</input>
			<output>
				<port id="4" precision="FP32" names="319">
					<dim>1</dim>
					<dim>1</dim>
					<dim>80</dim>
					<dim>5000</dim>
				</port>
			</output>
		</layer>
		<layer id="249" name="model.upsample.up_layers.3.weight" type="Const" version="opset1">
			<data element_type="f32" shape="1, 1, 1, 11" offset="1592456" size="44"/>
			<output>
				<port id="0" precision="FP32" names="model.upsample.up_layers.3.weight">
					<dim>1</dim>
					<dim>1</dim>
					<dim>1</dim>
					<dim>11</dim>
				</port>
			</output>
		</layer>
		<layer id="250" name="Conv_129" type="Convolution" version="opset1">
			<data strides="1, 1" dilations="1, 1" pads_begin="0, 5" pads_end="0, 5" auto_pad="explicit"/>
			<input>
				<port id="0" precision="FP32">
					<dim>1</dim>
					<dim>1</dim>
					<dim>80</dim>
					<dim>5000</dim>
				</port>
				<port id="1" precision="FP32">
					<dim>1</dim>
					<dim>1</dim>
					<dim>1</dim>
					<dim>11</dim>
				</port>
			</input>
			<output>
				<port id="2" precision="FP32" names="320">
					<dim>1</dim>
					<dim>1</dim>
					<dim>80</dim>
					<dim>5000</dim>
				</port>
			</output>
		</layer>
		<layer id="251" name="Shape_148" type="ShapeOf" version="opset3">
			<data output_type="i64"/>
			<input>
				<port id="0" precision="FP32">
					<dim>1</dim>
					<dim>1</dim>
					<dim>80</dim>
					<dim>5000</dim>
				</port>
			</input>
			<output>
				<port id="1" precision="I64" names="339">
					<dim>4</dim>
				</port>
			</output>
		</layer>
		<layer id="252" name="Slice_152/Concat25159217" type="Const" version="opset1">
			<data element_type="i64" shape="1" offset="1592352" size="8"/>
			<output>
				<port id="0" precision="I64">
					<dim>1</dim>
				</port>
			</output>
		</layer>
		<layer id="253" name="Slice_152/Concat250525169253" type="Const" version="opset1">
			<data element_type="i64" shape="1" offset="1592360" size="8"/>
			<output>
				<port id="0" precision="I64">
					<dim>1</dim>
				</port>
			</output>
		</layer>
		<layer id="254" name="Slice_152/Strides25179235" type="Const" version="opset1">
			<data element_type="i64" shape="1" offset="1592344" size="8"/>
			<output>
				<port id="0" precision="I64">
					<dim>1</dim>
				</port>
			</output>
		</layer>
		<layer id="255" name="Slice_152" type="StridedSlice" version="opset1">
			<data begin_mask="0" end_mask="0" new_axis_mask="0" shrink_axis_mask="0" ellipsis_mask="0"/>
			<input>
				<port id="0" precision="I64">
					<dim>4</dim>
				</port>
				<port id="1" precision="I64">
					<dim>1</dim>
				</port>
				<port id="2" precision="I64">
					<dim>1</dim>
				</port>
				<port id="3" precision="I64">
					<dim>1</dim>
				</port>
			</input>
			<output>
				<port id="4" precision="I64" names="343">
					<dim>2</dim>
				</port>
			</output>
		</layer>
		<layer id="256" name="Shape_130" type="ShapeOf" version="opset3">
			<data output_type="i64"/>
			<input>
				<port id="0" precision="FP32">
					<dim>1</dim>
					<dim>1</dim>
					<dim>80</dim>
					<dim>5000</dim>
				</port>
			</input>
			<output>
				<port id="1" precision="I64" names="321">
					<dim>4</dim>
				</port>
			</output>
		</layer>
		<layer id="257" name="Constant_131" type="Const" version="opset1">
			<data element_type="i32" shape="" offset="1592368" size="4"/>
			<output>
				<port id="0" precision="I32" names="322"/>
			</output>
		</layer>
		<layer id="258" name="Gather_132/axis" type="Const" version="opset1">
			<data element_type="i64" shape="" offset="1592352" size="8"/>
			<output>
				<port id="0" precision="I64"/>
			</output>
		</layer>
		<layer id="259" name="Gather_132244" type="Gather" version="opset7">
			<data batch_dims="0"/>
			<input>
				<port id="0" precision="I64">
					<dim>4</dim>
				</port>
				<port id="1" precision="I32"/>
				<port id="2" precision="I64"/>
			</input>
			<output>
				<port id="3" precision="I64" names="323"/>
			</output>
		</layer>
		<layer id="260" name="Cast_133" type="Convert" version="opset1">
			<data destination_type="f32"/>
			<input>
				<port id="0" precision="I64"/>
			</input>
			<output>
				<port id="1" precision="FP32" names="324,325"/>
			</output>
		</layer>
		<layer id="261" name="Floor_135" type="Floor" version="opset1">
			<input>
				<port id="0" precision="FP32"/>
			</input>
			<output>
				<port id="1" precision="FP32" names="326"/>
			</output>
		</layer>
		<layer id="262" name="Unsqueeze_144/Dims" type="Const" version="opset1">
			<data element_type="i64" shape="1" offset="1592352" size="8"/>
			<output>
				<port id="0" precision="I64">
					<dim>1</dim>
				</port>
			</output>
		</layer>
		<layer id="263" name="Unsqueeze_144/Unsqueeze" type="Unsqueeze" version="opset1">
			<input>
				<port id="0" precision="FP32"/>
				<port id="1" precision="I64">
					<dim>1</dim>
				</port>
			</input>
			<output>
				<port id="2" precision="FP32" names="335">
					<dim>1</dim>
				</port>
			</output>
		</layer>
		<layer id="264" name="Shape_136" type="ShapeOf" version="opset3">
			<data output_type="i64"/>
			<input>
				<port id="0" precision="FP32">
					<dim>1</dim>
					<dim>1</dim>
					<dim>80</dim>
					<dim>5000</dim>
				</port>
			</input>
			<output>
				<port id="1" precision="I64" names="327">
					<dim>4</dim>
				</port>
			</output>
		</layer>
		<layer id="265" name="Constant_137" type="Const" version="opset1">
			<data element_type="i32" shape="" offset="1592372" size="4"/>
			<output>
				<port id="0" precision="I32" names="328"/>
			</output>
		</layer>
		<layer id="266" name="Gather_138/axis" type="Const" version="opset1">
			<data element_type="i64" shape="" offset="1592352" size="8"/>
			<output>
				<port id="0" precision="I64"/>
			</output>
		</layer>
		<layer id="267" name="Gather_138248" type="Gather" version="opset7">
			<data batch_dims="0"/>
			<input>
				<port id="0" precision="I64">
					<dim>4</dim>
				</port>
				<port id="1" precision="I32"/>
				<port id="2" precision="I64"/>
			</input>
			<output>
				<port id="3" precision="I64" names="329"/>
			</output>
		</layer>
		<layer id="268" name="Cast_139" type="Convert" version="opset1">
			<data destination_type="f32"/>
			<input>
				<port id="0" precision="I64"/>
			</input>
			<output>
				<port id="1" precision="FP32" names="330"/>
			</output>
		</layer>
		<layer id="269" name="Constant_140" type="Const" version="opset1">
			<data element_type="f32" shape="" offset="1592500" size="4"/>
			<output>
				<port id="0" precision="FP32" names="331"/>
			</output>
		</layer>
		<layer id="270" name="Mul_141" type="Multiply" version="opset1">
			<data auto_broadcast="numpy"/>
			<input>
				<port id="0" precision="FP32"/>
				<port id="1" precision="FP32"/>
			</input>
			<output>
				<port id="2" precision="FP32" names="332,333"/>
			</output>
		</layer>
		<layer id="271" name="Floor_143" type="Floor" version="opset1">
			<input>
				<port id="0" precision="FP32"/>
			</input>
			<output>
				<port id="1" precision="FP32" names="334"/>
			</output>
		</layer>
		<layer id="272" name="Unsqueeze_145/Dims" type="Const" version="opset1">
			<data element_type="i64" shape="1" offset="1592352" size="8"/>
			<output>
				<port id="0" precision="I64">
					<dim>1</dim>
				</port>
			</output>
		</layer>
		<layer id="273" name="Unsqueeze_145/Unsqueeze" type="Unsqueeze" version="opset1">
			<input>
				<port id="0" precision="FP32"/>
				<port id="1" precision="I64">
					<dim>1</dim>
				</port>
			</input>
			<output>
				<port id="2" precision="FP32" names="336">
					<dim>1</dim>
				</port>
			</output>
		</layer>
		<layer id="274" name="Concat_146" type="Concat" version="opset1">
			<data axis="0"/>
			<input>
				<port id="0" precision="FP32">
					<dim>1</dim>
				</port>
				<port id="1" precision="FP32">
					<dim>1</dim>
				</port>
			</input>
			<output>
				<port id="2" precision="FP32" names="337">
					<dim>2</dim>
				</port>
			</output>
		</layer>
		<layer id="275" name="Cast_153" type="Convert" version="opset1">
			<data destination_type="i64"/>
			<input>
				<port id="0" precision="FP32">
					<dim>2</dim>
				</port>
			</input>
			<output>
				<port id="1" precision="I64" names="344">
					<dim>2</dim>
				</port>
			</output>
		</layer>
		<layer id="276" name="Concat_154" type="Concat" version="opset1">
			<data axis="0"/>
			<input>
				<port id="0" precision="I64">
					<dim>2</dim>
				</port>
				<port id="1" precision="I64">
					<dim>2</dim>
				</port>
			</input>
			<output>
				<port id="2" precision="I64" names="345">
					<dim>4</dim>
				</port>
			</output>
		</layer>
		<layer id="277" name="Resize_156/StridedSlice_sizes_input_port_1/value17099433" type="Const" version="opset1">
			<data element_type="i64" shape="1" offset="1592360" size="8"/>
			<output>
				<port id="0" precision="I64">
					<dim>1</dim>
				</port>
			</output>
		</layer>
		<layer id="278" name="Resize_156/StridedSlice_sizes_input_port_2/value17119262" type="Const" version="opset1">
			<data element_type="i64" shape="1" offset="1592380" size="8"/>
			<output>
				<port id="0" precision="I64">
					<dim>1</dim>
				</port>
			</output>
		</layer>
		<layer id="279" name="Resize_156/StridedSlice_sizes_input_port_3/value17139274" type="Const" version="opset1">
			<data element_type="i64" shape="1" offset="1592344" size="8"/>
			<output>
				<port id="0" precision="I64">
					<dim>1</dim>
				</port>
			</output>
		</layer>
		<layer id="280" name="Resize_156/StridedSlice_sizes" type="StridedSlice" version="opset1">
			<data begin_mask="0" end_mask="0" new_axis_mask="0" shrink_axis_mask="0" ellipsis_mask="0"/>
			<input>
				<port id="0" precision="I64">
					<dim>4</dim>
				</port>
				<port id="1" precision="I64">
					<dim>1</dim>
				</port>
				<port id="2" precision="I64">
					<dim>1</dim>
				</port>
				<port id="3" precision="I64">
					<dim>1</dim>
				</port>
			</input>
			<output>
				<port id="4" precision="I64">
					<dim>2</dim>
				</port>
			</output>
		</layer>
		<layer id="281" name="1729" type="Convert" version="opset1">
			<data destination_type="f32"/>
			<input>
				<port id="0" precision="I64">
					<dim>4</dim>
				</port>
			</input>
			<output>
				<port id="1" precision="FP32">
					<dim>4</dim>
				</port>
			</output>
		</layer>
		<layer id="282" name="Resize_156/ShapeOf" type="ShapeOf" version="opset3">
			<data output_type="i64"/>
			<input>
				<port id="0" precision="FP32">
					<dim>1</dim>
					<dim>1</dim>
					<dim>80</dim>
					<dim>5000</dim>
				</port>
			</input>
			<output>
				<port id="1" precision="I64">
					<dim>4</dim>
				</port>
			</output>
		</layer>
		<layer id="283" name="1728" type="Convert" version="opset1">
			<data destination_type="f32"/>
			<input>
				<port id="0" precision="I64">
					<dim>4</dim>
				</port>
			</input>
			<output>
				<port id="1" precision="FP32">
					<dim>4</dim>
				</port>
			</output>
		</layer>
		<layer id="284" name="Resize_156/Div" type="Divide" version="opset1">
			<data auto_broadcast="numpy" m_pythondiv="true"/>
			<input>
				<port id="0" precision="FP32">
					<dim>4</dim>
				</port>
				<port id="1" precision="FP32">
					<dim>4</dim>
				</port>
			</input>
			<output>
				<port id="2" precision="FP32">
					<dim>4</dim>
				</port>
			</output>
		</layer>
		<layer id="285" name="Resize_156/Add_input_port_1/value17279250" type="Const" version="opset1">
			<data element_type="f32" shape="1" offset="1592388" size="4"/>
			<output>
				<port id="0" precision="FP32">
					<dim>1</dim>
				</port>
			</output>
		</layer>
		<layer id="286" name="Resize_156/Add" type="Add" version="opset1">
			<data auto_broadcast="numpy"/>
			<input>
				<port id="0" precision="FP32">
					<dim>4</dim>
				</port>
				<port id="1" precision="FP32">
					<dim>1</dim>
				</port>
			</input>
			<output>
				<port id="2" precision="FP32">
					<dim>4</dim>
				</port>
			</output>
		</layer>
		<layer id="287" name="Resize_156/StridedSlice_scales_input_port_1/value17169367" type="Const" version="opset1">
			<data element_type="i64" shape="1" offset="1592360" size="8"/>
			<output>
				<port id="0" precision="I64">
					<dim>1</dim>
				</port>
			</output>
		</layer>
		<layer id="288" name="Resize_156/StridedSlice_scales_input_port_2/value17189151" type="Const" version="opset1">
			<data element_type="i64" shape="1" offset="1592380" size="8"/>
			<output>
				<port id="0" precision="I64">
					<dim>1</dim>
				</port>
			</output>
		</layer>
		<layer id="289" name="Resize_156/StridedSlice_scales_input_port_3/value17209208" type="Const" version="opset1">
			<data element_type="i64" shape="1" offset="1592344" size="8"/>
			<output>
				<port id="0" precision="I64">
					<dim>1</dim>
				</port>
			</output>
		</layer>
		<layer id="290" name="Resize_156/StridedSlice_scales" type="StridedSlice" version="opset1">
			<data begin_mask="0" end_mask="0" new_axis_mask="0" shrink_axis_mask="0" ellipsis_mask="0"/>
			<input>
				<port id="0" precision="FP32">
					<dim>4</dim>
				</port>
				<port id="1" precision="I64">
					<dim>1</dim>
				</port>
				<port id="2" precision="I64">
					<dim>1</dim>
				</port>
				<port id="3" precision="I64">
					<dim>1</dim>
				</port>
			</input>
			<output>
				<port id="4" precision="FP32">
					<dim>2</dim>
				</port>
			</output>
		</layer>
		<layer id="291" name="Resize_156/axis17239436" type="Const" version="opset1">
			<data element_type="i64" shape="2" offset="1592392" size="16"/>
			<output>
				<port id="0" precision="I64">
					<dim>2</dim>
				</port>
			</output>
		</layer>
		<layer id="292" name="Resize_156" type="Interpolate" version="opset4">
			<data mode="nearest" shape_calculation_mode="sizes" coordinate_transformation_mode="asymmetric" nearest_mode="floor" antialias="false" pads_begin="0, 0, 0, 0" pads_end="0, 0, 0, 0" cube_coeff="-0.75"/>
			<input>
				<port id="0" precision="FP32">
					<dim>1</dim>
					<dim>1</dim>
					<dim>80</dim>
					<dim>5000</dim>
				</port>
				<port id="1" precision="I64">
					<dim>2</dim>
				</port>
				<port id="2" precision="FP32">
					<dim>2</dim>
				</port>
				<port id="3" precision="I64">
					<dim>2</dim>
				</port>
			</input>
			<output>
				<port id="4" precision="FP32" names="347">
					<dim>1</dim>
					<dim>1</dim>
					<dim>80</dim>
					<dim>55000</dim>
				</port>
			</output>
		</layer>
		<layer id="293" name="model.upsample.up_layers.5.weight" type="Const" version="opset1">
			<data element_type="f32" shape="1, 1, 1, 23" offset="1592504" size="92"/>
			<output>
				<port id="0" precision="FP32" names="model.upsample.up_layers.5.weight">
					<dim>1</dim>
					<dim>1</dim>
					<dim>1</dim>
					<dim>23</dim>
				</port>
			</output>
		</layer>
		<layer id="294" name="Conv_157" type="Convolution" version="opset1">
			<data strides="1, 1" dilations="1, 1" pads_begin="0, 11" pads_end="0, 11" auto_pad="explicit"/>
			<input>
				<port id="0" precision="FP32">
					<dim>1</dim>
					<dim>1</dim>
					<dim>80</dim>
					<dim>55000</dim>
				</port>
				<port id="1" precision="FP32">
					<dim>1</dim>
					<dim>1</dim>
					<dim>1</dim>
					<dim>23</dim>
				</port>
			</input>
			<output>
				<port id="2" precision="FP32" names="348">
					<dim>1</dim>
					<dim>1</dim>
					<dim>80</dim>
					<dim>55000</dim>
				</port>
			</output>
		</layer>
		<layer id="295" name="Squeeze_158/Dims" type="Const" version="opset1">
			<data element_type="i64" shape="1" offset="1592344" size="8"/>
			<output>
				<port id="0" precision="I64">
					<dim>1</dim>
				</port>
			</output>
		</layer>
		<layer id="296" name="Squeeze_158" type="Squeeze" version="opset1">
			<input>
				<port id="0" precision="FP32">
					<dim>1</dim>
					<dim>1</dim>
					<dim>80</dim>
					<dim>55000</dim>
				</port>
				<port id="1" precision="I64">
					<dim>1</dim>
				</port>
			</input>
			<output>
				<port id="2" precision="FP32" names="349">
					<dim>1</dim>
					<dim>80</dim>
					<dim>55000</dim>
				</port>
			</output>
		</layer>
		<layer id="297" name="214" type="Const" version="opset1">
			<data element_type="i64" shape="3" offset="0" size="24"/>
			<output>
				<port id="0" precision="I64">
					<dim>3</dim>
				</port>
			</output>
		</layer>
		<layer id="298" name="upsample_mels" type="Transpose" version="opset1">
			<input>
				<port id="0" precision="FP32">
					<dim>1</dim>
					<dim>80</dim>
					<dim>55000</dim>
				</port>
				<port id="1" precision="I64">
					<dim>3</dim>
				</port>
			</input>
			<output>
				<port id="2" precision="FP32" names="upsample_mels">
					<dim>1</dim>
					<dim>55000</dim>
					<dim>80</dim>
				</port>
			</output>
		</layer>
		<layer id="299" name="upsample_mels/sink_port_0" type="Result" version="opset1">
			<input>
				<port id="0" precision="FP32">
					<dim>1</dim>
					<dim>55000</dim>
					<dim>80</dim>
				</port>
			</input>
		</layer>
	</layers>
	<edges>
		<edge from-layer="0" from-port="0" to-layer="2" to-port="0"/>
		<edge from-layer="1" from-port="0" to-layer="2" to-port="1"/>
		<edge from-layer="2" from-port="2" to-layer="4" to-port="0"/>
		<edge from-layer="2" from-port="2" to-layer="162" to-port="0"/>
		<edge from-layer="3" from-port="0" to-layer="4" to-port="1"/>
		<edge from-layer="4" from-port="2" to-layer="6" to-port="0"/>
		<edge from-layer="5" from-port="0" to-layer="6" to-port="1"/>
		<edge from-layer="6" from-port="2" to-layer="7" to-port="0"/>
		<edge from-layer="7" from-port="1" to-layer="9" to-port="0"/>
		<edge from-layer="7" from-port="1" to-layer="17" to-port="1"/>
		<edge from-layer="8" from-port="0" to-layer="9" to-port="1"/>
		<edge from-layer="9" from-port="2" to-layer="11" to-port="0"/>
		<edge from-layer="10" from-port="0" to-layer="11" to-port="1"/>
		<edge from-layer="11" from-port="2" to-layer="12" to-port="0"/>
		<edge from-layer="12" from-port="1" to-layer="14" to-port="0"/>
		<edge from-layer="13" from-port="0" to-layer="14" to-port="1"/>
		<edge from-layer="14" from-port="2" to-layer="16" to-port="0"/>
		<edge from-layer="15" from-port="0" to-layer="16" to-port="1"/>
		<edge from-layer="16" from-port="2" to-layer="17" to-port="0"/>
		<edge from-layer="17" from-port="2" to-layer="19" to-port="0"/>
		<edge from-layer="17" from-port="2" to-layer="27" to-port="1"/>
		<edge from-layer="18" from-port="0" to-layer="19" to-port="1"/>
		<edge from-layer="19" from-port="2" to-layer="21" to-port="0"/>
		<edge from-layer="20" from-port="0" to-layer="21" to-port="1"/>
		<edge from-layer="21" from-port="2" to-layer="22" to-port="0"/>
		<edge from-layer="22" from-port="1" to-layer="24" to-port="0"/>
		<edge from-layer="23" from-port="0" to-layer="24" to-port="1"/>
		<edge from-layer="24" from-port="2" to-layer="26" to-port="0"/>
		<edge from-layer="25" from-port="0" to-layer="26" to-port="1"/>
		<edge from-layer="26" from-port="2" to-layer="27" to-port="0"/>
		<edge from-layer="27" from-port="2" to-layer="29" to-port="0"/>
		<edge from-layer="27" from-port="2" to-layer="37" to-port="1"/>
		<edge from-layer="28" from-port="0" to-layer="29" to-port="1"/>
		<edge from-layer="29" from-port="2" to-layer="31" to-port="0"/>
		<edge from-layer="30" from-port="0" to-layer="31" to-port="1"/>
		<edge from-layer="31" from-port="2" to-layer="32" to-port="0"/>
		<edge from-layer="32" from-port="1" to-layer="34" to-port="0"/>
		<edge from-layer="33" from-port="0" to-layer="34" to-port="1"/>
		<edge from-layer="34" from-port="2" to-layer="36" to-port="0"/>
		<edge from-layer="35" from-port="0" to-layer="36" to-port="1"/>
		<edge from-layer="36" from-port="2" to-layer="37" to-port="0"/>
		<edge from-layer="37" from-port="2" to-layer="39" to-port="0"/>
		<edge from-layer="37" from-port="2" to-layer="47" to-port="1"/>
		<edge from-layer="38" from-port="0" to-layer="39" to-port="1"/>
		<edge from-layer="39" from-port="2" to-layer="41" to-port="0"/>
		<edge from-layer="40" from-port="0" to-layer="41" to-port="1"/>
		<edge from-layer="41" from-port="2" to-layer="42" to-port="0"/>
		<edge from-layer="42" from-port="1" to-layer="44" to-port="0"/>
		<edge from-layer="43" from-port="0" to-layer="44" to-port="1"/>
		<edge from-layer="44" from-port="2" to-layer="46" to-port="0"/>
		<edge from-layer="45" from-port="0" to-layer="46" to-port="1"/>
		<edge from-layer="46" from-port="2" to-layer="47" to-port="0"/>
		<edge from-layer="47" from-port="2" to-layer="49" to-port="0"/>
		<edge from-layer="47" from-port="2" to-layer="57" to-port="1"/>
		<edge from-layer="48" from-port="0" to-layer="49" to-port="1"/>
		<edge from-layer="49" from-port="2" to-layer="51" to-port="0"/>
		<edge from-layer="50" from-port="0" to-layer="51" to-port="1"/>
		<edge from-layer="51" from-port="2" to-layer="52" to-port="0"/>
		<edge from-layer="52" from-port="1" to-layer="54" to-port="0"/>
		<edge from-layer="53" from-port="0" to-layer="54" to-port="1"/>
		<edge from-layer="54" from-port="2" to-layer="56" to-port="0"/>
		<edge from-layer="55" from-port="0" to-layer="56" to-port="1"/>
		<edge from-layer="56" from-port="2" to-layer="57" to-port="0"/>
		<edge from-layer="57" from-port="2" to-layer="59" to-port="0"/>
		<edge from-layer="57" from-port="2" to-layer="67" to-port="1"/>
		<edge from-layer="58" from-port="0" to-layer="59" to-port="1"/>
		<edge from-layer="59" from-port="2" to-layer="61" to-port="0"/>
		<edge from-layer="60" from-port="0" to-layer="61" to-port="1"/>
		<edge from-layer="61" from-port="2" to-layer="62" to-port="0"/>
		<edge from-layer="62" from-port="1" to-layer="64" to-port="0"/>
		<edge from-layer="63" from-port="0" to-layer="64" to-port="1"/>
		<edge from-layer="64" from-port="2" to-layer="66" to-port="0"/>
		<edge from-layer="65" from-port="0" to-layer="66" to-port="1"/>
		<edge from-layer="66" from-port="2" to-layer="67" to-port="0"/>
		<edge from-layer="67" from-port="2" to-layer="69" to-port="0"/>
		<edge from-layer="67" from-port="2" to-layer="77" to-port="1"/>
		<edge from-layer="68" from-port="0" to-layer="69" to-port="1"/>
		<edge from-layer="69" from-port="2" to-layer="71" to-port="0"/>
		<edge from-layer="70" from-port="0" to-layer="71" to-port="1"/>
		<edge from-layer="71" from-port="2" to-layer="72" to-port="0"/>
		<edge from-layer="72" from-port="1" to-layer="74" to-port="0"/>
		<edge from-layer="73" from-port="0" to-layer="74" to-port="1"/>
		<edge from-layer="74" from-port="2" to-layer="76" to-port="0"/>
		<edge from-layer="75" from-port="0" to-layer="76" to-port="1"/>
		<edge from-layer="76" from-port="2" to-layer="77" to-port="0"/>
		<edge from-layer="77" from-port="2" to-layer="79" to-port="0"/>
		<edge from-layer="77" from-port="2" to-layer="87" to-port="1"/>
		<edge from-layer="78" from-port="0" to-layer="79" to-port="1"/>
		<edge from-layer="79" from-port="2" to-layer="81" to-port="0"/>
		<edge from-layer="80" from-port="0" to-layer="81" to-port="1"/>
		<edge from-layer="81" from-port="2" to-layer="82" to-port="0"/>
		<edge from-layer="82" from-port="1" to-layer="84" to-port="0"/>
		<edge from-layer="83" from-port="0" to-layer="84" to-port="1"/>
		<edge from-layer="84" from-port="2" to-layer="86" to-port="0"/>
		<edge from-layer="85" from-port="0" to-layer="86" to-port="1"/>
		<edge from-layer="86" from-port="2" to-layer="87" to-port="0"/>
		<edge from-layer="87" from-port="2" to-layer="89" to-port="0"/>
		<edge from-layer="87" from-port="2" to-layer="97" to-port="1"/>
		<edge from-layer="88" from-port="0" to-layer="89" to-port="1"/>
		<edge from-layer="89" from-port="2" to-layer="91" to-port="0"/>
		<edge from-layer="90" from-port="0" to-layer="91" to-port="1"/>
		<edge from-layer="91" from-port="2" to-layer="92" to-port="0"/>
		<edge from-layer="92" from-port="1" to-layer="94" to-port="0"/>
		<edge from-layer="93" from-port="0" to-layer="94" to-port="1"/>
		<edge from-layer="94" from-port="2" to-layer="96" to-port="0"/>
		<edge from-layer="95" from-port="0" to-layer="96" to-port="1"/>
		<edge from-layer="96" from-port="2" to-layer="97" to-port="0"/>
		<edge from-layer="97" from-port="2" to-layer="99" to-port="0"/>
		<edge from-layer="97" from-port="2" to-layer="107" to-port="1"/>
		<edge from-layer="98" from-port="0" to-layer="99" to-port="1"/>
		<edge from-layer="99" from-port="2" to-layer="101" to-port="0"/>
		<edge from-layer="100" from-port="0" to-layer="101" to-port="1"/>
		<edge from-layer="101" from-port="2" to-layer="102" to-port="0"/>
		<edge from-layer="102" from-port="1" to-layer="104" to-port="0"/>
		<edge from-layer="103" from-port="0" to-layer="104" to-port="1"/>
		<edge from-layer="104" from-port="2" to-layer="106" to-port="0"/>
		<edge from-layer="105" from-port="0" to-layer="106" to-port="1"/>
		<edge from-layer="106" from-port="2" to-layer="107" to-port="0"/>
		<edge from-layer="107" from-port="2" to-layer="109" to-port="0"/>
		<edge from-layer="108" from-port="0" to-layer="109" to-port="1"/>
		<edge from-layer="109" from-port="2" to-layer="111" to-port="0"/>
		<edge from-layer="110" from-port="0" to-layer="111" to-port="1"/>
		<edge from-layer="111" from-port="2" to-layer="113" to-port="0"/>
		<edge from-layer="112" from-port="0" to-layer="113" to-port="1"/>
		<edge from-layer="113" from-port="2" to-layer="127" to-port="0"/>
		<edge from-layer="113" from-port="2" to-layer="145" to-port="0"/>
		<edge from-layer="113" from-port="2" to-layer="155" to-port="0"/>
		<edge from-layer="113" from-port="2" to-layer="119" to-port="0"/>
		<edge from-layer="113" from-port="2" to-layer="114" to-port="0"/>
		<edge from-layer="114" from-port="1" to-layer="118" to-port="0"/>
		<edge from-layer="115" from-port="0" to-layer="118" to-port="1"/>
		<edge from-layer="116" from-port="0" to-layer="118" to-port="2"/>
		<edge from-layer="117" from-port="0" to-layer="118" to-port="3"/>
		<edge from-layer="118" from-port="4" to-layer="139" to-port="0"/>
		<edge from-layer="119" from-port="1" to-layer="122" to-port="0"/>
		<edge from-layer="120" from-port="0" to-layer="122" to-port="1"/>
		<edge from-layer="121" from-port="0" to-layer="122" to-port="2"/>
		<edge from-layer="122" from-port="3" to-layer="123" to-port="0"/>
		<edge from-layer="123" from-port="1" to-layer="124" to-port="0"/>
		<edge from-layer="124" from-port="1" to-layer="126" to-port="0"/>
		<edge from-layer="125" from-port="0" to-layer="126" to-port="1"/>
		<edge from-layer="126" from-port="2" to-layer="137" to-port="0"/>
		<edge from-layer="127" from-port="1" to-layer="130" to-port="0"/>
		<edge from-layer="128" from-port="0" to-layer="130" to-port="1"/>
		<edge from-layer="129" from-port="0" to-layer="130" to-port="2"/>
		<edge from-layer="130" from-port="3" to-layer="131" to-port="0"/>
		<edge from-layer="131" from-port="1" to-layer="133" to-port="0"/>
		<edge from-layer="132" from-port="0" to-layer="133" to-port="1"/>
		<edge from-layer="133" from-port="2" to-layer="134" to-port="0"/>
		<edge from-layer="134" from-port="1" to-layer="136" to-port="0"/>
		<edge from-layer="135" from-port="0" to-layer="136" to-port="1"/>
		<edge from-layer="136" from-port="2" to-layer="137" to-port="1"/>
		<edge from-layer="137" from-port="2" to-layer="138" to-port="0"/>
		<edge from-layer="138" from-port="1" to-layer="139" to-port="1"/>
		<edge from-layer="139" from-port="2" to-layer="144" to-port="0"/>
		<edge from-layer="139" from-port="2" to-layer="143" to-port="0"/>
		<edge from-layer="140" from-port="0" to-layer="143" to-port="1"/>
		<edge from-layer="141" from-port="0" to-layer="143" to-port="2"/>
		<edge from-layer="142" from-port="0" to-layer="143" to-port="3"/>
		<edge from-layer="143" from-port="4" to-layer="155" to-port="1"/>
		<edge from-layer="144" from-port="1" to-layer="147" to-port="0"/>
		<edge from-layer="145" from-port="1" to-layer="146" to-port="0"/>
		<edge from-layer="146" from-port="1" to-layer="147" to-port="1"/>
		<edge from-layer="147" from-port="2" to-layer="149" to-port="0"/>
		<edge from-layer="148" from-port="0" to-layer="149" to-port="1"/>
		<edge from-layer="149" from-port="2" to-layer="153" to-port="0"/>
		<edge from-layer="150" from-port="0" to-layer="153" to-port="1"/>
		<edge from-layer="151" from-port="0" to-layer="153" to-port="2"/>
		<edge from-layer="152" from-port="0" to-layer="153" to-port="3"/>
		<edge from-layer="153" from-port="4" to-layer="155" to-port="2"/>
		<edge from-layer="154" from-port="0" to-layer="155" to-port="3"/>
		<edge from-layer="155" from-port="4" to-layer="157" to-port="0"/>
		<edge from-layer="156" from-port="0" to-layer="157" to-port="1"/>
		<edge from-layer="157" from-port="2" to-layer="159" to-port="0"/>
		<edge from-layer="158" from-port="0" to-layer="159" to-port="1"/>
		<edge from-layer="159" from-port="2" to-layer="160" to-port="0"/>
		<edge from-layer="161" from-port="0" to-layer="162" to-port="1"/>
		<edge from-layer="162" from-port="2" to-layer="194" to-port="0"/>
		<edge from-layer="162" from-port="2" to-layer="204" to-port="0"/>
		<edge from-layer="162" from-port="2" to-layer="176" to-port="0"/>
		<edge from-layer="162" from-port="2" to-layer="168" to-port="0"/>
		<edge from-layer="162" from-port="2" to-layer="163" to-port="0"/>
		<edge from-layer="163" from-port="1" to-layer="167" to-port="0"/>
		<edge from-layer="164" from-port="0" to-layer="167" to-port="1"/>
		<edge from-layer="165" from-port="0" to-layer="167" to-port="2"/>
		<edge from-layer="166" from-port="0" to-layer="167" to-port="3"/>
		<edge from-layer="167" from-port="4" to-layer="188" to-port="0"/>
		<edge from-layer="168" from-port="1" to-layer="171" to-port="0"/>
		<edge from-layer="169" from-port="0" to-layer="171" to-port="1"/>
		<edge from-layer="170" from-port="0" to-layer="171" to-port="2"/>
		<edge from-layer="171" from-port="3" to-layer="172" to-port="0"/>
		<edge from-layer="172" from-port="1" to-layer="173" to-port="0"/>
		<edge from-layer="173" from-port="1" to-layer="175" to-port="0"/>
		<edge from-layer="174" from-port="0" to-layer="175" to-port="1"/>
		<edge from-layer="175" from-port="2" to-layer="186" to-port="0"/>
		<edge from-layer="176" from-port="1" to-layer="179" to-port="0"/>
		<edge from-layer="177" from-port="0" to-layer="179" to-port="1"/>
		<edge from-layer="178" from-port="0" to-layer="179" to-port="2"/>
		<edge from-layer="179" from-port="3" to-layer="180" to-port="0"/>
		<edge from-layer="180" from-port="1" to-layer="182" to-port="0"/>
		<edge from-layer="181" from-port="0" to-layer="182" to-port="1"/>
		<edge from-layer="182" from-port="2" to-layer="183" to-port="0"/>
		<edge from-layer="183" from-port="1" to-layer="185" to-port="0"/>
		<edge from-layer="184" from-port="0" to-layer="185" to-port="1"/>
		<edge from-layer="185" from-port="2" to-layer="186" to-port="1"/>
		<edge from-layer="186" from-port="2" to-layer="187" to-port="0"/>
		<edge from-layer="187" from-port="1" to-layer="188" to-port="1"/>
		<edge from-layer="188" from-port="2" to-layer="193" to-port="0"/>
		<edge from-layer="188" from-port="2" to-layer="192" to-port="0"/>
		<edge from-layer="189" from-port="0" to-layer="192" to-port="1"/>
		<edge from-layer="190" from-port="0" to-layer="192" to-port="2"/>
		<edge from-layer="191" from-port="0" to-layer="192" to-port="3"/>
		<edge from-layer="192" from-port="4" to-layer="204" to-port="1"/>
		<edge from-layer="193" from-port="1" to-layer="196" to-port="0"/>
		<edge from-layer="194" from-port="1" to-layer="195" to-port="0"/>
		<edge from-layer="195" from-port="1" to-layer="196" to-port="1"/>
		<edge from-layer="196" from-port="2" to-layer="198" to-port="0"/>
		<edge from-layer="197" from-port="0" to-layer="198" to-port="1"/>
		<edge from-layer="198" from-port="2" to-layer="202" to-port="0"/>
		<edge from-layer="199" from-port="0" to-layer="202" to-port="1"/>
		<edge from-layer="200" from-port="0" to-layer="202" to-port="2"/>
		<edge from-layer="201" from-port="0" to-layer="202" to-port="3"/>
		<edge from-layer="202" from-port="4" to-layer="204" to-port="2"/>
		<edge from-layer="203" from-port="0" to-layer="204" to-port="3"/>
		<edge from-layer="204" from-port="4" to-layer="206" to-port="0"/>
		<edge from-layer="205" from-port="0" to-layer="206" to-port="1"/>
		<edge from-layer="206" from-port="2" to-layer="207" to-port="0"/>
		<edge from-layer="206" from-port="2" to-layer="212" to-port="0"/>
		<edge from-layer="206" from-port="2" to-layer="238" to-port="0"/>
		<edge from-layer="206" from-port="2" to-layer="248" to-port="0"/>
		<edge from-layer="206" from-port="2" to-layer="220" to-port="0"/>
		<edge from-layer="207" from-port="1" to-layer="211" to-port="0"/>
		<edge from-layer="208" from-port="0" to-layer="211" to-port="1"/>
		<edge from-layer="209" from-port="0" to-layer="211" to-port="2"/>
		<edge from-layer="210" from-port="0" to-layer="211" to-port="3"/>
		<edge from-layer="211" from-port="4" to-layer="232" to-port="0"/>
		<edge from-layer="212" from-port="1" to-layer="215" to-port="0"/>
		<edge from-layer="213" from-port="0" to-layer="215" to-port="1"/>
		<edge from-layer="214" from-port="0" to-layer="215" to-port="2"/>
		<edge from-layer="215" from-port="3" to-layer="216" to-port="0"/>
		<edge from-layer="216" from-port="1" to-layer="217" to-port="0"/>
		<edge from-layer="217" from-port="1" to-layer="219" to-port="0"/>
		<edge from-layer="218" from-port="0" to-layer="219" to-port="1"/>
		<edge from-layer="219" from-port="2" to-layer="230" to-port="0"/>
		<edge from-layer="220" from-port="1" to-layer="223" to-port="0"/>
		<edge from-layer="221" from-port="0" to-layer="223" to-port="1"/>
		<edge from-layer="222" from-port="0" to-layer="223" to-port="2"/>
		<edge from-layer="223" from-port="3" to-layer="224" to-port="0"/>
		<edge from-layer="224" from-port="1" to-layer="226" to-port="0"/>
		<edge from-layer="225" from-port="0" to-layer="226" to-port="1"/>
		<edge from-layer="226" from-port="2" to-layer="227" to-port="0"/>
		<edge from-layer="227" from-port="1" to-layer="229" to-port="0"/>
		<edge from-layer="228" from-port="0" to-layer="229" to-port="1"/>
		<edge from-layer="229" from-port="2" to-layer="230" to-port="1"/>
		<edge from-layer="230" from-port="2" to-layer="231" to-port="0"/>
		<edge from-layer="231" from-port="1" to-layer="232" to-port="1"/>
		<edge from-layer="232" from-port="2" to-layer="236" to-port="0"/>
		<edge from-layer="232" from-port="2" to-layer="237" to-port="0"/>
		<edge from-layer="233" from-port="0" to-layer="236" to-port="1"/>
		<edge from-layer="234" from-port="0" to-layer="236" to-port="2"/>
		<edge from-layer="235" from-port="0" to-layer="236" to-port="3"/>
		<edge from-layer="236" from-port="4" to-layer="248" to-port="1"/>
		<edge from-layer="237" from-port="1" to-layer="240" to-port="0"/>
		<edge from-layer="238" from-port="1" to-layer="239" to-port="0"/>
		<edge from-layer="239" from-port="1" to-layer="240" to-port="1"/>
		<edge from-layer="240" from-port="2" to-layer="242" to-port="0"/>
		<edge from-layer="241" from-port="0" to-layer="242" to-port="1"/>
		<edge from-layer="242" from-port="2" to-layer="246" to-port="0"/>
		<edge from-layer="243" from-port="0" to-layer="246" to-port="1"/>
		<edge from-layer="244" from-port="0" to-layer="246" to-port="2"/>
		<edge from-layer="245" from-port="0" to-layer="246" to-port="3"/>
		<edge from-layer="246" from-port="4" to-layer="248" to-port="2"/>
		<edge from-layer="247" from-port="0" to-layer="248" to-port="3"/>
		<edge from-layer="248" from-port="4" to-layer="250" to-port="0"/>
		<edge from-layer="249" from-port="0" to-layer="250" to-port="1"/>
		<edge from-layer="250" from-port="2" to-layer="256" to-port="0"/>
		<edge from-layer="250" from-port="2" to-layer="251" to-port="0"/>
		<edge from-layer="250" from-port="2" to-layer="282" to-port="0"/>
		<edge from-layer="250" from-port="2" to-layer="264" to-port="0"/>
		<edge from-layer="250" from-port="2" to-layer="292" to-port="0"/>
		<edge from-layer="251" from-port="1" to-layer="255" to-port="0"/>
		<edge from-layer="252" from-port="0" to-layer="255" to-port="1"/>
		<edge from-layer="253" from-port="0" to-layer="255" to-port="2"/>
		<edge from-layer="254" from-port="0" to-layer="255" to-port="3"/>
		<edge from-layer="255" from-port="4" to-layer="276" to-port="0"/>
		<edge from-layer="256" from-port="1" to-layer="259" to-port="0"/>
		<edge from-layer="257" from-port="0" to-layer="259" to-port="1"/>
		<edge from-layer="258" from-port="0" to-layer="259" to-port="2"/>
		<edge from-layer="259" from-port="3" to-layer="260" to-port="0"/>
		<edge from-layer="260" from-port="1" to-layer="261" to-port="0"/>
		<edge from-layer="261" from-port="1" to-layer="263" to-port="0"/>
		<edge from-layer="262" from-port="0" to-layer="263" to-port="1"/>
		<edge from-layer="263" from-port="2" to-layer="274" to-port="0"/>
		<edge from-layer="264" from-port="1" to-layer="267" to-port="0"/>
		<edge from-layer="265" from-port="0" to-layer="267" to-port="1"/>
		<edge from-layer="266" from-port="0" to-layer="267" to-port="2"/>
		<edge from-layer="267" from-port="3" to-layer="268" to-port="0"/>
		<edge from-layer="268" from-port="1" to-layer="270" to-port="0"/>
		<edge from-layer="269" from-port="0" to-layer="270" to-port="1"/>
		<edge from-layer="270" from-port="2" to-layer="271" to-port="0"/>
		<edge from-layer="271" from-port="1" to-layer="273" to-port="0"/>
		<edge from-layer="272" from-port="0" to-layer="273" to-port="1"/>
		<edge from-layer="273" from-port="2" to-layer="274" to-port="1"/>
		<edge from-layer="274" from-port="2" to-layer="275" to-port="0"/>
		<edge from-layer="275" from-port="1" to-layer="276" to-port="1"/>
		<edge from-layer="276" from-port="2" to-layer="280" to-port="0"/>
		<edge from-layer="276" from-port="2" to-layer="281" to-port="0"/>
		<edge from-layer="277" from-port="0" to-layer="280" to-port="1"/>
		<edge from-layer="278" from-port="0" to-layer="280" to-port="2"/>
		<edge from-layer="279" from-port="0" to-layer="280" to-port="3"/>
		<edge from-layer="280" from-port="4" to-layer="292" to-port="1"/>
		<edge from-layer="281" from-port="1" to-layer="284" to-port="0"/>
		<edge from-layer="282" from-port="1" to-layer="283" to-port="0"/>
		<edge from-layer="283" from-port="1" to-layer="284" to-port="1"/>
		<edge from-layer="284" from-port="2" to-layer="286" to-port="0"/>
		<edge from-layer="285" from-port="0" to-layer="286" to-port="1"/>
		<edge from-layer="286" from-port="2" to-layer="290" to-port="0"/>
		<edge from-layer="287" from-port="0" to-layer="290" to-port="1"/>
		<edge from-layer="288" from-port="0" to-layer="290" to-port="2"/>
		<edge from-layer="289" from-port="0" to-layer="290" to-port="3"/>
		<edge from-layer="290" from-port="4" to-layer="292" to-port="2"/>
		<edge from-layer="291" from-port="0" to-layer="292" to-port="3"/>
		<edge from-layer="292" from-port="4" to-layer="294" to-port="0"/>
		<edge from-layer="293" from-port="0" to-layer="294" to-port="1"/>
		<edge from-layer="294" from-port="2" to-layer="296" to-port="0"/>
		<edge from-layer="295" from-port="0" to-layer="296" to-port="1"/>
		<edge from-layer="296" from-port="2" to-layer="298" to-port="0"/>
		<edge from-layer="297" from-port="0" to-layer="298" to-port="1"/>
		<edge from-layer="298" from-port="2" to-layer="299" to-port="0"/>
	</edges>
	<meta_data>
		<MO_version value="2021.4.0-3839-cd81789d294-releases/2021/4"/>
		<cli_parameters>
			<caffe_parser_path value="DIR"/>
			<data_type value="FP32"/>
			<disable_nhwc_to_nchw value="False"/>
			<disable_omitting_optional value="False"/>
			<disable_resnet_optimization value="False"/>
			<disable_weights_compression value="False"/>
			<enable_concat_optimization value="False"/>
			<enable_flattening_nested_params value="False"/>
			<enable_ssd_gluoncv value="False"/>
			<extensions value="DIR"/>
			<framework value="onnx"/>
			<freeze_placeholder_with_value value="{}"/>
			<generate_deprecated_IR_V7 value="False"/>
			<input value="mels"/>
			<input_model value="DIR/wavernn_upsampler.onnx"/>
			<input_model_is_text value="False"/>
			<input_shape value="[1, 200, 80]"/>
			<k value="DIR/CustomLayersMapping.xml"/>
			<keep_shape_ops value="True"/>
			<legacy_ir_generation value="False"/>
			<legacy_mxnet_model value="False"/>
			<log_level value="ERROR"/>
			<mean_scale_values value="{}"/>
			<mean_values value="()"/>
			<model_name value="wavernn-upsampler"/>
			<output value="['upsample_mels', 'aux']"/>
			<output_dir value="DIR"/>
			<placeholder_data_types value="{}"/>
			<placeholder_shapes value="{'mels': array([  1, 200,  80])}"/>
			<progress value="False"/>
			<remove_memory value="False"/>
			<remove_output_softmax value="False"/>
			<reverse_input_channels value="False"/>
			<save_params_from_nd value="False"/>
			<scale_values value="()"/>
			<silent value="False"/>
			<static_shape value="False"/>
			<stream_output value="False"/>
			<transform value=""/>
			<unset unset_cli_parameters="batch, counts, disable_fusing, disable_gfusing, finegrain_fusing, input_checkpoint, input_meta_graph, input_proto, input_symbol, mean_file, mean_file_offsets, move_to_preprocess, nd_prefix_name, pretrained_model_name, saved_model_dir, saved_model_tags, scale, tensorboard_logdir, tensorflow_custom_layer_libraries, tensorflow_custom_operations_config_update, tensorflow_object_detection_api_pipeline_config, tensorflow_use_custom_operations_config, transformations_config"/>
		</cli_parameters>
	</meta_data>
</net>
