<?xml version="1.0" ?>
<net name="forward-tacotron-duration-prediction" version="10">
	<layers>
		<layer id="0" name="input_seq" type="Parameter" version="opset1">
			<data shape="1, 241" element_type="i32"/>
			<output>
				<port id="0" precision="I32" names="input_seq">
					<dim>1</dim>
					<dim>241</dim>
				</port>
			</output>
		</layer>
		<layer id="1" name="model.embedding.weight" type="Const" version="opset1">
			<data element_type="f32" shape="148, 256" offset="0" size="151552"/>
			<output>
				<port id="0" precision="FP32" names="model.embedding.weight">
					<dim>148</dim>
					<dim>256</dim>
				</port>
			</output>
		</layer>
		<layer id="2" name="Gather_0/axis" type="Const" version="opset1">
			<data element_type="i64" shape="" offset="151552" size="8"/>
			<output>
				<port id="0" precision="I64"/>
			</output>
		</layer>
		<layer id="3" name="Gather_0426" type="Gather" version="opset7">
			<data batch_dims="0"/>
			<input>
				<port id="0" precision="FP32">
					<dim>148</dim>
					<dim>256</dim>
				</port>
				<port id="1" precision="I32">
					<dim>1</dim>
					<dim>241</dim>
				</port>
				<port id="2" precision="I64"/>
			</input>
			<output>
				<port id="3" precision="FP32" names="259">
					<dim>1</dim>
					<dim>241</dim>
					<dim>256</dim>
				</port>
			</output>
		</layer>
		<layer id="4" name="371" type="Const" version="opset1">
			<data element_type="i64" shape="3" offset="151560" size="24"/>
			<output>
				<port id="0" precision="I64">
					<dim>3</dim>
				</port>
			</output>
		</layer>
		<layer id="5" name="Transpose_26" type="Transpose" version="opset1">
			<input>
				<port id="0" precision="FP32">
					<dim>1</dim>
					<dim>241</dim>
					<dim>256</dim>
				</port>
				<port id="1" precision="I64">
					<dim>3</dim>
				</port>
			</input>
			<output>
				<port id="2" precision="FP32" names="407">
					<dim>1</dim>
					<dim>256</dim>
					<dim>241</dim>
				</port>
			</output>
		</layer>
		<layer id="6" name="model.prenet.cbhg.conv1d_bank.0.conv.weight" type="Const" version="opset1">
			<data element_type="f32" shape="256, 256, 1" offset="151584" size="262144"/>
			<output>
				<port id="0" precision="FP32" names="model.prenet.cbhg.conv1d_bank.0.conv.weight">
					<dim>256</dim>
					<dim>256</dim>
					<dim>1</dim>
				</port>
			</output>
		</layer>
		<layer id="7" name="Conv_30" type="Convolution" version="opset1">
			<data strides="1" dilations="1" pads_begin="0" pads_end="0" auto_pad="explicit"/>
			<input>
				<port id="0" precision="FP32">
					<dim>1</dim>
					<dim>256</dim>
					<dim>241</dim>
				</port>
				<port id="1" precision="FP32">
					<dim>256</dim>
					<dim>256</dim>
					<dim>1</dim>
				</port>
			</input>
			<output>
				<port id="2" precision="FP32" names="411">
					<dim>1</dim>
					<dim>256</dim>
					<dim>241</dim>
				</port>
			</output>
		</layer>
		<layer id="8" name="Relu_31" type="ReLU" version="opset1">
			<input>
				<port id="0" precision="FP32">
					<dim>1</dim>
					<dim>256</dim>
					<dim>241</dim>
				</port>
			</input>
			<output>
				<port id="1" precision="FP32" names="412">
					<dim>1</dim>
					<dim>256</dim>
					<dim>241</dim>
				</port>
			</output>
		</layer>
		<layer id="9" name="data_mul_89868990" type="Const" version="opset1">
			<data element_type="f32" shape="1, 256, 1" offset="413728" size="1024"/>
			<output>
				<port id="0" precision="FP32">
					<dim>1</dim>
					<dim>256</dim>
					<dim>1</dim>
				</port>
			</output>
		</layer>
		<layer id="10" name="BatchNormalization_32/mean/Fused_Mul_" type="Multiply" version="opset1">
			<data auto_broadcast="numpy"/>
			<input>
				<port id="0" precision="FP32">
					<dim>1</dim>
					<dim>256</dim>
					<dim>241</dim>
				</port>
				<port id="1" precision="FP32">
					<dim>1</dim>
					<dim>256</dim>
					<dim>1</dim>
				</port>
			</input>
			<output>
				<port id="2" precision="FP32">
					<dim>1</dim>
					<dim>256</dim>
					<dim>241</dim>
				</port>
			</output>
		</layer>
		<layer id="11" name="data_add_89878992" type="Const" version="opset1">
			<data element_type="f32" shape="1, 256, 1" offset="414752" size="1024"/>
			<output>
				<port id="0" precision="FP32">
					<dim>1</dim>
					<dim>256</dim>
					<dim>1</dim>
				</port>
			</output>
		</layer>
		<layer id="12" name="BatchNormalization_32/variance/Fused_Add_" type="Add" version="opset1">
			<data auto_broadcast="numpy"/>
			<input>
				<port id="0" precision="FP32">
					<dim>1</dim>
					<dim>256</dim>
					<dim>241</dim>
				</port>
				<port id="1" precision="FP32">
					<dim>1</dim>
					<dim>256</dim>
					<dim>1</dim>
				</port>
			</input>
			<output>
				<port id="2" precision="FP32" names="413">
					<dim>1</dim>
					<dim>256</dim>
					<dim>241</dim>
				</port>
			</output>
		</layer>
		<layer id="13" name="Slice_35/Concat455421776" type="Const" version="opset1">
			<data element_type="i64" shape="3" offset="415776" size="24"/>
			<output>
				<port id="0" precision="I64">
					<dim>3</dim>
				</port>
			</output>
		</layer>
		<layer id="14" name="Slice_35/Const4548454921899" type="Const" version="opset1">
			<data element_type="i64" shape="1" offset="151552" size="8"/>
			<output>
				<port id="0" precision="I64">
					<dim>1</dim>
				</port>
			</output>
		</layer>
		<layer id="15" name="Slice_35/Const4550455121602" type="Const" version="opset1">
			<data element_type="i64" shape="1" offset="151552" size="8"/>
			<output>
				<port id="0" precision="I64">
					<dim>1</dim>
				</port>
			</output>
		</layer>
		<layer id="16" name="Shape_27" type="ShapeOf" version="opset3">
			<data output_type="i64"/>
			<input>
				<port id="0" precision="FP32">
					<dim>1</dim>
					<dim>256</dim>
					<dim>241</dim>
				</port>
			</input>
			<output>
				<port id="1" precision="I64" names="408">
					<dim>3</dim>
				</port>
			</output>
		</layer>
		<layer id="17" name="Constant_28" type="Const" version="opset1">
			<data element_type="i32" shape="" offset="415800" size="4"/>
			<output>
				<port id="0" precision="I32" names="409"/>
			</output>
		</layer>
		<layer id="18" name="Gather_29/axis" type="Const" version="opset1">
			<data element_type="i64" shape="" offset="151552" size="8"/>
			<output>
				<port id="0" precision="I64"/>
			</output>
		</layer>
		<layer id="19" name="Gather_29432" type="Gather" version="opset7">
			<data batch_dims="0"/>
			<input>
				<port id="0" precision="I64">
					<dim>3</dim>
				</port>
				<port id="1" precision="I32"/>
				<port id="2" precision="I64"/>
			</input>
			<output>
				<port id="3" precision="I64" names="410"/>
			</output>
		</layer>
		<layer id="20" name="Unsqueeze_33/Dims" type="Const" version="opset1">
			<data element_type="i64" shape="1" offset="151552" size="8"/>
			<output>
				<port id="0" precision="I64">
					<dim>1</dim>
				</port>
			</output>
		</layer>
		<layer id="21" name="Unsqueeze_33/Unsqueeze" type="Unsqueeze" version="opset1">
			<input>
				<port id="0" precision="I64"/>
				<port id="1" precision="I64">
					<dim>1</dim>
				</port>
			</input>
			<output>
				<port id="2" precision="I64" names="417">
					<dim>1</dim>
				</port>
			</output>
		</layer>
		<layer id="22" name="Slice_35/Clamp4533" type="Clamp" version="opset1">
			<data min="-2147483648" max="2147483647"/>
			<input>
				<port id="0" precision="I64">
					<dim>1</dim>
				</port>
			</input>
			<output>
				<port id="1" precision="I64">
					<dim>1</dim>
				</port>
			</output>
		</layer>
		<layer id="23" name="Slice_35/Gather4541_input_port_1/value454321515" type="Const" version="opset1">
			<data element_type="i32" shape="1" offset="415804" size="4"/>
			<output>
				<port id="0" precision="I32">
					<dim>1</dim>
				</port>
			</output>
		</layer>
		<layer id="24" name="Slice_35/Gather4541_input_port_2/value454521737" type="Const" version="opset1">
			<data element_type="i64" shape="" offset="151552" size="8"/>
			<output>
				<port id="0" precision="I64"/>
			</output>
		</layer>
		<layer id="25" name="Slice_35/Gather4541" type="Gather" version="opset7">
			<data batch_dims="0"/>
			<input>
				<port id="0" precision="I64">
					<dim>1</dim>
				</port>
				<port id="1" precision="I32">
					<dim>1</dim>
				</port>
				<port id="2" precision="I64"/>
			</input>
			<output>
				<port id="3" precision="I64">
					<dim>1</dim>
				</port>
			</output>
		</layer>
		<layer id="26" name="Slice_35/End" type="Concat" version="opset1">
			<data axis="0"/>
			<input>
				<port id="0" precision="I64">
					<dim>1</dim>
				</port>
				<port id="1" precision="I64">
					<dim>1</dim>
				</port>
				<port id="2" precision="I64">
					<dim>1</dim>
				</port>
			</input>
			<output>
				<port id="3" precision="I64">
					<dim>3</dim>
				</port>
			</output>
		</layer>
		<layer id="27" name="Slice_35/Strides455621494" type="Const" version="opset1">
			<data element_type="i64" shape="3" offset="415808" size="24"/>
			<output>
				<port id="0" precision="I64">
					<dim>3</dim>
				</port>
			</output>
		</layer>
		<layer id="28" name="Slice_35" type="StridedSlice" version="opset1">
			<data begin_mask="1, 1, 0" end_mask="1, 1, 0" new_axis_mask="0, 0, 0" shrink_axis_mask="0, 0, 0" ellipsis_mask="0, 0, 0"/>
			<input>
				<port id="0" precision="FP32">
					<dim>1</dim>
					<dim>256</dim>
					<dim>241</dim>
				</port>
				<port id="1" precision="I64">
					<dim>3</dim>
				</port>
				<port id="2" precision="I64">
					<dim>3</dim>
				</port>
				<port id="3" precision="I64">
					<dim>3</dim>
				</port>
			</input>
			<output>
				<port id="4" precision="FP32" names="420">
					<dim>1</dim>
					<dim>256</dim>
					<dim>241</dim>
				</port>
			</output>
		</layer>
		<layer id="29" name="model.prenet.cbhg.conv1d_bank.1.conv.weight" type="Const" version="opset1">
			<data element_type="f32" shape="256, 256, 2" offset="415832" size="524288"/>
			<output>
				<port id="0" precision="FP32" names="model.prenet.cbhg.conv1d_bank.1.conv.weight">
					<dim>256</dim>
					<dim>256</dim>
					<dim>2</dim>
				</port>
			</output>
		</layer>
		<layer id="30" name="Conv_36" type="Convolution" version="opset1">
			<data strides="1" dilations="1" pads_begin="1" pads_end="1" auto_pad="explicit"/>
			<input>
				<port id="0" precision="FP32">
					<dim>1</dim>
					<dim>256</dim>
					<dim>241</dim>
				</port>
				<port id="1" precision="FP32">
					<dim>256</dim>
					<dim>256</dim>
					<dim>2</dim>
				</port>
			</input>
			<output>
				<port id="2" precision="FP32" names="421">
					<dim>1</dim>
					<dim>256</dim>
					<dim>242</dim>
				</port>
			</output>
		</layer>
		<layer id="31" name="Relu_37" type="ReLU" version="opset1">
			<input>
				<port id="0" precision="FP32">
					<dim>1</dim>
					<dim>256</dim>
					<dim>242</dim>
				</port>
			</input>
			<output>
				<port id="1" precision="FP32" names="422">
					<dim>1</dim>
					<dim>256</dim>
					<dim>242</dim>
				</port>
			</output>
		</layer>
		<layer id="32" name="data_mul_89788982" type="Const" version="opset1">
			<data element_type="f32" shape="1, 256, 1" offset="940120" size="1024"/>
			<output>
				<port id="0" precision="FP32">
					<dim>1</dim>
					<dim>256</dim>
					<dim>1</dim>
				</port>
			</output>
		</layer>
		<layer id="33" name="BatchNormalization_38/mean/Fused_Mul_" type="Multiply" version="opset1">
			<data auto_broadcast="numpy"/>
			<input>
				<port id="0" precision="FP32">
					<dim>1</dim>
					<dim>256</dim>
					<dim>242</dim>
				</port>
				<port id="1" precision="FP32">
					<dim>1</dim>
					<dim>256</dim>
					<dim>1</dim>
				</port>
			</input>
			<output>
				<port id="2" precision="FP32">
					<dim>1</dim>
					<dim>256</dim>
					<dim>242</dim>
				</port>
			</output>
		</layer>
		<layer id="34" name="data_add_89798984" type="Const" version="opset1">
			<data element_type="f32" shape="1, 256, 1" offset="941144" size="1024"/>
			<output>
				<port id="0" precision="FP32">
					<dim>1</dim>
					<dim>256</dim>
					<dim>1</dim>
				</port>
			</output>
		</layer>
		<layer id="35" name="BatchNormalization_38/variance/Fused_Add_" type="Add" version="opset1">
			<data auto_broadcast="numpy"/>
			<input>
				<port id="0" precision="FP32">
					<dim>1</dim>
					<dim>256</dim>
					<dim>242</dim>
				</port>
				<port id="1" precision="FP32">
					<dim>1</dim>
					<dim>256</dim>
					<dim>1</dim>
				</port>
			</input>
			<output>
				<port id="2" precision="FP32" names="423">
					<dim>1</dim>
					<dim>256</dim>
					<dim>242</dim>
				</port>
			</output>
		</layer>
		<layer id="36" name="Slice_41/Concat459821782" type="Const" version="opset1">
			<data element_type="i64" shape="3" offset="415776" size="24"/>
			<output>
				<port id="0" precision="I64">
					<dim>3</dim>
				</port>
			</output>
		</layer>
		<layer id="37" name="Slice_41/Const4592459321605" type="Const" version="opset1">
			<data element_type="i64" shape="1" offset="151552" size="8"/>
			<output>
				<port id="0" precision="I64">
					<dim>1</dim>
				</port>
			</output>
		</layer>
		<layer id="38" name="Slice_41/Const4594459521665" type="Const" version="opset1">
			<data element_type="i64" shape="1" offset="151552" size="8"/>
			<output>
				<port id="0" precision="I64">
					<dim>1</dim>
				</port>
			</output>
		</layer>
		<layer id="39" name="Unsqueeze_39/Dims" type="Const" version="opset1">
			<data element_type="i64" shape="1" offset="151552" size="8"/>
			<output>
				<port id="0" precision="I64">
					<dim>1</dim>
				</port>
			</output>
		</layer>
		<layer id="40" name="Unsqueeze_39/Unsqueeze" type="Unsqueeze" version="opset1">
			<input>
				<port id="0" precision="I64"/>
				<port id="1" precision="I64">
					<dim>1</dim>
				</port>
			</input>
			<output>
				<port id="2" precision="I64" names="427">
					<dim>1</dim>
				</port>
			</output>
		</layer>
		<layer id="41" name="Slice_41/Clamp4577" type="Clamp" version="opset1">
			<data min="-2147483648" max="2147483647"/>
			<input>
				<port id="0" precision="I64">
					<dim>1</dim>
				</port>
			</input>
			<output>
				<port id="1" precision="I64">
					<dim>1</dim>
				</port>
			</output>
		</layer>
		<layer id="42" name="Slice_41/Gather4585_input_port_1/value458721212" type="Const" version="opset1">
			<data element_type="i32" shape="1" offset="415804" size="4"/>
			<output>
				<port id="0" precision="I32">
					<dim>1</dim>
				</port>
			</output>
		</layer>
		<layer id="43" name="Slice_41/Gather4585_input_port_2/value458921374" type="Const" version="opset1">
			<data element_type="i64" shape="" offset="151552" size="8"/>
			<output>
				<port id="0" precision="I64"/>
			</output>
		</layer>
		<layer id="44" name="Slice_41/Gather4585" type="Gather" version="opset7">
			<data batch_dims="0"/>
			<input>
				<port id="0" precision="I64">
					<dim>1</dim>
				</port>
				<port id="1" precision="I32">
					<dim>1</dim>
				</port>
				<port id="2" precision="I64"/>
			</input>
			<output>
				<port id="3" precision="I64">
					<dim>1</dim>
				</port>
			</output>
		</layer>
		<layer id="45" name="Slice_41/End" type="Concat" version="opset1">
			<data axis="0"/>
			<input>
				<port id="0" precision="I64">
					<dim>1</dim>
				</port>
				<port id="1" precision="I64">
					<dim>1</dim>
				</port>
				<port id="2" precision="I64">
					<dim>1</dim>
				</port>
			</input>
			<output>
				<port id="3" precision="I64">
					<dim>3</dim>
				</port>
			</output>
		</layer>
		<layer id="46" name="Slice_41/Strides460021509" type="Const" version="opset1">
			<data element_type="i64" shape="3" offset="415808" size="24"/>
			<output>
				<port id="0" precision="I64">
					<dim>3</dim>
				</port>
			</output>
		</layer>
		<layer id="47" name="Slice_41" type="StridedSlice" version="opset1">
			<data begin_mask="1, 1, 0" end_mask="1, 1, 0" new_axis_mask="0, 0, 0" shrink_axis_mask="0, 0, 0" ellipsis_mask="0, 0, 0"/>
			<input>
				<port id="0" precision="FP32">
					<dim>1</dim>
					<dim>256</dim>
					<dim>242</dim>
				</port>
				<port id="1" precision="I64">
					<dim>3</dim>
				</port>
				<port id="2" precision="I64">
					<dim>3</dim>
				</port>
				<port id="3" precision="I64">
					<dim>3</dim>
				</port>
			</input>
			<output>
				<port id="4" precision="FP32" names="430">
					<dim>1</dim>
					<dim>256</dim>
					<dim>241</dim>
				</port>
			</output>
		</layer>
		<layer id="48" name="model.prenet.cbhg.conv1d_bank.2.conv.weight" type="Const" version="opset1">
			<data element_type="f32" shape="256, 256, 3" offset="942168" size="786432"/>
			<output>
				<port id="0" precision="FP32" names="model.prenet.cbhg.conv1d_bank.2.conv.weight">
					<dim>256</dim>
					<dim>256</dim>
					<dim>3</dim>
				</port>
			</output>
		</layer>
		<layer id="49" name="Conv_42" type="Convolution" version="opset1">
			<data strides="1" dilations="1" pads_begin="1" pads_end="1" auto_pad="explicit"/>
			<input>
				<port id="0" precision="FP32">
					<dim>1</dim>
					<dim>256</dim>
					<dim>241</dim>
				</port>
				<port id="1" precision="FP32">
					<dim>256</dim>
					<dim>256</dim>
					<dim>3</dim>
				</port>
			</input>
			<output>
				<port id="2" precision="FP32" names="431">
					<dim>1</dim>
					<dim>256</dim>
					<dim>241</dim>
				</port>
			</output>
		</layer>
		<layer id="50" name="Relu_43" type="ReLU" version="opset1">
			<input>
				<port id="0" precision="FP32">
					<dim>1</dim>
					<dim>256</dim>
					<dim>241</dim>
				</port>
			</input>
			<output>
				<port id="1" precision="FP32" names="432">
					<dim>1</dim>
					<dim>256</dim>
					<dim>241</dim>
				</port>
			</output>
		</layer>
		<layer id="51" name="data_mul_89708974" type="Const" version="opset1">
			<data element_type="f32" shape="1, 256, 1" offset="1728600" size="1024"/>
			<output>
				<port id="0" precision="FP32">
					<dim>1</dim>
					<dim>256</dim>
					<dim>1</dim>
				</port>
			</output>
		</layer>
		<layer id="52" name="BatchNormalization_44/mean/Fused_Mul_" type="Multiply" version="opset1">
			<data auto_broadcast="numpy"/>
			<input>
				<port id="0" precision="FP32">
					<dim>1</dim>
					<dim>256</dim>
					<dim>241</dim>
				</port>
				<port id="1" precision="FP32">
					<dim>1</dim>
					<dim>256</dim>
					<dim>1</dim>
				</port>
			</input>
			<output>
				<port id="2" precision="FP32">
					<dim>1</dim>
					<dim>256</dim>
					<dim>241</dim>
				</port>
			</output>
		</layer>
		<layer id="53" name="data_add_89718976" type="Const" version="opset1">
			<data element_type="f32" shape="1, 256, 1" offset="1729624" size="1024"/>
			<output>
				<port id="0" precision="FP32">
					<dim>1</dim>
					<dim>256</dim>
					<dim>1</dim>
				</port>
			</output>
		</layer>
		<layer id="54" name="BatchNormalization_44/variance/Fused_Add_" type="Add" version="opset1">
			<data auto_broadcast="numpy"/>
			<input>
				<port id="0" precision="FP32">
					<dim>1</dim>
					<dim>256</dim>
					<dim>241</dim>
				</port>
				<port id="1" precision="FP32">
					<dim>1</dim>
					<dim>256</dim>
					<dim>1</dim>
				</port>
			</input>
			<output>
				<port id="2" precision="FP32" names="433">
					<dim>1</dim>
					<dim>256</dim>
					<dim>241</dim>
				</port>
			</output>
		</layer>
		<layer id="55" name="Slice_47/Concat464221371" type="Const" version="opset1">
			<data element_type="i64" shape="3" offset="415776" size="24"/>
			<output>
				<port id="0" precision="I64">
					<dim>3</dim>
				</port>
			</output>
		</layer>
		<layer id="56" name="Slice_47/Const4636463721635" type="Const" version="opset1">
			<data element_type="i64" shape="1" offset="151552" size="8"/>
			<output>
				<port id="0" precision="I64">
					<dim>1</dim>
				</port>
			</output>
		</layer>
		<layer id="57" name="Slice_47/Const4638463921329" type="Const" version="opset1">
			<data element_type="i64" shape="1" offset="151552" size="8"/>
			<output>
				<port id="0" precision="I64">
					<dim>1</dim>
				</port>
			</output>
		</layer>
		<layer id="58" name="Unsqueeze_45/Dims" type="Const" version="opset1">
			<data element_type="i64" shape="1" offset="151552" size="8"/>
			<output>
				<port id="0" precision="I64">
					<dim>1</dim>
				</port>
			</output>
		</layer>
		<layer id="59" name="Unsqueeze_45/Unsqueeze" type="Unsqueeze" version="opset1">
			<input>
				<port id="0" precision="I64"/>
				<port id="1" precision="I64">
					<dim>1</dim>
				</port>
			</input>
			<output>
				<port id="2" precision="I64" names="437">
					<dim>1</dim>
				</port>
			</output>
		</layer>
		<layer id="60" name="Slice_47/Clamp4621" type="Clamp" version="opset1">
			<data min="-2147483648" max="2147483647"/>
			<input>
				<port id="0" precision="I64">
					<dim>1</dim>
				</port>
			</input>
			<output>
				<port id="1" precision="I64">
					<dim>1</dim>
				</port>
			</output>
		</layer>
		<layer id="61" name="Slice_47/Gather4629_input_port_1/value463121557" type="Const" version="opset1">
			<data element_type="i32" shape="1" offset="415804" size="4"/>
			<output>
				<port id="0" precision="I32">
					<dim>1</dim>
				</port>
			</output>
		</layer>
		<layer id="62" name="Slice_47/Gather4629_input_port_2/value463321338" type="Const" version="opset1">
			<data element_type="i64" shape="" offset="151552" size="8"/>
			<output>
				<port id="0" precision="I64"/>
			</output>
		</layer>
		<layer id="63" name="Slice_47/Gather4629" type="Gather" version="opset7">
			<data batch_dims="0"/>
			<input>
				<port id="0" precision="I64">
					<dim>1</dim>
				</port>
				<port id="1" precision="I32">
					<dim>1</dim>
				</port>
				<port id="2" precision="I64"/>
			</input>
			<output>
				<port id="3" precision="I64">
					<dim>1</dim>
				</port>
			</output>
		</layer>
		<layer id="64" name="Slice_47/End" type="Concat" version="opset1">
			<data axis="0"/>
			<input>
				<port id="0" precision="I64">
					<dim>1</dim>
				</port>
				<port id="1" precision="I64">
					<dim>1</dim>
				</port>
				<port id="2" precision="I64">
					<dim>1</dim>
				</port>
			</input>
			<output>
				<port id="3" precision="I64">
					<dim>3</dim>
				</port>
			</output>
		</layer>
		<layer id="65" name="Slice_47/Strides464421530" type="Const" version="opset1">
			<data element_type="i64" shape="3" offset="415808" size="24"/>
			<output>
				<port id="0" precision="I64">
					<dim>3</dim>
				</port>
			</output>
		</layer>
		<layer id="66" name="Slice_47" type="StridedSlice" version="opset1">
			<data begin_mask="1, 1, 0" end_mask="1, 1, 0" new_axis_mask="0, 0, 0" shrink_axis_mask="0, 0, 0" ellipsis_mask="0, 0, 0"/>
			<input>
				<port id="0" precision="FP32">
					<dim>1</dim>
					<dim>256</dim>
					<dim>241</dim>
				</port>
				<port id="1" precision="I64">
					<dim>3</dim>
				</port>
				<port id="2" precision="I64">
					<dim>3</dim>
				</port>
				<port id="3" precision="I64">
					<dim>3</dim>
				</port>
			</input>
			<output>
				<port id="4" precision="FP32" names="440">
					<dim>1</dim>
					<dim>256</dim>
					<dim>241</dim>
				</port>
			</output>
		</layer>
		<layer id="67" name="model.prenet.cbhg.conv1d_bank.3.conv.weight" type="Const" version="opset1">
			<data element_type="f32" shape="256, 256, 4" offset="1730648" size="1048576"/>
			<output>
				<port id="0" precision="FP32" names="model.prenet.cbhg.conv1d_bank.3.conv.weight">
					<dim>256</dim>
					<dim>256</dim>
					<dim>4</dim>
				</port>
			</output>
		</layer>
		<layer id="68" name="Conv_48" type="Convolution" version="opset1">
			<data strides="1" dilations="1" pads_begin="2" pads_end="2" auto_pad="explicit"/>
			<input>
				<port id="0" precision="FP32">
					<dim>1</dim>
					<dim>256</dim>
					<dim>241</dim>
				</port>
				<port id="1" precision="FP32">
					<dim>256</dim>
					<dim>256</dim>
					<dim>4</dim>
				</port>
			</input>
			<output>
				<port id="2" precision="FP32" names="441">
					<dim>1</dim>
					<dim>256</dim>
					<dim>242</dim>
				</port>
			</output>
		</layer>
		<layer id="69" name="Relu_49" type="ReLU" version="opset1">
			<input>
				<port id="0" precision="FP32">
					<dim>1</dim>
					<dim>256</dim>
					<dim>242</dim>
				</port>
			</input>
			<output>
				<port id="1" precision="FP32" names="442">
					<dim>1</dim>
					<dim>256</dim>
					<dim>242</dim>
				</port>
			</output>
		</layer>
		<layer id="70" name="data_mul_89628966" type="Const" version="opset1">
			<data element_type="f32" shape="1, 256, 1" offset="2779224" size="1024"/>
			<output>
				<port id="0" precision="FP32">
					<dim>1</dim>
					<dim>256</dim>
					<dim>1</dim>
				</port>
			</output>
		</layer>
		<layer id="71" name="BatchNormalization_50/mean/Fused_Mul_" type="Multiply" version="opset1">
			<data auto_broadcast="numpy"/>
			<input>
				<port id="0" precision="FP32">
					<dim>1</dim>
					<dim>256</dim>
					<dim>242</dim>
				</port>
				<port id="1" precision="FP32">
					<dim>1</dim>
					<dim>256</dim>
					<dim>1</dim>
				</port>
			</input>
			<output>
				<port id="2" precision="FP32">
					<dim>1</dim>
					<dim>256</dim>
					<dim>242</dim>
				</port>
			</output>
		</layer>
		<layer id="72" name="data_add_89638968" type="Const" version="opset1">
			<data element_type="f32" shape="1, 256, 1" offset="2780248" size="1024"/>
			<output>
				<port id="0" precision="FP32">
					<dim>1</dim>
					<dim>256</dim>
					<dim>1</dim>
				</port>
			</output>
		</layer>
		<layer id="73" name="BatchNormalization_50/variance/Fused_Add_" type="Add" version="opset1">
			<data auto_broadcast="numpy"/>
			<input>
				<port id="0" precision="FP32">
					<dim>1</dim>
					<dim>256</dim>
					<dim>242</dim>
				</port>
				<port id="1" precision="FP32">
					<dim>1</dim>
					<dim>256</dim>
					<dim>1</dim>
				</port>
			</input>
			<output>
				<port id="2" precision="FP32" names="443">
					<dim>1</dim>
					<dim>256</dim>
					<dim>242</dim>
				</port>
			</output>
		</layer>
		<layer id="74" name="Slice_53/Concat468621638" type="Const" version="opset1">
			<data element_type="i64" shape="3" offset="415776" size="24"/>
			<output>
				<port id="0" precision="I64">
					<dim>3</dim>
				</port>
			</output>
		</layer>
		<layer id="75" name="Slice_53/Const4680468121842" type="Const" version="opset1">
			<data element_type="i64" shape="1" offset="151552" size="8"/>
			<output>
				<port id="0" precision="I64">
					<dim>1</dim>
				</port>
			</output>
		</layer>
		<layer id="76" name="Slice_53/Const4682468321488" type="Const" version="opset1">
			<data element_type="i64" shape="1" offset="151552" size="8"/>
			<output>
				<port id="0" precision="I64">
					<dim>1</dim>
				</port>
			</output>
		</layer>
		<layer id="77" name="Unsqueeze_51/Dims" type="Const" version="opset1">
			<data element_type="i64" shape="1" offset="151552" size="8"/>
			<output>
				<port id="0" precision="I64">
					<dim>1</dim>
				</port>
			</output>
		</layer>
		<layer id="78" name="Unsqueeze_51/Unsqueeze" type="Unsqueeze" version="opset1">
			<input>
				<port id="0" precision="I64"/>
				<port id="1" precision="I64">
					<dim>1</dim>
				</port>
			</input>
			<output>
				<port id="2" precision="I64" names="447">
					<dim>1</dim>
				</port>
			</output>
		</layer>
		<layer id="79" name="Slice_53/Clamp4665" type="Clamp" version="opset1">
			<data min="-2147483648" max="2147483647"/>
			<input>
				<port id="0" precision="I64">
					<dim>1</dim>
				</port>
			</input>
			<output>
				<port id="1" precision="I64">
					<dim>1</dim>
				</port>
			</output>
		</layer>
		<layer id="80" name="Slice_53/Gather4673_input_port_1/value467521299" type="Const" version="opset1">
			<data element_type="i32" shape="1" offset="415804" size="4"/>
			<output>
				<port id="0" precision="I32">
					<dim>1</dim>
				</port>
			</output>
		</layer>
		<layer id="81" name="Slice_53/Gather4673_input_port_2/value467721431" type="Const" version="opset1">
			<data element_type="i64" shape="" offset="151552" size="8"/>
			<output>
				<port id="0" precision="I64"/>
			</output>
		</layer>
		<layer id="82" name="Slice_53/Gather4673" type="Gather" version="opset7">
			<data batch_dims="0"/>
			<input>
				<port id="0" precision="I64">
					<dim>1</dim>
				</port>
				<port id="1" precision="I32">
					<dim>1</dim>
				</port>
				<port id="2" precision="I64"/>
			</input>
			<output>
				<port id="3" precision="I64">
					<dim>1</dim>
				</port>
			</output>
		</layer>
		<layer id="83" name="Slice_53/End" type="Concat" version="opset1">
			<data axis="0"/>
			<input>
				<port id="0" precision="I64">
					<dim>1</dim>
				</port>
				<port id="1" precision="I64">
					<dim>1</dim>
				</port>
				<port id="2" precision="I64">
					<dim>1</dim>
				</port>
			</input>
			<output>
				<port id="3" precision="I64">
					<dim>3</dim>
				</port>
			</output>
		</layer>
		<layer id="84" name="Slice_53/Strides468821392" type="Const" version="opset1">
			<data element_type="i64" shape="3" offset="415808" size="24"/>
			<output>
				<port id="0" precision="I64">
					<dim>3</dim>
				</port>
			</output>
		</layer>
		<layer id="85" name="Slice_53" type="StridedSlice" version="opset1">
			<data begin_mask="1, 1, 0" end_mask="1, 1, 0" new_axis_mask="0, 0, 0" shrink_axis_mask="0, 0, 0" ellipsis_mask="0, 0, 0"/>
			<input>
				<port id="0" precision="FP32">
					<dim>1</dim>
					<dim>256</dim>
					<dim>242</dim>
				</port>
				<port id="1" precision="I64">
					<dim>3</dim>
				</port>
				<port id="2" precision="I64">
					<dim>3</dim>
				</port>
				<port id="3" precision="I64">
					<dim>3</dim>
				</port>
			</input>
			<output>
				<port id="4" precision="FP32" names="450">
					<dim>1</dim>
					<dim>256</dim>
					<dim>241</dim>
				</port>
			</output>
		</layer>
		<layer id="86" name="model.prenet.cbhg.conv1d_bank.4.conv.weight" type="Const" version="opset1">
			<data element_type="f32" shape="256, 256, 5" offset="2781272" size="1310720"/>
			<output>
				<port id="0" precision="FP32" names="model.prenet.cbhg.conv1d_bank.4.conv.weight">
					<dim>256</dim>
					<dim>256</dim>
					<dim>5</dim>
				</port>
			</output>
		</layer>
		<layer id="87" name="Conv_54" type="Convolution" version="opset1">
			<data strides="1" dilations="1" pads_begin="2" pads_end="2" auto_pad="explicit"/>
			<input>
				<port id="0" precision="FP32">
					<dim>1</dim>
					<dim>256</dim>
					<dim>241</dim>
				</port>
				<port id="1" precision="FP32">
					<dim>256</dim>
					<dim>256</dim>
					<dim>5</dim>
				</port>
			</input>
			<output>
				<port id="2" precision="FP32" names="451">
					<dim>1</dim>
					<dim>256</dim>
					<dim>241</dim>
				</port>
			</output>
		</layer>
		<layer id="88" name="Relu_55" type="ReLU" version="opset1">
			<input>
				<port id="0" precision="FP32">
					<dim>1</dim>
					<dim>256</dim>
					<dim>241</dim>
				</port>
			</input>
			<output>
				<port id="1" precision="FP32" names="452">
					<dim>1</dim>
					<dim>256</dim>
					<dim>241</dim>
				</port>
			</output>
		</layer>
		<layer id="89" name="data_mul_89548958" type="Const" version="opset1">
			<data element_type="f32" shape="1, 256, 1" offset="4091992" size="1024"/>
			<output>
				<port id="0" precision="FP32">
					<dim>1</dim>
					<dim>256</dim>
					<dim>1</dim>
				</port>
			</output>
		</layer>
		<layer id="90" name="BatchNormalization_56/mean/Fused_Mul_" type="Multiply" version="opset1">
			<data auto_broadcast="numpy"/>
			<input>
				<port id="0" precision="FP32">
					<dim>1</dim>
					<dim>256</dim>
					<dim>241</dim>
				</port>
				<port id="1" precision="FP32">
					<dim>1</dim>
					<dim>256</dim>
					<dim>1</dim>
				</port>
			</input>
			<output>
				<port id="2" precision="FP32">
					<dim>1</dim>
					<dim>256</dim>
					<dim>241</dim>
				</port>
			</output>
		</layer>
		<layer id="91" name="data_add_89558960" type="Const" version="opset1">
			<data element_type="f32" shape="1, 256, 1" offset="4093016" size="1024"/>
			<output>
				<port id="0" precision="FP32">
					<dim>1</dim>
					<dim>256</dim>
					<dim>1</dim>
				</port>
			</output>
		</layer>
		<layer id="92" name="BatchNormalization_56/variance/Fused_Add_" type="Add" version="opset1">
			<data auto_broadcast="numpy"/>
			<input>
				<port id="0" precision="FP32">
					<dim>1</dim>
					<dim>256</dim>
					<dim>241</dim>
				</port>
				<port id="1" precision="FP32">
					<dim>1</dim>
					<dim>256</dim>
					<dim>1</dim>
				</port>
			</input>
			<output>
				<port id="2" precision="FP32" names="453">
					<dim>1</dim>
					<dim>256</dim>
					<dim>241</dim>
				</port>
			</output>
		</layer>
		<layer id="93" name="Slice_59/Concat473021284" type="Const" version="opset1">
			<data element_type="i64" shape="3" offset="415776" size="24"/>
			<output>
				<port id="0" precision="I64">
					<dim>3</dim>
				</port>
			</output>
		</layer>
		<layer id="94" name="Slice_59/Const4724472521479" type="Const" version="opset1">
			<data element_type="i64" shape="1" offset="151552" size="8"/>
			<output>
				<port id="0" precision="I64">
					<dim>1</dim>
				</port>
			</output>
		</layer>
		<layer id="95" name="Slice_59/Const4726472721938" type="Const" version="opset1">
			<data element_type="i64" shape="1" offset="151552" size="8"/>
			<output>
				<port id="0" precision="I64">
					<dim>1</dim>
				</port>
			</output>
		</layer>
		<layer id="96" name="Unsqueeze_57/Dims" type="Const" version="opset1">
			<data element_type="i64" shape="1" offset="151552" size="8"/>
			<output>
				<port id="0" precision="I64">
					<dim>1</dim>
				</port>
			</output>
		</layer>
		<layer id="97" name="Unsqueeze_57/Unsqueeze" type="Unsqueeze" version="opset1">
			<input>
				<port id="0" precision="I64"/>
				<port id="1" precision="I64">
					<dim>1</dim>
				</port>
			</input>
			<output>
				<port id="2" precision="I64" names="457">
					<dim>1</dim>
				</port>
			</output>
		</layer>
		<layer id="98" name="Slice_59/Clamp4709" type="Clamp" version="opset1">
			<data min="-2147483648" max="2147483647"/>
			<input>
				<port id="0" precision="I64">
					<dim>1</dim>
				</port>
			</input>
			<output>
				<port id="1" precision="I64">
					<dim>1</dim>
				</port>
			</output>
		</layer>
		<layer id="99" name="Slice_59/Gather4717_input_port_1/value471921791" type="Const" version="opset1">
			<data element_type="i32" shape="1" offset="415804" size="4"/>
			<output>
				<port id="0" precision="I32">
					<dim>1</dim>
				</port>
			</output>
		</layer>
		<layer id="100" name="Slice_59/Gather4717_input_port_2/value472121683" type="Const" version="opset1">
			<data element_type="i64" shape="" offset="151552" size="8"/>
			<output>
				<port id="0" precision="I64"/>
			</output>
		</layer>
		<layer id="101" name="Slice_59/Gather4717" type="Gather" version="opset7">
			<data batch_dims="0"/>
			<input>
				<port id="0" precision="I64">
					<dim>1</dim>
				</port>
				<port id="1" precision="I32">
					<dim>1</dim>
				</port>
				<port id="2" precision="I64"/>
			</input>
			<output>
				<port id="3" precision="I64">
					<dim>1</dim>
				</port>
			</output>
		</layer>
		<layer id="102" name="Slice_59/End" type="Concat" version="opset1">
			<data axis="0"/>
			<input>
				<port id="0" precision="I64">
					<dim>1</dim>
				</port>
				<port id="1" precision="I64">
					<dim>1</dim>
				</port>
				<port id="2" precision="I64">
					<dim>1</dim>
				</port>
			</input>
			<output>
				<port id="3" precision="I64">
					<dim>3</dim>
				</port>
			</output>
		</layer>
		<layer id="103" name="Slice_59/Strides473221302" type="Const" version="opset1">
			<data element_type="i64" shape="3" offset="415808" size="24"/>
			<output>
				<port id="0" precision="I64">
					<dim>3</dim>
				</port>
			</output>
		</layer>
		<layer id="104" name="Slice_59" type="StridedSlice" version="opset1">
			<data begin_mask="1, 1, 0" end_mask="1, 1, 0" new_axis_mask="0, 0, 0" shrink_axis_mask="0, 0, 0" ellipsis_mask="0, 0, 0"/>
			<input>
				<port id="0" precision="FP32">
					<dim>1</dim>
					<dim>256</dim>
					<dim>241</dim>
				</port>
				<port id="1" precision="I64">
					<dim>3</dim>
				</port>
				<port id="2" precision="I64">
					<dim>3</dim>
				</port>
				<port id="3" precision="I64">
					<dim>3</dim>
				</port>
			</input>
			<output>
				<port id="4" precision="FP32" names="460">
					<dim>1</dim>
					<dim>256</dim>
					<dim>241</dim>
				</port>
			</output>
		</layer>
		<layer id="105" name="model.prenet.cbhg.conv1d_bank.5.conv.weight" type="Const" version="opset1">
			<data element_type="f32" shape="256, 256, 6" offset="4094040" size="1572864"/>
			<output>
				<port id="0" precision="FP32" names="model.prenet.cbhg.conv1d_bank.5.conv.weight">
					<dim>256</dim>
					<dim>256</dim>
					<dim>6</dim>
				</port>
			</output>
		</layer>
		<layer id="106" name="Conv_60" type="Convolution" version="opset1">
			<data strides="1" dilations="1" pads_begin="3" pads_end="3" auto_pad="explicit"/>
			<input>
				<port id="0" precision="FP32">
					<dim>1</dim>
					<dim>256</dim>
					<dim>241</dim>
				</port>
				<port id="1" precision="FP32">
					<dim>256</dim>
					<dim>256</dim>
					<dim>6</dim>
				</port>
			</input>
			<output>
				<port id="2" precision="FP32" names="461">
					<dim>1</dim>
					<dim>256</dim>
					<dim>242</dim>
				</port>
			</output>
		</layer>
		<layer id="107" name="Relu_61" type="ReLU" version="opset1">
			<input>
				<port id="0" precision="FP32">
					<dim>1</dim>
					<dim>256</dim>
					<dim>242</dim>
				</port>
			</input>
			<output>
				<port id="1" precision="FP32" names="462">
					<dim>1</dim>
					<dim>256</dim>
					<dim>242</dim>
				</port>
			</output>
		</layer>
		<layer id="108" name="data_mul_89468950" type="Const" version="opset1">
			<data element_type="f32" shape="1, 256, 1" offset="5666904" size="1024"/>
			<output>
				<port id="0" precision="FP32">
					<dim>1</dim>
					<dim>256</dim>
					<dim>1</dim>
				</port>
			</output>
		</layer>
		<layer id="109" name="BatchNormalization_62/mean/Fused_Mul_" type="Multiply" version="opset1">
			<data auto_broadcast="numpy"/>
			<input>
				<port id="0" precision="FP32">
					<dim>1</dim>
					<dim>256</dim>
					<dim>242</dim>
				</port>
				<port id="1" precision="FP32">
					<dim>1</dim>
					<dim>256</dim>
					<dim>1</dim>
				</port>
			</input>
			<output>
				<port id="2" precision="FP32">
					<dim>1</dim>
					<dim>256</dim>
					<dim>242</dim>
				</port>
			</output>
		</layer>
		<layer id="110" name="data_add_89478952" type="Const" version="opset1">
			<data element_type="f32" shape="1, 256, 1" offset="5667928" size="1024"/>
			<output>
				<port id="0" precision="FP32">
					<dim>1</dim>
					<dim>256</dim>
					<dim>1</dim>
				</port>
			</output>
		</layer>
		<layer id="111" name="BatchNormalization_62/variance/Fused_Add_" type="Add" version="opset1">
			<data auto_broadcast="numpy"/>
			<input>
				<port id="0" precision="FP32">
					<dim>1</dim>
					<dim>256</dim>
					<dim>242</dim>
				</port>
				<port id="1" precision="FP32">
					<dim>1</dim>
					<dim>256</dim>
					<dim>1</dim>
				</port>
			</input>
			<output>
				<port id="2" precision="FP32" names="463">
					<dim>1</dim>
					<dim>256</dim>
					<dim>242</dim>
				</port>
			</output>
		</layer>
		<layer id="112" name="Slice_65/Concat477421263" type="Const" version="opset1">
			<data element_type="i64" shape="3" offset="415776" size="24"/>
			<output>
				<port id="0" precision="I64">
					<dim>3</dim>
				</port>
			</output>
		</layer>
		<layer id="113" name="Slice_65/Const4768476921641" type="Const" version="opset1">
			<data element_type="i64" shape="1" offset="151552" size="8"/>
			<output>
				<port id="0" precision="I64">
					<dim>1</dim>
				</port>
			</output>
		</layer>
		<layer id="114" name="Slice_65/Const4770477121575" type="Const" version="opset1">
			<data element_type="i64" shape="1" offset="151552" size="8"/>
			<output>
				<port id="0" precision="I64">
					<dim>1</dim>
				</port>
			</output>
		</layer>
		<layer id="115" name="Unsqueeze_63/Dims" type="Const" version="opset1">
			<data element_type="i64" shape="1" offset="151552" size="8"/>
			<output>
				<port id="0" precision="I64">
					<dim>1</dim>
				</port>
			</output>
		</layer>
		<layer id="116" name="Unsqueeze_63/Unsqueeze" type="Unsqueeze" version="opset1">
			<input>
				<port id="0" precision="I64"/>
				<port id="1" precision="I64">
					<dim>1</dim>
				</port>
			</input>
			<output>
				<port id="2" precision="I64" names="467">
					<dim>1</dim>
				</port>
			</output>
		</layer>
		<layer id="117" name="Slice_65/Clamp4753" type="Clamp" version="opset1">
			<data min="-2147483648" max="2147483647"/>
			<input>
				<port id="0" precision="I64">
					<dim>1</dim>
				</port>
			</input>
			<output>
				<port id="1" precision="I64">
					<dim>1</dim>
				</port>
			</output>
		</layer>
		<layer id="118" name="Slice_65/Gather4761_input_port_1/value476321935" type="Const" version="opset1">
			<data element_type="i32" shape="1" offset="415804" size="4"/>
			<output>
				<port id="0" precision="I32">
					<dim>1</dim>
				</port>
			</output>
		</layer>
		<layer id="119" name="Slice_65/Gather4761_input_port_2/value476521506" type="Const" version="opset1">
			<data element_type="i64" shape="" offset="151552" size="8"/>
			<output>
				<port id="0" precision="I64"/>
			</output>
		</layer>
		<layer id="120" name="Slice_65/Gather4761" type="Gather" version="opset7">
			<data batch_dims="0"/>
			<input>
				<port id="0" precision="I64">
					<dim>1</dim>
				</port>
				<port id="1" precision="I32">
					<dim>1</dim>
				</port>
				<port id="2" precision="I64"/>
			</input>
			<output>
				<port id="3" precision="I64">
					<dim>1</dim>
				</port>
			</output>
		</layer>
		<layer id="121" name="Slice_65/End" type="Concat" version="opset1">
			<data axis="0"/>
			<input>
				<port id="0" precision="I64">
					<dim>1</dim>
				</port>
				<port id="1" precision="I64">
					<dim>1</dim>
				</port>
				<port id="2" precision="I64">
					<dim>1</dim>
				</port>
			</input>
			<output>
				<port id="3" precision="I64">
					<dim>3</dim>
				</port>
			</output>
		</layer>
		<layer id="122" name="Slice_65/Strides477621341" type="Const" version="opset1">
			<data element_type="i64" shape="3" offset="415808" size="24"/>
			<output>
				<port id="0" precision="I64">
					<dim>3</dim>
				</port>
			</output>
		</layer>
		<layer id="123" name="Slice_65" type="StridedSlice" version="opset1">
			<data begin_mask="1, 1, 0" end_mask="1, 1, 0" new_axis_mask="0, 0, 0" shrink_axis_mask="0, 0, 0" ellipsis_mask="0, 0, 0"/>
			<input>
				<port id="0" precision="FP32">
					<dim>1</dim>
					<dim>256</dim>
					<dim>242</dim>
				</port>
				<port id="1" precision="I64">
					<dim>3</dim>
				</port>
				<port id="2" precision="I64">
					<dim>3</dim>
				</port>
				<port id="3" precision="I64">
					<dim>3</dim>
				</port>
			</input>
			<output>
				<port id="4" precision="FP32" names="470">
					<dim>1</dim>
					<dim>256</dim>
					<dim>241</dim>
				</port>
			</output>
		</layer>
		<layer id="124" name="model.prenet.cbhg.conv1d_bank.6.conv.weight" type="Const" version="opset1">
			<data element_type="f32" shape="256, 256, 7" offset="5668952" size="1835008"/>
			<output>
				<port id="0" precision="FP32" names="model.prenet.cbhg.conv1d_bank.6.conv.weight">
					<dim>256</dim>
					<dim>256</dim>
					<dim>7</dim>
				</port>
			</output>
		</layer>
		<layer id="125" name="Conv_66" type="Convolution" version="opset1">
			<data strides="1" dilations="1" pads_begin="3" pads_end="3" auto_pad="explicit"/>
			<input>
				<port id="0" precision="FP32">
					<dim>1</dim>
					<dim>256</dim>
					<dim>241</dim>
				</port>
				<port id="1" precision="FP32">
					<dim>256</dim>
					<dim>256</dim>
					<dim>7</dim>
				</port>
			</input>
			<output>
				<port id="2" precision="FP32" names="471">
					<dim>1</dim>
					<dim>256</dim>
					<dim>241</dim>
				</port>
			</output>
		</layer>
		<layer id="126" name="Relu_67" type="ReLU" version="opset1">
			<input>
				<port id="0" precision="FP32">
					<dim>1</dim>
					<dim>256</dim>
					<dim>241</dim>
				</port>
			</input>
			<output>
				<port id="1" precision="FP32" names="472">
					<dim>1</dim>
					<dim>256</dim>
					<dim>241</dim>
				</port>
			</output>
		</layer>
		<layer id="127" name="data_mul_89388942" type="Const" version="opset1">
			<data element_type="f32" shape="1, 256, 1" offset="7503960" size="1024"/>
			<output>
				<port id="0" precision="FP32">
					<dim>1</dim>
					<dim>256</dim>
					<dim>1</dim>
				</port>
			</output>
		</layer>
		<layer id="128" name="BatchNormalization_68/mean/Fused_Mul_" type="Multiply" version="opset1">
			<data auto_broadcast="numpy"/>
			<input>
				<port id="0" precision="FP32">
					<dim>1</dim>
					<dim>256</dim>
					<dim>241</dim>
				</port>
				<port id="1" precision="FP32">
					<dim>1</dim>
					<dim>256</dim>
					<dim>1</dim>
				</port>
			</input>
			<output>
				<port id="2" precision="FP32">
					<dim>1</dim>
					<dim>256</dim>
					<dim>241</dim>
				</port>
			</output>
		</layer>
		<layer id="129" name="data_add_89398944" type="Const" version="opset1">
			<data element_type="f32" shape="1, 256, 1" offset="7504984" size="1024"/>
			<output>
				<port id="0" precision="FP32">
					<dim>1</dim>
					<dim>256</dim>
					<dim>1</dim>
				</port>
			</output>
		</layer>
		<layer id="130" name="BatchNormalization_68/variance/Fused_Add_" type="Add" version="opset1">
			<data auto_broadcast="numpy"/>
			<input>
				<port id="0" precision="FP32">
					<dim>1</dim>
					<dim>256</dim>
					<dim>241</dim>
				</port>
				<port id="1" precision="FP32">
					<dim>1</dim>
					<dim>256</dim>
					<dim>1</dim>
				</port>
			</input>
			<output>
				<port id="2" precision="FP32" names="473">
					<dim>1</dim>
					<dim>256</dim>
					<dim>241</dim>
				</port>
			</output>
		</layer>
		<layer id="131" name="Slice_71/Concat481821569" type="Const" version="opset1">
			<data element_type="i64" shape="3" offset="415776" size="24"/>
			<output>
				<port id="0" precision="I64">
					<dim>3</dim>
				</port>
			</output>
		</layer>
		<layer id="132" name="Slice_71/Const4812481321818" type="Const" version="opset1">
			<data element_type="i64" shape="1" offset="151552" size="8"/>
			<output>
				<port id="0" precision="I64">
					<dim>1</dim>
				</port>
			</output>
		</layer>
		<layer id="133" name="Slice_71/Const4814481521347" type="Const" version="opset1">
			<data element_type="i64" shape="1" offset="151552" size="8"/>
			<output>
				<port id="0" precision="I64">
					<dim>1</dim>
				</port>
			</output>
		</layer>
		<layer id="134" name="Unsqueeze_69/Dims" type="Const" version="opset1">
			<data element_type="i64" shape="1" offset="151552" size="8"/>
			<output>
				<port id="0" precision="I64">
					<dim>1</dim>
				</port>
			</output>
		</layer>
		<layer id="135" name="Unsqueeze_69/Unsqueeze" type="Unsqueeze" version="opset1">
			<input>
				<port id="0" precision="I64"/>
				<port id="1" precision="I64">
					<dim>1</dim>
				</port>
			</input>
			<output>
				<port id="2" precision="I64" names="477">
					<dim>1</dim>
				</port>
			</output>
		</layer>
		<layer id="136" name="Slice_71/Clamp4797" type="Clamp" version="opset1">
			<data min="-2147483648" max="2147483647"/>
			<input>
				<port id="0" precision="I64">
					<dim>1</dim>
				</port>
			</input>
			<output>
				<port id="1" precision="I64">
					<dim>1</dim>
				</port>
			</output>
		</layer>
		<layer id="137" name="Slice_71/Gather4805_input_port_1/value480721311" type="Const" version="opset1">
			<data element_type="i32" shape="1" offset="415804" size="4"/>
			<output>
				<port id="0" precision="I32">
					<dim>1</dim>
				</port>
			</output>
		</layer>
		<layer id="138" name="Slice_71/Gather4805_input_port_2/value480921740" type="Const" version="opset1">
			<data element_type="i64" shape="" offset="151552" size="8"/>
			<output>
				<port id="0" precision="I64"/>
			</output>
		</layer>
		<layer id="139" name="Slice_71/Gather4805" type="Gather" version="opset7">
			<data batch_dims="0"/>
			<input>
				<port id="0" precision="I64">
					<dim>1</dim>
				</port>
				<port id="1" precision="I32">
					<dim>1</dim>
				</port>
				<port id="2" precision="I64"/>
			</input>
			<output>
				<port id="3" precision="I64">
					<dim>1</dim>
				</port>
			</output>
		</layer>
		<layer id="140" name="Slice_71/End" type="Concat" version="opset1">
			<data axis="0"/>
			<input>
				<port id="0" precision="I64">
					<dim>1</dim>
				</port>
				<port id="1" precision="I64">
					<dim>1</dim>
				</port>
				<port id="2" precision="I64">
					<dim>1</dim>
				</port>
			</input>
			<output>
				<port id="3" precision="I64">
					<dim>3</dim>
				</port>
			</output>
		</layer>
		<layer id="141" name="Slice_71/Strides482021911" type="Const" version="opset1">
			<data element_type="i64" shape="3" offset="415808" size="24"/>
			<output>
				<port id="0" precision="I64">
					<dim>3</dim>
				</port>
			</output>
		</layer>
		<layer id="142" name="Slice_71" type="StridedSlice" version="opset1">
			<data begin_mask="1, 1, 0" end_mask="1, 1, 0" new_axis_mask="0, 0, 0" shrink_axis_mask="0, 0, 0" ellipsis_mask="0, 0, 0"/>
			<input>
				<port id="0" precision="FP32">
					<dim>1</dim>
					<dim>256</dim>
					<dim>241</dim>
				</port>
				<port id="1" precision="I64">
					<dim>3</dim>
				</port>
				<port id="2" precision="I64">
					<dim>3</dim>
				</port>
				<port id="3" precision="I64">
					<dim>3</dim>
				</port>
			</input>
			<output>
				<port id="4" precision="FP32" names="480">
					<dim>1</dim>
					<dim>256</dim>
					<dim>241</dim>
				</port>
			</output>
		</layer>
		<layer id="143" name="model.prenet.cbhg.conv1d_bank.7.conv.weight" type="Const" version="opset1">
			<data element_type="f32" shape="256, 256, 8" offset="7506008" size="2097152"/>
			<output>
				<port id="0" precision="FP32" names="model.prenet.cbhg.conv1d_bank.7.conv.weight">
					<dim>256</dim>
					<dim>256</dim>
					<dim>8</dim>
				</port>
			</output>
		</layer>
		<layer id="144" name="Conv_72" type="Convolution" version="opset1">
			<data strides="1" dilations="1" pads_begin="4" pads_end="4" auto_pad="explicit"/>
			<input>
				<port id="0" precision="FP32">
					<dim>1</dim>
					<dim>256</dim>
					<dim>241</dim>
				</port>
				<port id="1" precision="FP32">
					<dim>256</dim>
					<dim>256</dim>
					<dim>8</dim>
				</port>
			</input>
			<output>
				<port id="2" precision="FP32" names="481">
					<dim>1</dim>
					<dim>256</dim>
					<dim>242</dim>
				</port>
			</output>
		</layer>
		<layer id="145" name="Relu_73" type="ReLU" version="opset1">
			<input>
				<port id="0" precision="FP32">
					<dim>1</dim>
					<dim>256</dim>
					<dim>242</dim>
				</port>
			</input>
			<output>
				<port id="1" precision="FP32" names="482">
					<dim>1</dim>
					<dim>256</dim>
					<dim>242</dim>
				</port>
			</output>
		</layer>
		<layer id="146" name="data_mul_89308934" type="Const" version="opset1">
			<data element_type="f32" shape="1, 256, 1" offset="9603160" size="1024"/>
			<output>
				<port id="0" precision="FP32">
					<dim>1</dim>
					<dim>256</dim>
					<dim>1</dim>
				</port>
			</output>
		</layer>
		<layer id="147" name="BatchNormalization_74/mean/Fused_Mul_" type="Multiply" version="opset1">
			<data auto_broadcast="numpy"/>
			<input>
				<port id="0" precision="FP32">
					<dim>1</dim>
					<dim>256</dim>
					<dim>242</dim>
				</port>
				<port id="1" precision="FP32">
					<dim>1</dim>
					<dim>256</dim>
					<dim>1</dim>
				</port>
			</input>
			<output>
				<port id="2" precision="FP32">
					<dim>1</dim>
					<dim>256</dim>
					<dim>242</dim>
				</port>
			</output>
		</layer>
		<layer id="148" name="data_add_89318936" type="Const" version="opset1">
			<data element_type="f32" shape="1, 256, 1" offset="9604184" size="1024"/>
			<output>
				<port id="0" precision="FP32">
					<dim>1</dim>
					<dim>256</dim>
					<dim>1</dim>
				</port>
			</output>
		</layer>
		<layer id="149" name="BatchNormalization_74/variance/Fused_Add_" type="Add" version="opset1">
			<data auto_broadcast="numpy"/>
			<input>
				<port id="0" precision="FP32">
					<dim>1</dim>
					<dim>256</dim>
					<dim>242</dim>
				</port>
				<port id="1" precision="FP32">
					<dim>1</dim>
					<dim>256</dim>
					<dim>1</dim>
				</port>
			</input>
			<output>
				<port id="2" precision="FP32" names="483">
					<dim>1</dim>
					<dim>256</dim>
					<dim>242</dim>
				</port>
			</output>
		</layer>
		<layer id="150" name="Slice_77/Concat486221905" type="Const" version="opset1">
			<data element_type="i64" shape="3" offset="415776" size="24"/>
			<output>
				<port id="0" precision="I64">
					<dim>3</dim>
				</port>
			</output>
		</layer>
		<layer id="151" name="Slice_77/Const4856485721254" type="Const" version="opset1">
			<data element_type="i64" shape="1" offset="151552" size="8"/>
			<output>
				<port id="0" precision="I64">
					<dim>1</dim>
				</port>
			</output>
		</layer>
		<layer id="152" name="Slice_77/Const4858485921953" type="Const" version="opset1">
			<data element_type="i64" shape="1" offset="151552" size="8"/>
			<output>
				<port id="0" precision="I64">
					<dim>1</dim>
				</port>
			</output>
		</layer>
		<layer id="153" name="Unsqueeze_75/Dims" type="Const" version="opset1">
			<data element_type="i64" shape="1" offset="151552" size="8"/>
			<output>
				<port id="0" precision="I64">
					<dim>1</dim>
				</port>
			</output>
		</layer>
		<layer id="154" name="Unsqueeze_75/Unsqueeze" type="Unsqueeze" version="opset1">
			<input>
				<port id="0" precision="I64"/>
				<port id="1" precision="I64">
					<dim>1</dim>
				</port>
			</input>
			<output>
				<port id="2" precision="I64" names="487">
					<dim>1</dim>
				</port>
			</output>
		</layer>
		<layer id="155" name="Slice_77/Clamp4841" type="Clamp" version="opset1">
			<data min="-2147483648" max="2147483647"/>
			<input>
				<port id="0" precision="I64">
					<dim>1</dim>
				</port>
			</input>
			<output>
				<port id="1" precision="I64">
					<dim>1</dim>
				</port>
			</output>
		</layer>
		<layer id="156" name="Slice_77/Gather4849_input_port_1/value485121401" type="Const" version="opset1">
			<data element_type="i32" shape="1" offset="415804" size="4"/>
			<output>
				<port id="0" precision="I32">
					<dim>1</dim>
				</port>
			</output>
		</layer>
		<layer id="157" name="Slice_77/Gather4849_input_port_2/value485321434" type="Const" version="opset1">
			<data element_type="i64" shape="" offset="151552" size="8"/>
			<output>
				<port id="0" precision="I64"/>
			</output>
		</layer>
		<layer id="158" name="Slice_77/Gather4849" type="Gather" version="opset7">
			<data batch_dims="0"/>
			<input>
				<port id="0" precision="I64">
					<dim>1</dim>
				</port>
				<port id="1" precision="I32">
					<dim>1</dim>
				</port>
				<port id="2" precision="I64"/>
			</input>
			<output>
				<port id="3" precision="I64">
					<dim>1</dim>
				</port>
			</output>
		</layer>
		<layer id="159" name="Slice_77/End" type="Concat" version="opset1">
			<data axis="0"/>
			<input>
				<port id="0" precision="I64">
					<dim>1</dim>
				</port>
				<port id="1" precision="I64">
					<dim>1</dim>
				</port>
				<port id="2" precision="I64">
					<dim>1</dim>
				</port>
			</input>
			<output>
				<port id="3" precision="I64">
					<dim>3</dim>
				</port>
			</output>
		</layer>
		<layer id="160" name="Slice_77/Strides486421239" type="Const" version="opset1">
			<data element_type="i64" shape="3" offset="415808" size="24"/>
			<output>
				<port id="0" precision="I64">
					<dim>3</dim>
				</port>
			</output>
		</layer>
		<layer id="161" name="Slice_77" type="StridedSlice" version="opset1">
			<data begin_mask="1, 1, 0" end_mask="1, 1, 0" new_axis_mask="0, 0, 0" shrink_axis_mask="0, 0, 0" ellipsis_mask="0, 0, 0"/>
			<input>
				<port id="0" precision="FP32">
					<dim>1</dim>
					<dim>256</dim>
					<dim>242</dim>
				</port>
				<port id="1" precision="I64">
					<dim>3</dim>
				</port>
				<port id="2" precision="I64">
					<dim>3</dim>
				</port>
				<port id="3" precision="I64">
					<dim>3</dim>
				</port>
			</input>
			<output>
				<port id="4" precision="FP32" names="490">
					<dim>1</dim>
					<dim>256</dim>
					<dim>241</dim>
				</port>
			</output>
		</layer>
		<layer id="162" name="model.prenet.cbhg.conv1d_bank.8.conv.weight" type="Const" version="opset1">
			<data element_type="f32" shape="256, 256, 9" offset="9605208" size="2359296"/>
			<output>
				<port id="0" precision="FP32" names="model.prenet.cbhg.conv1d_bank.8.conv.weight">
					<dim>256</dim>
					<dim>256</dim>
					<dim>9</dim>
				</port>
			</output>
		</layer>
		<layer id="163" name="Conv_78" type="Convolution" version="opset1">
			<data strides="1" dilations="1" pads_begin="4" pads_end="4" auto_pad="explicit"/>
			<input>
				<port id="0" precision="FP32">
					<dim>1</dim>
					<dim>256</dim>
					<dim>241</dim>
				</port>
				<port id="1" precision="FP32">
					<dim>256</dim>
					<dim>256</dim>
					<dim>9</dim>
				</port>
			</input>
			<output>
				<port id="2" precision="FP32" names="491">
					<dim>1</dim>
					<dim>256</dim>
					<dim>241</dim>
				</port>
			</output>
		</layer>
		<layer id="164" name="Relu_79" type="ReLU" version="opset1">
			<input>
				<port id="0" precision="FP32">
					<dim>1</dim>
					<dim>256</dim>
					<dim>241</dim>
				</port>
			</input>
			<output>
				<port id="1" precision="FP32" names="492">
					<dim>1</dim>
					<dim>256</dim>
					<dim>241</dim>
				</port>
			</output>
		</layer>
		<layer id="165" name="data_mul_89228926" type="Const" version="opset1">
			<data element_type="f32" shape="1, 256, 1" offset="11964504" size="1024"/>
			<output>
				<port id="0" precision="FP32">
					<dim>1</dim>
					<dim>256</dim>
					<dim>1</dim>
				</port>
			</output>
		</layer>
		<layer id="166" name="BatchNormalization_80/mean/Fused_Mul_" type="Multiply" version="opset1">
			<data auto_broadcast="numpy"/>
			<input>
				<port id="0" precision="FP32">
					<dim>1</dim>
					<dim>256</dim>
					<dim>241</dim>
				</port>
				<port id="1" precision="FP32">
					<dim>1</dim>
					<dim>256</dim>
					<dim>1</dim>
				</port>
			</input>
			<output>
				<port id="2" precision="FP32">
					<dim>1</dim>
					<dim>256</dim>
					<dim>241</dim>
				</port>
			</output>
		</layer>
		<layer id="167" name="data_add_89238928" type="Const" version="opset1">
			<data element_type="f32" shape="1, 256, 1" offset="11965528" size="1024"/>
			<output>
				<port id="0" precision="FP32">
					<dim>1</dim>
					<dim>256</dim>
					<dim>1</dim>
				</port>
			</output>
		</layer>
		<layer id="168" name="BatchNormalization_80/variance/Fused_Add_" type="Add" version="opset1">
			<data auto_broadcast="numpy"/>
			<input>
				<port id="0" precision="FP32">
					<dim>1</dim>
					<dim>256</dim>
					<dim>241</dim>
				</port>
				<port id="1" precision="FP32">
					<dim>1</dim>
					<dim>256</dim>
					<dim>1</dim>
				</port>
			</input>
			<output>
				<port id="2" precision="FP32" names="493">
					<dim>1</dim>
					<dim>256</dim>
					<dim>241</dim>
				</port>
			</output>
		</layer>
		<layer id="169" name="Slice_83/Concat490621503" type="Const" version="opset1">
			<data element_type="i64" shape="3" offset="415776" size="24"/>
			<output>
				<port id="0" precision="I64">
					<dim>3</dim>
				</port>
			</output>
		</layer>
		<layer id="170" name="Slice_83/Const4900490121251" type="Const" version="opset1">
			<data element_type="i64" shape="1" offset="151552" size="8"/>
			<output>
				<port id="0" precision="I64">
					<dim>1</dim>
				</port>
			</output>
		</layer>
		<layer id="171" name="Slice_83/Const4902490321734" type="Const" version="opset1">
			<data element_type="i64" shape="1" offset="151552" size="8"/>
			<output>
				<port id="0" precision="I64">
					<dim>1</dim>
				</port>
			</output>
		</layer>
		<layer id="172" name="Unsqueeze_81/Dims" type="Const" version="opset1">
			<data element_type="i64" shape="1" offset="151552" size="8"/>
			<output>
				<port id="0" precision="I64">
					<dim>1</dim>
				</port>
			</output>
		</layer>
		<layer id="173" name="Unsqueeze_81/Unsqueeze" type="Unsqueeze" version="opset1">
			<input>
				<port id="0" precision="I64"/>
				<port id="1" precision="I64">
					<dim>1</dim>
				</port>
			</input>
			<output>
				<port id="2" precision="I64" names="497">
					<dim>1</dim>
				</port>
			</output>
		</layer>
		<layer id="174" name="Slice_83/Clamp4885" type="Clamp" version="opset1">
			<data min="-2147483648" max="2147483647"/>
			<input>
				<port id="0" precision="I64">
					<dim>1</dim>
				</port>
			</input>
			<output>
				<port id="1" precision="I64">
					<dim>1</dim>
				</port>
			</output>
		</layer>
		<layer id="175" name="Slice_83/Gather4893_input_port_1/value489521359" type="Const" version="opset1">
			<data element_type="i32" shape="1" offset="415804" size="4"/>
			<output>
				<port id="0" precision="I32">
					<dim>1</dim>
				</port>
			</output>
		</layer>
		<layer id="176" name="Slice_83/Gather4893_input_port_2/value489721629" type="Const" version="opset1">
			<data element_type="i64" shape="" offset="151552" size="8"/>
			<output>
				<port id="0" precision="I64"/>
			</output>
		</layer>
		<layer id="177" name="Slice_83/Gather4893" type="Gather" version="opset7">
			<data batch_dims="0"/>
			<input>
				<port id="0" precision="I64">
					<dim>1</dim>
				</port>
				<port id="1" precision="I32">
					<dim>1</dim>
				</port>
				<port id="2" precision="I64"/>
			</input>
			<output>
				<port id="3" precision="I64">
					<dim>1</dim>
				</port>
			</output>
		</layer>
		<layer id="178" name="Slice_83/End" type="Concat" version="opset1">
			<data axis="0"/>
			<input>
				<port id="0" precision="I64">
					<dim>1</dim>
				</port>
				<port id="1" precision="I64">
					<dim>1</dim>
				</port>
				<port id="2" precision="I64">
					<dim>1</dim>
				</port>
			</input>
			<output>
				<port id="3" precision="I64">
					<dim>3</dim>
				</port>
			</output>
		</layer>
		<layer id="179" name="Slice_83/Strides490821527" type="Const" version="opset1">
			<data element_type="i64" shape="3" offset="415808" size="24"/>
			<output>
				<port id="0" precision="I64">
					<dim>3</dim>
				</port>
			</output>
		</layer>
		<layer id="180" name="Slice_83" type="StridedSlice" version="opset1">
			<data begin_mask="1, 1, 0" end_mask="1, 1, 0" new_axis_mask="0, 0, 0" shrink_axis_mask="0, 0, 0" ellipsis_mask="0, 0, 0"/>
			<input>
				<port id="0" precision="FP32">
					<dim>1</dim>
					<dim>256</dim>
					<dim>241</dim>
				</port>
				<port id="1" precision="I64">
					<dim>3</dim>
				</port>
				<port id="2" precision="I64">
					<dim>3</dim>
				</port>
				<port id="3" precision="I64">
					<dim>3</dim>
				</port>
			</input>
			<output>
				<port id="4" precision="FP32" names="500">
					<dim>1</dim>
					<dim>256</dim>
					<dim>241</dim>
				</port>
			</output>
		</layer>
		<layer id="181" name="model.prenet.cbhg.conv1d_bank.9.conv.weight" type="Const" version="opset1">
			<data element_type="f32" shape="256, 256, 10" offset="11966552" size="2621440"/>
			<output>
				<port id="0" precision="FP32" names="model.prenet.cbhg.conv1d_bank.9.conv.weight">
					<dim>256</dim>
					<dim>256</dim>
					<dim>10</dim>
				</port>
			</output>
		</layer>
		<layer id="182" name="Conv_84" type="Convolution" version="opset1">
			<data strides="1" dilations="1" pads_begin="5" pads_end="5" auto_pad="explicit"/>
			<input>
				<port id="0" precision="FP32">
					<dim>1</dim>
					<dim>256</dim>
					<dim>241</dim>
				</port>
				<port id="1" precision="FP32">
					<dim>256</dim>
					<dim>256</dim>
					<dim>10</dim>
				</port>
			</input>
			<output>
				<port id="2" precision="FP32" names="501">
					<dim>1</dim>
					<dim>256</dim>
					<dim>242</dim>
				</port>
			</output>
		</layer>
		<layer id="183" name="Relu_85" type="ReLU" version="opset1">
			<input>
				<port id="0" precision="FP32">
					<dim>1</dim>
					<dim>256</dim>
					<dim>242</dim>
				</port>
			</input>
			<output>
				<port id="1" precision="FP32" names="502">
					<dim>1</dim>
					<dim>256</dim>
					<dim>242</dim>
				</port>
			</output>
		</layer>
		<layer id="184" name="data_mul_89148918" type="Const" version="opset1">
			<data element_type="f32" shape="1, 256, 1" offset="14587992" size="1024"/>
			<output>
				<port id="0" precision="FP32">
					<dim>1</dim>
					<dim>256</dim>
					<dim>1</dim>
				</port>
			</output>
		</layer>
		<layer id="185" name="BatchNormalization_86/mean/Fused_Mul_" type="Multiply" version="opset1">
			<data auto_broadcast="numpy"/>
			<input>
				<port id="0" precision="FP32">
					<dim>1</dim>
					<dim>256</dim>
					<dim>242</dim>
				</port>
				<port id="1" precision="FP32">
					<dim>1</dim>
					<dim>256</dim>
					<dim>1</dim>
				</port>
			</input>
			<output>
				<port id="2" precision="FP32">
					<dim>1</dim>
					<dim>256</dim>
					<dim>242</dim>
				</port>
			</output>
		</layer>
		<layer id="186" name="data_add_89158920" type="Const" version="opset1">
			<data element_type="f32" shape="1, 256, 1" offset="14589016" size="1024"/>
			<output>
				<port id="0" precision="FP32">
					<dim>1</dim>
					<dim>256</dim>
					<dim>1</dim>
				</port>
			</output>
		</layer>
		<layer id="187" name="BatchNormalization_86/variance/Fused_Add_" type="Add" version="opset1">
			<data auto_broadcast="numpy"/>
			<input>
				<port id="0" precision="FP32">
					<dim>1</dim>
					<dim>256</dim>
					<dim>242</dim>
				</port>
				<port id="1" precision="FP32">
					<dim>1</dim>
					<dim>256</dim>
					<dim>1</dim>
				</port>
			</input>
			<output>
				<port id="2" precision="FP32" names="503">
					<dim>1</dim>
					<dim>256</dim>
					<dim>242</dim>
				</port>
			</output>
		</layer>
		<layer id="188" name="Slice_89/Concat495021623" type="Const" version="opset1">
			<data element_type="i64" shape="3" offset="415776" size="24"/>
			<output>
				<port id="0" precision="I64">
					<dim>3</dim>
				</port>
			</output>
		</layer>
		<layer id="189" name="Slice_89/Const4944494521296" type="Const" version="opset1">
			<data element_type="i64" shape="1" offset="151552" size="8"/>
			<output>
				<port id="0" precision="I64">
					<dim>1</dim>
				</port>
			</output>
		</layer>
		<layer id="190" name="Slice_89/Const4946494721377" type="Const" version="opset1">
			<data element_type="i64" shape="1" offset="151552" size="8"/>
			<output>
				<port id="0" precision="I64">
					<dim>1</dim>
				</port>
			</output>
		</layer>
		<layer id="191" name="Unsqueeze_87/Dims" type="Const" version="opset1">
			<data element_type="i64" shape="1" offset="151552" size="8"/>
			<output>
				<port id="0" precision="I64">
					<dim>1</dim>
				</port>
			</output>
		</layer>
		<layer id="192" name="Unsqueeze_87/Unsqueeze" type="Unsqueeze" version="opset1">
			<input>
				<port id="0" precision="I64"/>
				<port id="1" precision="I64">
					<dim>1</dim>
				</port>
			</input>
			<output>
				<port id="2" precision="I64" names="507">
					<dim>1</dim>
				</port>
			</output>
		</layer>
		<layer id="193" name="Slice_89/Clamp4929" type="Clamp" version="opset1">
			<data min="-2147483648" max="2147483647"/>
			<input>
				<port id="0" precision="I64">
					<dim>1</dim>
				</port>
			</input>
			<output>
				<port id="1" precision="I64">
					<dim>1</dim>
				</port>
			</output>
		</layer>
		<layer id="194" name="Slice_89/Gather4937_input_port_1/value493921851" type="Const" version="opset1">
			<data element_type="i32" shape="1" offset="415804" size="4"/>
			<output>
				<port id="0" precision="I32">
					<dim>1</dim>
				</port>
			</output>
		</layer>
		<layer id="195" name="Slice_89/Gather4937_input_port_2/value494121656" type="Const" version="opset1">
			<data element_type="i64" shape="" offset="151552" size="8"/>
			<output>
				<port id="0" precision="I64"/>
			</output>
		</layer>
		<layer id="196" name="Slice_89/Gather4937" type="Gather" version="opset7">
			<data batch_dims="0"/>
			<input>
				<port id="0" precision="I64">
					<dim>1</dim>
				</port>
				<port id="1" precision="I32">
					<dim>1</dim>
				</port>
				<port id="2" precision="I64"/>
			</input>
			<output>
				<port id="3" precision="I64">
					<dim>1</dim>
				</port>
			</output>
		</layer>
		<layer id="197" name="Slice_89/End" type="Concat" version="opset1">
			<data axis="0"/>
			<input>
				<port id="0" precision="I64">
					<dim>1</dim>
				</port>
				<port id="1" precision="I64">
					<dim>1</dim>
				</port>
				<port id="2" precision="I64">
					<dim>1</dim>
				</port>
			</input>
			<output>
				<port id="3" precision="I64">
					<dim>3</dim>
				</port>
			</output>
		</layer>
		<layer id="198" name="Slice_89/Strides495221437" type="Const" version="opset1">
			<data element_type="i64" shape="3" offset="415808" size="24"/>
			<output>
				<port id="0" precision="I64">
					<dim>3</dim>
				</port>
			</output>
		</layer>
		<layer id="199" name="Slice_89" type="StridedSlice" version="opset1">
			<data begin_mask="1, 1, 0" end_mask="1, 1, 0" new_axis_mask="0, 0, 0" shrink_axis_mask="0, 0, 0" ellipsis_mask="0, 0, 0"/>
			<input>
				<port id="0" precision="FP32">
					<dim>1</dim>
					<dim>256</dim>
					<dim>242</dim>
				</port>
				<port id="1" precision="I64">
					<dim>3</dim>
				</port>
				<port id="2" precision="I64">
					<dim>3</dim>
				</port>
				<port id="3" precision="I64">
					<dim>3</dim>
				</port>
			</input>
			<output>
				<port id="4" precision="FP32" names="510">
					<dim>1</dim>
					<dim>256</dim>
					<dim>241</dim>
				</port>
			</output>
		</layer>
		<layer id="200" name="model.prenet.cbhg.conv1d_bank.10.conv.weight" type="Const" version="opset1">
			<data element_type="f32" shape="256, 256, 11" offset="14590040" size="2883584"/>
			<output>
				<port id="0" precision="FP32" names="model.prenet.cbhg.conv1d_bank.10.conv.weight">
					<dim>256</dim>
					<dim>256</dim>
					<dim>11</dim>
				</port>
			</output>
		</layer>
		<layer id="201" name="Conv_90" type="Convolution" version="opset1">
			<data strides="1" dilations="1" pads_begin="5" pads_end="5" auto_pad="explicit"/>
			<input>
				<port id="0" precision="FP32">
					<dim>1</dim>
					<dim>256</dim>
					<dim>241</dim>
				</port>
				<port id="1" precision="FP32">
					<dim>256</dim>
					<dim>256</dim>
					<dim>11</dim>
				</port>
			</input>
			<output>
				<port id="2" precision="FP32" names="511">
					<dim>1</dim>
					<dim>256</dim>
					<dim>241</dim>
				</port>
			</output>
		</layer>
		<layer id="202" name="Relu_91" type="ReLU" version="opset1">
			<input>
				<port id="0" precision="FP32">
					<dim>1</dim>
					<dim>256</dim>
					<dim>241</dim>
				</port>
			</input>
			<output>
				<port id="1" precision="FP32" names="512">
					<dim>1</dim>
					<dim>256</dim>
					<dim>241</dim>
				</port>
			</output>
		</layer>
		<layer id="203" name="data_mul_89068910" type="Const" version="opset1">
			<data element_type="f32" shape="1, 256, 1" offset="17473624" size="1024"/>
			<output>
				<port id="0" precision="FP32">
					<dim>1</dim>
					<dim>256</dim>
					<dim>1</dim>
				</port>
			</output>
		</layer>
		<layer id="204" name="BatchNormalization_92/mean/Fused_Mul_" type="Multiply" version="opset1">
			<data auto_broadcast="numpy"/>
			<input>
				<port id="0" precision="FP32">
					<dim>1</dim>
					<dim>256</dim>
					<dim>241</dim>
				</port>
				<port id="1" precision="FP32">
					<dim>1</dim>
					<dim>256</dim>
					<dim>1</dim>
				</port>
			</input>
			<output>
				<port id="2" precision="FP32">
					<dim>1</dim>
					<dim>256</dim>
					<dim>241</dim>
				</port>
			</output>
		</layer>
		<layer id="205" name="data_add_89078912" type="Const" version="opset1">
			<data element_type="f32" shape="1, 256, 1" offset="17474648" size="1024"/>
			<output>
				<port id="0" precision="FP32">
					<dim>1</dim>
					<dim>256</dim>
					<dim>1</dim>
				</port>
			</output>
		</layer>
		<layer id="206" name="BatchNormalization_92/variance/Fused_Add_" type="Add" version="opset1">
			<data auto_broadcast="numpy"/>
			<input>
				<port id="0" precision="FP32">
					<dim>1</dim>
					<dim>256</dim>
					<dim>241</dim>
				</port>
				<port id="1" precision="FP32">
					<dim>1</dim>
					<dim>256</dim>
					<dim>1</dim>
				</port>
			</input>
			<output>
				<port id="2" precision="FP32" names="513">
					<dim>1</dim>
					<dim>256</dim>
					<dim>241</dim>
				</port>
			</output>
		</layer>
		<layer id="207" name="Slice_95/Concat499421803" type="Const" version="opset1">
			<data element_type="i64" shape="3" offset="415776" size="24"/>
			<output>
				<port id="0" precision="I64">
					<dim>3</dim>
				</port>
			</output>
		</layer>
		<layer id="208" name="Slice_95/Const4988498921749" type="Const" version="opset1">
			<data element_type="i64" shape="1" offset="151552" size="8"/>
			<output>
				<port id="0" precision="I64">
					<dim>1</dim>
				</port>
			</output>
		</layer>
		<layer id="209" name="Slice_95/Const4990499121233" type="Const" version="opset1">
			<data element_type="i64" shape="1" offset="151552" size="8"/>
			<output>
				<port id="0" precision="I64">
					<dim>1</dim>
				</port>
			</output>
		</layer>
		<layer id="210" name="Unsqueeze_93/Dims" type="Const" version="opset1">
			<data element_type="i64" shape="1" offset="151552" size="8"/>
			<output>
				<port id="0" precision="I64">
					<dim>1</dim>
				</port>
			</output>
		</layer>
		<layer id="211" name="Unsqueeze_93/Unsqueeze" type="Unsqueeze" version="opset1">
			<input>
				<port id="0" precision="I64"/>
				<port id="1" precision="I64">
					<dim>1</dim>
				</port>
			</input>
			<output>
				<port id="2" precision="I64" names="517">
					<dim>1</dim>
				</port>
			</output>
		</layer>
		<layer id="212" name="Slice_95/Clamp4973" type="Clamp" version="opset1">
			<data min="-2147483648" max="2147483647"/>
			<input>
				<port id="0" precision="I64">
					<dim>1</dim>
				</port>
			</input>
			<output>
				<port id="1" precision="I64">
					<dim>1</dim>
				</port>
			</output>
		</layer>
		<layer id="213" name="Slice_95/Gather4981_input_port_1/value498321713" type="Const" version="opset1">
			<data element_type="i32" shape="1" offset="415804" size="4"/>
			<output>
				<port id="0" precision="I32">
					<dim>1</dim>
				</port>
			</output>
		</layer>
		<layer id="214" name="Slice_95/Gather4981_input_port_2/value498521281" type="Const" version="opset1">
			<data element_type="i64" shape="" offset="151552" size="8"/>
			<output>
				<port id="0" precision="I64"/>
			</output>
		</layer>
		<layer id="215" name="Slice_95/Gather4981" type="Gather" version="opset7">
			<data batch_dims="0"/>
			<input>
				<port id="0" precision="I64">
					<dim>1</dim>
				</port>
				<port id="1" precision="I32">
					<dim>1</dim>
				</port>
				<port id="2" precision="I64"/>
			</input>
			<output>
				<port id="3" precision="I64">
					<dim>1</dim>
				</port>
			</output>
		</layer>
		<layer id="216" name="Slice_95/End" type="Concat" version="opset1">
			<data axis="0"/>
			<input>
				<port id="0" precision="I64">
					<dim>1</dim>
				</port>
				<port id="1" precision="I64">
					<dim>1</dim>
				</port>
				<port id="2" precision="I64">
					<dim>1</dim>
				</port>
			</input>
			<output>
				<port id="3" precision="I64">
					<dim>3</dim>
				</port>
			</output>
		</layer>
		<layer id="217" name="Slice_95/Strides499621419" type="Const" version="opset1">
			<data element_type="i64" shape="3" offset="415808" size="24"/>
			<output>
				<port id="0" precision="I64">
					<dim>3</dim>
				</port>
			</output>
		</layer>
		<layer id="218" name="Slice_95" type="StridedSlice" version="opset1">
			<data begin_mask="1, 1, 0" end_mask="1, 1, 0" new_axis_mask="0, 0, 0" shrink_axis_mask="0, 0, 0" ellipsis_mask="0, 0, 0"/>
			<input>
				<port id="0" precision="FP32">
					<dim>1</dim>
					<dim>256</dim>
					<dim>241</dim>
				</port>
				<port id="1" precision="I64">
					<dim>3</dim>
				</port>
				<port id="2" precision="I64">
					<dim>3</dim>
				</port>
				<port id="3" precision="I64">
					<dim>3</dim>
				</port>
			</input>
			<output>
				<port id="4" precision="FP32" names="520">
					<dim>1</dim>
					<dim>256</dim>
					<dim>241</dim>
				</port>
			</output>
		</layer>
		<layer id="219" name="model.prenet.cbhg.conv1d_bank.11.conv.weight" type="Const" version="opset1">
			<data element_type="f32" shape="256, 256, 12" offset="17475672" size="3145728"/>
			<output>
				<port id="0" precision="FP32" names="model.prenet.cbhg.conv1d_bank.11.conv.weight">
					<dim>256</dim>
					<dim>256</dim>
					<dim>12</dim>
				</port>
			</output>
		</layer>
		<layer id="220" name="Conv_96" type="Convolution" version="opset1">
			<data strides="1" dilations="1" pads_begin="6" pads_end="6" auto_pad="explicit"/>
			<input>
				<port id="0" precision="FP32">
					<dim>1</dim>
					<dim>256</dim>
					<dim>241</dim>
				</port>
				<port id="1" precision="FP32">
					<dim>256</dim>
					<dim>256</dim>
					<dim>12</dim>
				</port>
			</input>
			<output>
				<port id="2" precision="FP32" names="521">
					<dim>1</dim>
					<dim>256</dim>
					<dim>242</dim>
				</port>
			</output>
		</layer>
		<layer id="221" name="Relu_97" type="ReLU" version="opset1">
			<input>
				<port id="0" precision="FP32">
					<dim>1</dim>
					<dim>256</dim>
					<dim>242</dim>
				</port>
			</input>
			<output>
				<port id="1" precision="FP32" names="522">
					<dim>1</dim>
					<dim>256</dim>
					<dim>242</dim>
				</port>
			</output>
		</layer>
		<layer id="222" name="data_mul_88988902" type="Const" version="opset1">
			<data element_type="f32" shape="1, 256, 1" offset="20621400" size="1024"/>
			<output>
				<port id="0" precision="FP32">
					<dim>1</dim>
					<dim>256</dim>
					<dim>1</dim>
				</port>
			</output>
		</layer>
		<layer id="223" name="BatchNormalization_98/mean/Fused_Mul_" type="Multiply" version="opset1">
			<data auto_broadcast="numpy"/>
			<input>
				<port id="0" precision="FP32">
					<dim>1</dim>
					<dim>256</dim>
					<dim>242</dim>
				</port>
				<port id="1" precision="FP32">
					<dim>1</dim>
					<dim>256</dim>
					<dim>1</dim>
				</port>
			</input>
			<output>
				<port id="2" precision="FP32">
					<dim>1</dim>
					<dim>256</dim>
					<dim>242</dim>
				</port>
			</output>
		</layer>
		<layer id="224" name="data_add_88998904" type="Const" version="opset1">
			<data element_type="f32" shape="1, 256, 1" offset="20622424" size="1024"/>
			<output>
				<port id="0" precision="FP32">
					<dim>1</dim>
					<dim>256</dim>
					<dim>1</dim>
				</port>
			</output>
		</layer>
		<layer id="225" name="BatchNormalization_98/variance/Fused_Add_" type="Add" version="opset1">
			<data auto_broadcast="numpy"/>
			<input>
				<port id="0" precision="FP32">
					<dim>1</dim>
					<dim>256</dim>
					<dim>242</dim>
				</port>
				<port id="1" precision="FP32">
					<dim>1</dim>
					<dim>256</dim>
					<dim>1</dim>
				</port>
			</input>
			<output>
				<port id="2" precision="FP32" names="523">
					<dim>1</dim>
					<dim>256</dim>
					<dim>242</dim>
				</port>
			</output>
		</layer>
		<layer id="226" name="Slice_101/Concat503821878" type="Const" version="opset1">
			<data element_type="i64" shape="3" offset="415776" size="24"/>
			<output>
				<port id="0" precision="I64">
					<dim>3</dim>
				</port>
			</output>
		</layer>
		<layer id="227" name="Slice_101/Const5032503321587" type="Const" version="opset1">
			<data element_type="i64" shape="1" offset="151552" size="8"/>
			<output>
				<port id="0" precision="I64">
					<dim>1</dim>
				</port>
			</output>
		</layer>
		<layer id="228" name="Slice_101/Const5034503521947" type="Const" version="opset1">
			<data element_type="i64" shape="1" offset="151552" size="8"/>
			<output>
				<port id="0" precision="I64">
					<dim>1</dim>
				</port>
			</output>
		</layer>
		<layer id="229" name="Unsqueeze_99/Dims" type="Const" version="opset1">
			<data element_type="i64" shape="1" offset="151552" size="8"/>
			<output>
				<port id="0" precision="I64">
					<dim>1</dim>
				</port>
			</output>
		</layer>
		<layer id="230" name="Unsqueeze_99/Unsqueeze" type="Unsqueeze" version="opset1">
			<input>
				<port id="0" precision="I64"/>
				<port id="1" precision="I64">
					<dim>1</dim>
				</port>
			</input>
			<output>
				<port id="2" precision="I64" names="527">
					<dim>1</dim>
				</port>
			</output>
		</layer>
		<layer id="231" name="Slice_101/Clamp5017" type="Clamp" version="opset1">
			<data min="-2147483648" max="2147483647"/>
			<input>
				<port id="0" precision="I64">
					<dim>1</dim>
				</port>
			</input>
			<output>
				<port id="1" precision="I64">
					<dim>1</dim>
				</port>
			</output>
		</layer>
		<layer id="232" name="Slice_101/Gather5025_input_port_1/value502721767" type="Const" version="opset1">
			<data element_type="i32" shape="1" offset="415804" size="4"/>
			<output>
				<port id="0" precision="I32">
					<dim>1</dim>
				</port>
			</output>
		</layer>
		<layer id="233" name="Slice_101/Gather5025_input_port_2/value502921944" type="Const" version="opset1">
			<data element_type="i64" shape="" offset="151552" size="8"/>
			<output>
				<port id="0" precision="I64"/>
			</output>
		</layer>
		<layer id="234" name="Slice_101/Gather5025" type="Gather" version="opset7">
			<data batch_dims="0"/>
			<input>
				<port id="0" precision="I64">
					<dim>1</dim>
				</port>
				<port id="1" precision="I32">
					<dim>1</dim>
				</port>
				<port id="2" precision="I64"/>
			</input>
			<output>
				<port id="3" precision="I64">
					<dim>1</dim>
				</port>
			</output>
		</layer>
		<layer id="235" name="Slice_101/End" type="Concat" version="opset1">
			<data axis="0"/>
			<input>
				<port id="0" precision="I64">
					<dim>1</dim>
				</port>
				<port id="1" precision="I64">
					<dim>1</dim>
				</port>
				<port id="2" precision="I64">
					<dim>1</dim>
				</port>
			</input>
			<output>
				<port id="3" precision="I64">
					<dim>3</dim>
				</port>
			</output>
		</layer>
		<layer id="236" name="Slice_101/Strides504021836" type="Const" version="opset1">
			<data element_type="i64" shape="3" offset="415808" size="24"/>
			<output>
				<port id="0" precision="I64">
					<dim>3</dim>
				</port>
			</output>
		</layer>
		<layer id="237" name="Slice_101" type="StridedSlice" version="opset1">
			<data begin_mask="1, 1, 0" end_mask="1, 1, 0" new_axis_mask="0, 0, 0" shrink_axis_mask="0, 0, 0" ellipsis_mask="0, 0, 0"/>
			<input>
				<port id="0" precision="FP32">
					<dim>1</dim>
					<dim>256</dim>
					<dim>242</dim>
				</port>
				<port id="1" precision="I64">
					<dim>3</dim>
				</port>
				<port id="2" precision="I64">
					<dim>3</dim>
				</port>
				<port id="3" precision="I64">
					<dim>3</dim>
				</port>
			</input>
			<output>
				<port id="4" precision="FP32" names="530">
					<dim>1</dim>
					<dim>256</dim>
					<dim>241</dim>
				</port>
			</output>
		</layer>
		<layer id="238" name="model.prenet.cbhg.conv1d_bank.12.conv.weight" type="Const" version="opset1">
			<data element_type="f32" shape="256, 256, 13" offset="20623448" size="3407872"/>
			<output>
				<port id="0" precision="FP32" names="model.prenet.cbhg.conv1d_bank.12.conv.weight">
					<dim>256</dim>
					<dim>256</dim>
					<dim>13</dim>
				</port>
			</output>
		</layer>
		<layer id="239" name="Conv_102" type="Convolution" version="opset1">
			<data strides="1" dilations="1" pads_begin="6" pads_end="6" auto_pad="explicit"/>
			<input>
				<port id="0" precision="FP32">
					<dim>1</dim>
					<dim>256</dim>
					<dim>241</dim>
				</port>
				<port id="1" precision="FP32">
					<dim>256</dim>
					<dim>256</dim>
					<dim>13</dim>
				</port>
			</input>
			<output>
				<port id="2" precision="FP32" names="531">
					<dim>1</dim>
					<dim>256</dim>
					<dim>241</dim>
				</port>
			</output>
		</layer>
		<layer id="240" name="Relu_103" type="ReLU" version="opset1">
			<input>
				<port id="0" precision="FP32">
					<dim>1</dim>
					<dim>256</dim>
					<dim>241</dim>
				</port>
			</input>
			<output>
				<port id="1" precision="FP32" names="532">
					<dim>1</dim>
					<dim>256</dim>
					<dim>241</dim>
				</port>
			</output>
		</layer>
		<layer id="241" name="data_mul_88908894" type="Const" version="opset1">
			<data element_type="f32" shape="1, 256, 1" offset="24031320" size="1024"/>
			<output>
				<port id="0" precision="FP32">
					<dim>1</dim>
					<dim>256</dim>
					<dim>1</dim>
				</port>
			</output>
		</layer>
		<layer id="242" name="BatchNormalization_104/mean/Fused_Mul_" type="Multiply" version="opset1">
			<data auto_broadcast="numpy"/>
			<input>
				<port id="0" precision="FP32">
					<dim>1</dim>
					<dim>256</dim>
					<dim>241</dim>
				</port>
				<port id="1" precision="FP32">
					<dim>1</dim>
					<dim>256</dim>
					<dim>1</dim>
				</port>
			</input>
			<output>
				<port id="2" precision="FP32">
					<dim>1</dim>
					<dim>256</dim>
					<dim>241</dim>
				</port>
			</output>
		</layer>
		<layer id="243" name="data_add_88918896" type="Const" version="opset1">
			<data element_type="f32" shape="1, 256, 1" offset="24032344" size="1024"/>
			<output>
				<port id="0" precision="FP32">
					<dim>1</dim>
					<dim>256</dim>
					<dim>1</dim>
				</port>
			</output>
		</layer>
		<layer id="244" name="BatchNormalization_104/variance/Fused_Add_" type="Add" version="opset1">
			<data auto_broadcast="numpy"/>
			<input>
				<port id="0" precision="FP32">
					<dim>1</dim>
					<dim>256</dim>
					<dim>241</dim>
				</port>
				<port id="1" precision="FP32">
					<dim>1</dim>
					<dim>256</dim>
					<dim>1</dim>
				</port>
			</input>
			<output>
				<port id="2" precision="FP32" names="533">
					<dim>1</dim>
					<dim>256</dim>
					<dim>241</dim>
				</port>
			</output>
		</layer>
		<layer id="245" name="Slice_107/Concat508221869" type="Const" version="opset1">
			<data element_type="i64" shape="3" offset="415776" size="24"/>
			<output>
				<port id="0" precision="I64">
					<dim>3</dim>
				</port>
			</output>
		</layer>
		<layer id="246" name="Slice_107/Const5076507721632" type="Const" version="opset1">
			<data element_type="i64" shape="1" offset="151552" size="8"/>
			<output>
				<port id="0" precision="I64">
					<dim>1</dim>
				</port>
			</output>
		</layer>
		<layer id="247" name="Slice_107/Const5078507921719" type="Const" version="opset1">
			<data element_type="i64" shape="1" offset="151552" size="8"/>
			<output>
				<port id="0" precision="I64">
					<dim>1</dim>
				</port>
			</output>
		</layer>
		<layer id="248" name="Unsqueeze_105/Dims" type="Const" version="opset1">
			<data element_type="i64" shape="1" offset="151552" size="8"/>
			<output>
				<port id="0" precision="I64">
					<dim>1</dim>
				</port>
			</output>
		</layer>
		<layer id="249" name="Unsqueeze_105/Unsqueeze" type="Unsqueeze" version="opset1">
			<input>
				<port id="0" precision="I64"/>
				<port id="1" precision="I64">
					<dim>1</dim>
				</port>
			</input>
			<output>
				<port id="2" precision="I64" names="537">
					<dim>1</dim>
				</port>
			</output>
		</layer>
		<layer id="250" name="Slice_107/Clamp5061" type="Clamp" version="opset1">
			<data min="-2147483648" max="2147483647"/>
			<input>
				<port id="0" precision="I64">
					<dim>1</dim>
				</port>
			</input>
			<output>
				<port id="1" precision="I64">
					<dim>1</dim>
				</port>
			</output>
		</layer>
		<layer id="251" name="Slice_107/Gather5069_input_port_1/value507121551" type="Const" version="opset1">
			<data element_type="i32" shape="1" offset="415804" size="4"/>
			<output>
				<port id="0" precision="I32">
					<dim>1</dim>
				</port>
			</output>
		</layer>
		<layer id="252" name="Slice_107/Gather5069_input_port_2/value507321407" type="Const" version="opset1">
			<data element_type="i64" shape="" offset="151552" size="8"/>
			<output>
				<port id="0" precision="I64"/>
			</output>
		</layer>
		<layer id="253" name="Slice_107/Gather5069" type="Gather" version="opset7">
			<data batch_dims="0"/>
			<input>
				<port id="0" precision="I64">
					<dim>1</dim>
				</port>
				<port id="1" precision="I32">
					<dim>1</dim>
				</port>
				<port id="2" precision="I64"/>
			</input>
			<output>
				<port id="3" precision="I64">
					<dim>1</dim>
				</port>
			</output>
		</layer>
		<layer id="254" name="Slice_107/End" type="Concat" version="opset1">
			<data axis="0"/>
			<input>
				<port id="0" precision="I64">
					<dim>1</dim>
				</port>
				<port id="1" precision="I64">
					<dim>1</dim>
				</port>
				<port id="2" precision="I64">
					<dim>1</dim>
				</port>
			</input>
			<output>
				<port id="3" precision="I64">
					<dim>3</dim>
				</port>
			</output>
		</layer>
		<layer id="255" name="Slice_107/Strides508421473" type="Const" version="opset1">
			<data element_type="i64" shape="3" offset="415808" size="24"/>
			<output>
				<port id="0" precision="I64">
					<dim>3</dim>
				</port>
			</output>
		</layer>
		<layer id="256" name="Slice_107" type="StridedSlice" version="opset1">
			<data begin_mask="1, 1, 0" end_mask="1, 1, 0" new_axis_mask="0, 0, 0" shrink_axis_mask="0, 0, 0" ellipsis_mask="0, 0, 0"/>
			<input>
				<port id="0" precision="FP32">
					<dim>1</dim>
					<dim>256</dim>
					<dim>241</dim>
				</port>
				<port id="1" precision="I64">
					<dim>3</dim>
				</port>
				<port id="2" precision="I64">
					<dim>3</dim>
				</port>
				<port id="3" precision="I64">
					<dim>3</dim>
				</port>
			</input>
			<output>
				<port id="4" precision="FP32" names="540">
					<dim>1</dim>
					<dim>256</dim>
					<dim>241</dim>
				</port>
			</output>
		</layer>
		<layer id="257" name="model.prenet.cbhg.conv1d_bank.13.conv.weight" type="Const" version="opset1">
			<data element_type="f32" shape="256, 256, 14" offset="24033368" size="3670016"/>
			<output>
				<port id="0" precision="FP32" names="model.prenet.cbhg.conv1d_bank.13.conv.weight">
					<dim>256</dim>
					<dim>256</dim>
					<dim>14</dim>
				</port>
			</output>
		</layer>
		<layer id="258" name="Conv_108" type="Convolution" version="opset1">
			<data strides="1" dilations="1" pads_begin="7" pads_end="7" auto_pad="explicit"/>
			<input>
				<port id="0" precision="FP32">
					<dim>1</dim>
					<dim>256</dim>
					<dim>241</dim>
				</port>
				<port id="1" precision="FP32">
					<dim>256</dim>
					<dim>256</dim>
					<dim>14</dim>
				</port>
			</input>
			<output>
				<port id="2" precision="FP32" names="541">
					<dim>1</dim>
					<dim>256</dim>
					<dim>242</dim>
				</port>
			</output>
		</layer>
		<layer id="259" name="Relu_109" type="ReLU" version="opset1">
			<input>
				<port id="0" precision="FP32">
					<dim>1</dim>
					<dim>256</dim>
					<dim>242</dim>
				</port>
			</input>
			<output>
				<port id="1" precision="FP32" names="542">
					<dim>1</dim>
					<dim>256</dim>
					<dim>242</dim>
				</port>
			</output>
		</layer>
		<layer id="260" name="data_mul_88828886" type="Const" version="opset1">
			<data element_type="f32" shape="1, 256, 1" offset="27703384" size="1024"/>
			<output>
				<port id="0" precision="FP32">
					<dim>1</dim>
					<dim>256</dim>
					<dim>1</dim>
				</port>
			</output>
		</layer>
		<layer id="261" name="BatchNormalization_110/mean/Fused_Mul_" type="Multiply" version="opset1">
			<data auto_broadcast="numpy"/>
			<input>
				<port id="0" precision="FP32">
					<dim>1</dim>
					<dim>256</dim>
					<dim>242</dim>
				</port>
				<port id="1" precision="FP32">
					<dim>1</dim>
					<dim>256</dim>
					<dim>1</dim>
				</port>
			</input>
			<output>
				<port id="2" precision="FP32">
					<dim>1</dim>
					<dim>256</dim>
					<dim>242</dim>
				</port>
			</output>
		</layer>
		<layer id="262" name="data_add_88838888" type="Const" version="opset1">
			<data element_type="f32" shape="1, 256, 1" offset="27704408" size="1024"/>
			<output>
				<port id="0" precision="FP32">
					<dim>1</dim>
					<dim>256</dim>
					<dim>1</dim>
				</port>
			</output>
		</layer>
		<layer id="263" name="BatchNormalization_110/variance/Fused_Add_" type="Add" version="opset1">
			<data auto_broadcast="numpy"/>
			<input>
				<port id="0" precision="FP32">
					<dim>1</dim>
					<dim>256</dim>
					<dim>242</dim>
				</port>
				<port id="1" precision="FP32">
					<dim>1</dim>
					<dim>256</dim>
					<dim>1</dim>
				</port>
			</input>
			<output>
				<port id="2" precision="FP32" names="543">
					<dim>1</dim>
					<dim>256</dim>
					<dim>242</dim>
				</port>
			</output>
		</layer>
		<layer id="264" name="Slice_113/Concat512621929" type="Const" version="opset1">
			<data element_type="i64" shape="3" offset="415776" size="24"/>
			<output>
				<port id="0" precision="I64">
					<dim>3</dim>
				</port>
			</output>
		</layer>
		<layer id="265" name="Slice_113/Const5120512121440" type="Const" version="opset1">
			<data element_type="i64" shape="1" offset="151552" size="8"/>
			<output>
				<port id="0" precision="I64">
					<dim>1</dim>
				</port>
			</output>
		</layer>
		<layer id="266" name="Slice_113/Const5122512321512" type="Const" version="opset1">
			<data element_type="i64" shape="1" offset="151552" size="8"/>
			<output>
				<port id="0" precision="I64">
					<dim>1</dim>
				</port>
			</output>
		</layer>
		<layer id="267" name="Unsqueeze_111/Dims" type="Const" version="opset1">
			<data element_type="i64" shape="1" offset="151552" size="8"/>
			<output>
				<port id="0" precision="I64">
					<dim>1</dim>
				</port>
			</output>
		</layer>
		<layer id="268" name="Unsqueeze_111/Unsqueeze" type="Unsqueeze" version="opset1">
			<input>
				<port id="0" precision="I64"/>
				<port id="1" precision="I64">
					<dim>1</dim>
				</port>
			</input>
			<output>
				<port id="2" precision="I64" names="547">
					<dim>1</dim>
				</port>
			</output>
		</layer>
		<layer id="269" name="Slice_113/Clamp5105" type="Clamp" version="opset1">
			<data min="-2147483648" max="2147483647"/>
			<input>
				<port id="0" precision="I64">
					<dim>1</dim>
				</port>
			</input>
			<output>
				<port id="1" precision="I64">
					<dim>1</dim>
				</port>
			</output>
		</layer>
		<layer id="270" name="Slice_113/Gather5113_input_port_1/value511521821" type="Const" version="opset1">
			<data element_type="i32" shape="1" offset="415804" size="4"/>
			<output>
				<port id="0" precision="I32">
					<dim>1</dim>
				</port>
			</output>
		</layer>
		<layer id="271" name="Slice_113/Gather5113_input_port_2/value511721764" type="Const" version="opset1">
			<data element_type="i64" shape="" offset="151552" size="8"/>
			<output>
				<port id="0" precision="I64"/>
			</output>
		</layer>
		<layer id="272" name="Slice_113/Gather5113" type="Gather" version="opset7">
			<data batch_dims="0"/>
			<input>
				<port id="0" precision="I64">
					<dim>1</dim>
				</port>
				<port id="1" precision="I32">
					<dim>1</dim>
				</port>
				<port id="2" precision="I64"/>
			</input>
			<output>
				<port id="3" precision="I64">
					<dim>1</dim>
				</port>
			</output>
		</layer>
		<layer id="273" name="Slice_113/End" type="Concat" version="opset1">
			<data axis="0"/>
			<input>
				<port id="0" precision="I64">
					<dim>1</dim>
				</port>
				<port id="1" precision="I64">
					<dim>1</dim>
				</port>
				<port id="2" precision="I64">
					<dim>1</dim>
				</port>
			</input>
			<output>
				<port id="3" precision="I64">
					<dim>3</dim>
				</port>
			</output>
		</layer>
		<layer id="274" name="Slice_113/Strides512821278" type="Const" version="opset1">
			<data element_type="i64" shape="3" offset="415808" size="24"/>
			<output>
				<port id="0" precision="I64">
					<dim>3</dim>
				</port>
			</output>
		</layer>
		<layer id="275" name="Slice_113" type="StridedSlice" version="opset1">
			<data begin_mask="1, 1, 0" end_mask="1, 1, 0" new_axis_mask="0, 0, 0" shrink_axis_mask="0, 0, 0" ellipsis_mask="0, 0, 0"/>
			<input>
				<port id="0" precision="FP32">
					<dim>1</dim>
					<dim>256</dim>
					<dim>242</dim>
				</port>
				<port id="1" precision="I64">
					<dim>3</dim>
				</port>
				<port id="2" precision="I64">
					<dim>3</dim>
				</port>
				<port id="3" precision="I64">
					<dim>3</dim>
				</port>
			</input>
			<output>
				<port id="4" precision="FP32" names="550">
					<dim>1</dim>
					<dim>256</dim>
					<dim>241</dim>
				</port>
			</output>
		</layer>
		<layer id="276" name="model.prenet.cbhg.conv1d_bank.14.conv.weight" type="Const" version="opset1">
			<data element_type="f32" shape="256, 256, 15" offset="27705432" size="3932160"/>
			<output>
				<port id="0" precision="FP32" names="model.prenet.cbhg.conv1d_bank.14.conv.weight">
					<dim>256</dim>
					<dim>256</dim>
					<dim>15</dim>
				</port>
			</output>
		</layer>
		<layer id="277" name="Conv_114" type="Convolution" version="opset1">
			<data strides="1" dilations="1" pads_begin="7" pads_end="7" auto_pad="explicit"/>
			<input>
				<port id="0" precision="FP32">
					<dim>1</dim>
					<dim>256</dim>
					<dim>241</dim>
				</port>
				<port id="1" precision="FP32">
					<dim>256</dim>
					<dim>256</dim>
					<dim>15</dim>
				</port>
			</input>
			<output>
				<port id="2" precision="FP32" names="551">
					<dim>1</dim>
					<dim>256</dim>
					<dim>241</dim>
				</port>
			</output>
		</layer>
		<layer id="278" name="Relu_115" type="ReLU" version="opset1">
			<input>
				<port id="0" precision="FP32">
					<dim>1</dim>
					<dim>256</dim>
					<dim>241</dim>
				</port>
			</input>
			<output>
				<port id="1" precision="FP32" names="552">
					<dim>1</dim>
					<dim>256</dim>
					<dim>241</dim>
				</port>
			</output>
		</layer>
		<layer id="279" name="data_mul_88748878" type="Const" version="opset1">
			<data element_type="f32" shape="1, 256, 1" offset="31637592" size="1024"/>
			<output>
				<port id="0" precision="FP32">
					<dim>1</dim>
					<dim>256</dim>
					<dim>1</dim>
				</port>
			</output>
		</layer>
		<layer id="280" name="BatchNormalization_116/mean/Fused_Mul_" type="Multiply" version="opset1">
			<data auto_broadcast="numpy"/>
			<input>
				<port id="0" precision="FP32">
					<dim>1</dim>
					<dim>256</dim>
					<dim>241</dim>
				</port>
				<port id="1" precision="FP32">
					<dim>1</dim>
					<dim>256</dim>
					<dim>1</dim>
				</port>
			</input>
			<output>
				<port id="2" precision="FP32">
					<dim>1</dim>
					<dim>256</dim>
					<dim>241</dim>
				</port>
			</output>
		</layer>
		<layer id="281" name="data_add_88758880" type="Const" version="opset1">
			<data element_type="f32" shape="1, 256, 1" offset="31638616" size="1024"/>
			<output>
				<port id="0" precision="FP32">
					<dim>1</dim>
					<dim>256</dim>
					<dim>1</dim>
				</port>
			</output>
		</layer>
		<layer id="282" name="BatchNormalization_116/variance/Fused_Add_" type="Add" version="opset1">
			<data auto_broadcast="numpy"/>
			<input>
				<port id="0" precision="FP32">
					<dim>1</dim>
					<dim>256</dim>
					<dim>241</dim>
				</port>
				<port id="1" precision="FP32">
					<dim>1</dim>
					<dim>256</dim>
					<dim>1</dim>
				</port>
			</input>
			<output>
				<port id="2" precision="FP32" names="553">
					<dim>1</dim>
					<dim>256</dim>
					<dim>241</dim>
				</port>
			</output>
		</layer>
		<layer id="283" name="Slice_119/Concat517021722" type="Const" version="opset1">
			<data element_type="i64" shape="3" offset="415776" size="24"/>
			<output>
				<port id="0" precision="I64">
					<dim>3</dim>
				</port>
			</output>
		</layer>
		<layer id="284" name="Slice_119/Const5164516521677" type="Const" version="opset1">
			<data element_type="i64" shape="1" offset="151552" size="8"/>
			<output>
				<port id="0" precision="I64">
					<dim>1</dim>
				</port>
			</output>
		</layer>
		<layer id="285" name="Slice_119/Const5166516721728" type="Const" version="opset1">
			<data element_type="i64" shape="1" offset="151552" size="8"/>
			<output>
				<port id="0" precision="I64">
					<dim>1</dim>
				</port>
			</output>
		</layer>
		<layer id="286" name="Unsqueeze_117/Dims" type="Const" version="opset1">
			<data element_type="i64" shape="1" offset="151552" size="8"/>
			<output>
				<port id="0" precision="I64">
					<dim>1</dim>
				</port>
			</output>
		</layer>
		<layer id="287" name="Unsqueeze_117/Unsqueeze" type="Unsqueeze" version="opset1">
			<input>
				<port id="0" precision="I64"/>
				<port id="1" precision="I64">
					<dim>1</dim>
				</port>
			</input>
			<output>
				<port id="2" precision="I64" names="557">
					<dim>1</dim>
				</port>
			</output>
		</layer>
		<layer id="288" name="Slice_119/Clamp5149" type="Clamp" version="opset1">
			<data min="-2147483648" max="2147483647"/>
			<input>
				<port id="0" precision="I64">
					<dim>1</dim>
				</port>
			</input>
			<output>
				<port id="1" precision="I64">
					<dim>1</dim>
				</port>
			</output>
		</layer>
		<layer id="289" name="Slice_119/Gather5157_input_port_1/value515921626" type="Const" version="opset1">
			<data element_type="i32" shape="1" offset="415804" size="4"/>
			<output>
				<port id="0" precision="I32">
					<dim>1</dim>
				</port>
			</output>
		</layer>
		<layer id="290" name="Slice_119/Gather5157_input_port_2/value516121920" type="Const" version="opset1">
			<data element_type="i64" shape="" offset="151552" size="8"/>
			<output>
				<port id="0" precision="I64"/>
			</output>
		</layer>
		<layer id="291" name="Slice_119/Gather5157" type="Gather" version="opset7">
			<data batch_dims="0"/>
			<input>
				<port id="0" precision="I64">
					<dim>1</dim>
				</port>
				<port id="1" precision="I32">
					<dim>1</dim>
				</port>
				<port id="2" precision="I64"/>
			</input>
			<output>
				<port id="3" precision="I64">
					<dim>1</dim>
				</port>
			</output>
		</layer>
		<layer id="292" name="Slice_119/End" type="Concat" version="opset1">
			<data axis="0"/>
			<input>
				<port id="0" precision="I64">
					<dim>1</dim>
				</port>
				<port id="1" precision="I64">
					<dim>1</dim>
				</port>
				<port id="2" precision="I64">
					<dim>1</dim>
				</port>
			</input>
			<output>
				<port id="3" precision="I64">
					<dim>3</dim>
				</port>
			</output>
		</layer>
		<layer id="293" name="Slice_119/Strides517221422" type="Const" version="opset1">
			<data element_type="i64" shape="3" offset="415808" size="24"/>
			<output>
				<port id="0" precision="I64">
					<dim>3</dim>
				</port>
			</output>
		</layer>
		<layer id="294" name="Slice_119" type="StridedSlice" version="opset1">
			<data begin_mask="1, 1, 0" end_mask="1, 1, 0" new_axis_mask="0, 0, 0" shrink_axis_mask="0, 0, 0" ellipsis_mask="0, 0, 0"/>
			<input>
				<port id="0" precision="FP32">
					<dim>1</dim>
					<dim>256</dim>
					<dim>241</dim>
				</port>
				<port id="1" precision="I64">
					<dim>3</dim>
				</port>
				<port id="2" precision="I64">
					<dim>3</dim>
				</port>
				<port id="3" precision="I64">
					<dim>3</dim>
				</port>
			</input>
			<output>
				<port id="4" precision="FP32" names="560">
					<dim>1</dim>
					<dim>256</dim>
					<dim>241</dim>
				</port>
			</output>
		</layer>
		<layer id="295" name="model.prenet.cbhg.conv1d_bank.15.conv.weight" type="Const" version="opset1">
			<data element_type="f32" shape="256, 256, 16" offset="31639640" size="4194304"/>
			<output>
				<port id="0" precision="FP32" names="model.prenet.cbhg.conv1d_bank.15.conv.weight">
					<dim>256</dim>
					<dim>256</dim>
					<dim>16</dim>
				</port>
			</output>
		</layer>
		<layer id="296" name="Conv_120" type="Convolution" version="opset1">
			<data strides="1" dilations="1" pads_begin="8" pads_end="8" auto_pad="explicit"/>
			<input>
				<port id="0" precision="FP32">
					<dim>1</dim>
					<dim>256</dim>
					<dim>241</dim>
				</port>
				<port id="1" precision="FP32">
					<dim>256</dim>
					<dim>256</dim>
					<dim>16</dim>
				</port>
			</input>
			<output>
				<port id="2" precision="FP32" names="561">
					<dim>1</dim>
					<dim>256</dim>
					<dim>242</dim>
				</port>
			</output>
		</layer>
		<layer id="297" name="Relu_121" type="ReLU" version="opset1">
			<input>
				<port id="0" precision="FP32">
					<dim>1</dim>
					<dim>256</dim>
					<dim>242</dim>
				</port>
			</input>
			<output>
				<port id="1" precision="FP32" names="562">
					<dim>1</dim>
					<dim>256</dim>
					<dim>242</dim>
				</port>
			</output>
		</layer>
		<layer id="298" name="data_mul_8870" type="Const" version="opset1">
			<data element_type="f32" shape="1, 256, 1" offset="35833944" size="1024"/>
			<output>
				<port id="0" precision="FP32">
					<dim>1</dim>
					<dim>256</dim>
					<dim>1</dim>
				</port>
			</output>
		</layer>
		<layer id="299" name="BatchNormalization_122/mean/Fused_Mul_" type="Multiply" version="opset1">
			<data auto_broadcast="numpy"/>
			<input>
				<port id="0" precision="FP32">
					<dim>1</dim>
					<dim>256</dim>
					<dim>242</dim>
				</port>
				<port id="1" precision="FP32">
					<dim>1</dim>
					<dim>256</dim>
					<dim>1</dim>
				</port>
			</input>
			<output>
				<port id="2" precision="FP32">
					<dim>1</dim>
					<dim>256</dim>
					<dim>242</dim>
				</port>
			</output>
		</layer>
		<layer id="300" name="data_add_8872" type="Const" version="opset1">
			<data element_type="f32" shape="1, 256, 1" offset="35834968" size="1024"/>
			<output>
				<port id="0" precision="FP32">
					<dim>1</dim>
					<dim>256</dim>
					<dim>1</dim>
				</port>
			</output>
		</layer>
		<layer id="301" name="BatchNormalization_122/variance/Fused_Add_" type="Add" version="opset1">
			<data auto_broadcast="numpy"/>
			<input>
				<port id="0" precision="FP32">
					<dim>1</dim>
					<dim>256</dim>
					<dim>242</dim>
				</port>
				<port id="1" precision="FP32">
					<dim>1</dim>
					<dim>256</dim>
					<dim>1</dim>
				</port>
			</input>
			<output>
				<port id="2" precision="FP32" names="563">
					<dim>1</dim>
					<dim>256</dim>
					<dim>242</dim>
				</port>
			</output>
		</layer>
		<layer id="302" name="Slice_125/Concat521421686" type="Const" version="opset1">
			<data element_type="i64" shape="3" offset="415776" size="24"/>
			<output>
				<port id="0" precision="I64">
					<dim>3</dim>
				</port>
			</output>
		</layer>
		<layer id="303" name="Slice_125/Const5208520921425" type="Const" version="opset1">
			<data element_type="i64" shape="1" offset="151552" size="8"/>
			<output>
				<port id="0" precision="I64">
					<dim>1</dim>
				</port>
			</output>
		</layer>
		<layer id="304" name="Slice_125/Const5210521121413" type="Const" version="opset1">
			<data element_type="i64" shape="1" offset="151552" size="8"/>
			<output>
				<port id="0" precision="I64">
					<dim>1</dim>
				</port>
			</output>
		</layer>
		<layer id="305" name="Unsqueeze_123/Dims" type="Const" version="opset1">
			<data element_type="i64" shape="1" offset="151552" size="8"/>
			<output>
				<port id="0" precision="I64">
					<dim>1</dim>
				</port>
			</output>
		</layer>
		<layer id="306" name="Unsqueeze_123/Unsqueeze" type="Unsqueeze" version="opset1">
			<input>
				<port id="0" precision="I64"/>
				<port id="1" precision="I64">
					<dim>1</dim>
				</port>
			</input>
			<output>
				<port id="2" precision="I64" names="567">
					<dim>1</dim>
				</port>
			</output>
		</layer>
		<layer id="307" name="Slice_125/Clamp5193" type="Clamp" version="opset1">
			<data min="-2147483648" max="2147483647"/>
			<input>
				<port id="0" precision="I64">
					<dim>1</dim>
				</port>
			</input>
			<output>
				<port id="1" precision="I64">
					<dim>1</dim>
				</port>
			</output>
		</layer>
		<layer id="308" name="Slice_125/Gather5201_input_port_1/value520321872" type="Const" version="opset1">
			<data element_type="i32" shape="1" offset="415804" size="4"/>
			<output>
				<port id="0" precision="I32">
					<dim>1</dim>
				</port>
			</output>
		</layer>
		<layer id="309" name="Slice_125/Gather5201_input_port_2/value520521788" type="Const" version="opset1">
			<data element_type="i64" shape="" offset="151552" size="8"/>
			<output>
				<port id="0" precision="I64"/>
			</output>
		</layer>
		<layer id="310" name="Slice_125/Gather5201" type="Gather" version="opset7">
			<data batch_dims="0"/>
			<input>
				<port id="0" precision="I64">
					<dim>1</dim>
				</port>
				<port id="1" precision="I32">
					<dim>1</dim>
				</port>
				<port id="2" precision="I64"/>
			</input>
			<output>
				<port id="3" precision="I64">
					<dim>1</dim>
				</port>
			</output>
		</layer>
		<layer id="311" name="Slice_125/End" type="Concat" version="opset1">
			<data axis="0"/>
			<input>
				<port id="0" precision="I64">
					<dim>1</dim>
				</port>
				<port id="1" precision="I64">
					<dim>1</dim>
				</port>
				<port id="2" precision="I64">
					<dim>1</dim>
				</port>
			</input>
			<output>
				<port id="3" precision="I64">
					<dim>3</dim>
				</port>
			</output>
		</layer>
		<layer id="312" name="Slice_125/Strides521621410" type="Const" version="opset1">
			<data element_type="i64" shape="3" offset="415808" size="24"/>
			<output>
				<port id="0" precision="I64">
					<dim>3</dim>
				</port>
			</output>
		</layer>
		<layer id="313" name="Slice_125" type="StridedSlice" version="opset1">
			<data begin_mask="1, 1, 0" end_mask="1, 1, 0" new_axis_mask="0, 0, 0" shrink_axis_mask="0, 0, 0" ellipsis_mask="0, 0, 0"/>
			<input>
				<port id="0" precision="FP32">
					<dim>1</dim>
					<dim>256</dim>
					<dim>242</dim>
				</port>
				<port id="1" precision="I64">
					<dim>3</dim>
				</port>
				<port id="2" precision="I64">
					<dim>3</dim>
				</port>
				<port id="3" precision="I64">
					<dim>3</dim>
				</port>
			</input>
			<output>
				<port id="4" precision="FP32" names="570">
					<dim>1</dim>
					<dim>256</dim>
					<dim>241</dim>
				</port>
			</output>
		</layer>
		<layer id="314" name="Concat_126" type="Concat" version="opset1">
			<data axis="1"/>
			<input>
				<port id="0" precision="FP32">
					<dim>1</dim>
					<dim>256</dim>
					<dim>241</dim>
				</port>
				<port id="1" precision="FP32">
					<dim>1</dim>
					<dim>256</dim>
					<dim>241</dim>
				</port>
				<port id="2" precision="FP32">
					<dim>1</dim>
					<dim>256</dim>
					<dim>241</dim>
				</port>
				<port id="3" precision="FP32">
					<dim>1</dim>
					<dim>256</dim>
					<dim>241</dim>
				</port>
				<port id="4" precision="FP32">
					<dim>1</dim>
					<dim>256</dim>
					<dim>241</dim>
				</port>
				<port id="5" precision="FP32">
					<dim>1</dim>
					<dim>256</dim>
					<dim>241</dim>
				</port>
				<port id="6" precision="FP32">
					<dim>1</dim>
					<dim>256</dim>
					<dim>241</dim>
				</port>
				<port id="7" precision="FP32">
					<dim>1</dim>
					<dim>256</dim>
					<dim>241</dim>
				</port>
				<port id="8" precision="FP32">
					<dim>1</dim>
					<dim>256</dim>
					<dim>241</dim>
				</port>
				<port id="9" precision="FP32">
					<dim>1</dim>
					<dim>256</dim>
					<dim>241</dim>
				</port>
				<port id="10" precision="FP32">
					<dim>1</dim>
					<dim>256</dim>
					<dim>241</dim>
				</port>
				<port id="11" precision="FP32">
					<dim>1</dim>
					<dim>256</dim>
					<dim>241</dim>
				</port>
				<port id="12" precision="FP32">
					<dim>1</dim>
					<dim>256</dim>
					<dim>241</dim>
				</port>
				<port id="13" precision="FP32">
					<dim>1</dim>
					<dim>256</dim>
					<dim>241</dim>
				</port>
				<port id="14" precision="FP32">
					<dim>1</dim>
					<dim>256</dim>
					<dim>241</dim>
				</port>
				<port id="15" precision="FP32">
					<dim>1</dim>
					<dim>256</dim>
					<dim>241</dim>
				</port>
			</input>
			<output>
				<port id="16" precision="FP32" names="571">
					<dim>1</dim>
					<dim>4096</dim>
					<dim>241</dim>
				</port>
			</output>
		</layer>
		<layer id="315" name="Unsqueeze_127/Dims" type="Const" version="opset1">
			<data element_type="i64" shape="1" offset="35835992" size="8"/>
			<output>
				<port id="0" precision="I64">
					<dim>1</dim>
				</port>
			</output>
		</layer>
		<layer id="316" name="Unsqueeze_127/Unsqueeze" type="Unsqueeze" version="opset1">
			<input>
				<port id="0" precision="FP32">
					<dim>1</dim>
					<dim>4096</dim>
					<dim>241</dim>
				</port>
				<port id="1" precision="I64">
					<dim>1</dim>
				</port>
			</input>
			<output>
				<port id="2" precision="FP32" names="572">
					<dim>1</dim>
					<dim>4096</dim>
					<dim>241</dim>
					<dim>1</dim>
				</port>
			</output>
		</layer>
		<layer id="317" name="MaxPool_128" type="MaxPool" version="opset1">
			<data strides="1, 1" pads_begin="1, 0" pads_end="1, 0" kernel="2, 1" rounding_type="floor" auto_pad="explicit"/>
			<input>
				<port id="0" precision="FP32">
					<dim>1</dim>
					<dim>4096</dim>
					<dim>241</dim>
					<dim>1</dim>
				</port>
			</input>
			<output>
				<port id="1" precision="FP32" names="573">
					<dim>1</dim>
					<dim>4096</dim>
					<dim>242</dim>
					<dim>1</dim>
				</port>
			</output>
		</layer>
		<layer id="318" name="Squeeze_129/Dims" type="Const" version="opset1">
			<data element_type="i64" shape="1" offset="35835992" size="8"/>
			<output>
				<port id="0" precision="I64">
					<dim>1</dim>
				</port>
			</output>
		</layer>
		<layer id="319" name="Squeeze_129" type="Squeeze" version="opset1">
			<input>
				<port id="0" precision="FP32">
					<dim>1</dim>
					<dim>4096</dim>
					<dim>242</dim>
					<dim>1</dim>
				</port>
				<port id="1" precision="I64">
					<dim>1</dim>
				</port>
			</input>
			<output>
				<port id="2" precision="FP32" names="574">
					<dim>1</dim>
					<dim>4096</dim>
					<dim>242</dim>
				</port>
			</output>
		</layer>
		<layer id="320" name="Slice_132/Concat525821584" type="Const" version="opset1">
			<data element_type="i64" shape="3" offset="415776" size="24"/>
			<output>
				<port id="0" precision="I64">
					<dim>3</dim>
				</port>
			</output>
		</layer>
		<layer id="321" name="Slice_132/Const5252525321785" type="Const" version="opset1">
			<data element_type="i64" shape="1" offset="151552" size="8"/>
			<output>
				<port id="0" precision="I64">
					<dim>1</dim>
				</port>
			</output>
		</layer>
		<layer id="322" name="Slice_132/Const5254525521761" type="Const" version="opset1">
			<data element_type="i64" shape="1" offset="151552" size="8"/>
			<output>
				<port id="0" precision="I64">
					<dim>1</dim>
				</port>
			</output>
		</layer>
		<layer id="323" name="Unsqueeze_130/Dims" type="Const" version="opset1">
			<data element_type="i64" shape="1" offset="151552" size="8"/>
			<output>
				<port id="0" precision="I64">
					<dim>1</dim>
				</port>
			</output>
		</layer>
		<layer id="324" name="Unsqueeze_130/Unsqueeze" type="Unsqueeze" version="opset1">
			<input>
				<port id="0" precision="I64"/>
				<port id="1" precision="I64">
					<dim>1</dim>
				</port>
			</input>
			<output>
				<port id="2" precision="I64" names="578">
					<dim>1</dim>
				</port>
			</output>
		</layer>
		<layer id="325" name="Slice_132/Clamp5237" type="Clamp" version="opset1">
			<data min="-2147483648" max="2147483647"/>
			<input>
				<port id="0" precision="I64">
					<dim>1</dim>
				</port>
			</input>
			<output>
				<port id="1" precision="I64">
					<dim>1</dim>
				</port>
			</output>
		</layer>
		<layer id="326" name="Slice_132/Gather5245_input_port_1/value524721476" type="Const" version="opset1">
			<data element_type="i32" shape="1" offset="415804" size="4"/>
			<output>
				<port id="0" precision="I32">
					<dim>1</dim>
				</port>
			</output>
		</layer>
		<layer id="327" name="Slice_132/Gather5245_input_port_2/value524921200" type="Const" version="opset1">
			<data element_type="i64" shape="" offset="151552" size="8"/>
			<output>
				<port id="0" precision="I64"/>
			</output>
		</layer>
		<layer id="328" name="Slice_132/Gather5245" type="Gather" version="opset7">
			<data batch_dims="0"/>
			<input>
				<port id="0" precision="I64">
					<dim>1</dim>
				</port>
				<port id="1" precision="I32">
					<dim>1</dim>
				</port>
				<port id="2" precision="I64"/>
			</input>
			<output>
				<port id="3" precision="I64">
					<dim>1</dim>
				</port>
			</output>
		</layer>
		<layer id="329" name="Slice_132/End" type="Concat" version="opset1">
			<data axis="0"/>
			<input>
				<port id="0" precision="I64">
					<dim>1</dim>
				</port>
				<port id="1" precision="I64">
					<dim>1</dim>
				</port>
				<port id="2" precision="I64">
					<dim>1</dim>
				</port>
			</input>
			<output>
				<port id="3" precision="I64">
					<dim>3</dim>
				</port>
			</output>
		</layer>
		<layer id="330" name="Slice_132/Strides526021536" type="Const" version="opset1">
			<data element_type="i64" shape="3" offset="415808" size="24"/>
			<output>
				<port id="0" precision="I64">
					<dim>3</dim>
				</port>
			</output>
		</layer>
		<layer id="331" name="Slice_132" type="StridedSlice" version="opset1">
			<data begin_mask="1, 1, 0" end_mask="1, 1, 0" new_axis_mask="0, 0, 0" shrink_axis_mask="0, 0, 0" ellipsis_mask="0, 0, 0"/>
			<input>
				<port id="0" precision="FP32">
					<dim>1</dim>
					<dim>4096</dim>
					<dim>242</dim>
				</port>
				<port id="1" precision="I64">
					<dim>3</dim>
				</port>
				<port id="2" precision="I64">
					<dim>3</dim>
				</port>
				<port id="3" precision="I64">
					<dim>3</dim>
				</port>
			</input>
			<output>
				<port id="4" precision="FP32" names="581">
					<dim>1</dim>
					<dim>4096</dim>
					<dim>241</dim>
				</port>
			</output>
		</layer>
		<layer id="332" name="model.prenet.cbhg.conv_project1.conv.weight" type="Const" version="opset1">
			<data element_type="f32" shape="256, 4096, 3" offset="35836000" size="12582912"/>
			<output>
				<port id="0" precision="FP32" names="model.prenet.cbhg.conv_project1.conv.weight">
					<dim>256</dim>
					<dim>4096</dim>
					<dim>3</dim>
				</port>
			</output>
		</layer>
		<layer id="333" name="Conv_133" type="Convolution" version="opset1">
			<data strides="1" dilations="1" pads_begin="1" pads_end="1" auto_pad="explicit"/>
			<input>
				<port id="0" precision="FP32">
					<dim>1</dim>
					<dim>4096</dim>
					<dim>241</dim>
				</port>
				<port id="1" precision="FP32">
					<dim>256</dim>
					<dim>4096</dim>
					<dim>3</dim>
				</port>
			</input>
			<output>
				<port id="2" precision="FP32" names="582">
					<dim>1</dim>
					<dim>256</dim>
					<dim>241</dim>
				</port>
			</output>
		</layer>
		<layer id="334" name="Relu_134" type="ReLU" version="opset1">
			<input>
				<port id="0" precision="FP32">
					<dim>1</dim>
					<dim>256</dim>
					<dim>241</dim>
				</port>
			</input>
			<output>
				<port id="1" precision="FP32" names="583">
					<dim>1</dim>
					<dim>256</dim>
					<dim>241</dim>
				</port>
			</output>
		</layer>
		<layer id="335" name="data_mul_89948998" type="Const" version="opset1">
			<data element_type="f32" shape="1, 256, 1" offset="48418912" size="1024"/>
			<output>
				<port id="0" precision="FP32">
					<dim>1</dim>
					<dim>256</dim>
					<dim>1</dim>
				</port>
			</output>
		</layer>
		<layer id="336" name="BatchNormalization_135/mean/Fused_Mul_" type="Multiply" version="opset1">
			<data auto_broadcast="numpy"/>
			<input>
				<port id="0" precision="FP32">
					<dim>1</dim>
					<dim>256</dim>
					<dim>241</dim>
				</port>
				<port id="1" precision="FP32">
					<dim>1</dim>
					<dim>256</dim>
					<dim>1</dim>
				</port>
			</input>
			<output>
				<port id="2" precision="FP32">
					<dim>1</dim>
					<dim>256</dim>
					<dim>241</dim>
				</port>
			</output>
		</layer>
		<layer id="337" name="data_add_89959000" type="Const" version="opset1">
			<data element_type="f32" shape="1, 256, 1" offset="48419936" size="1024"/>
			<output>
				<port id="0" precision="FP32">
					<dim>1</dim>
					<dim>256</dim>
					<dim>1</dim>
				</port>
			</output>
		</layer>
		<layer id="338" name="BatchNormalization_135/variance/Fused_Add_" type="Add" version="opset1">
			<data auto_broadcast="numpy"/>
			<input>
				<port id="0" precision="FP32">
					<dim>1</dim>
					<dim>256</dim>
					<dim>241</dim>
				</port>
				<port id="1" precision="FP32">
					<dim>1</dim>
					<dim>256</dim>
					<dim>1</dim>
				</port>
			</input>
			<output>
				<port id="2" precision="FP32" names="584">
					<dim>1</dim>
					<dim>256</dim>
					<dim>241</dim>
				</port>
			</output>
		</layer>
		<layer id="339" name="BatchNormalization_137/mean/Fused_Mul__copy" type="Const" version="opset1">
			<data element_type="f32" shape="256, 256, 3" offset="48420960" size="786432"/>
			<output>
				<port id="0" precision="FP32" names="model.prenet.cbhg.conv_project2.conv.weight">
					<dim>256</dim>
					<dim>256</dim>
					<dim>3</dim>
				</port>
			</output>
		</layer>
		<layer id="340" name="Conv_136" type="Convolution" version="opset1">
			<data strides="1" dilations="1" pads_begin="1" pads_end="1" auto_pad="explicit"/>
			<input>
				<port id="0" precision="FP32">
					<dim>1</dim>
					<dim>256</dim>
					<dim>241</dim>
				</port>
				<port id="1" precision="FP32">
					<dim>256</dim>
					<dim>256</dim>
					<dim>3</dim>
				</port>
			</input>
			<output>
				<port id="2" precision="FP32">
					<dim>1</dim>
					<dim>256</dim>
					<dim>241</dim>
				</port>
			</output>
		</layer>
		<layer id="341" name="data_add_90039008" type="Const" version="opset1">
			<data element_type="f32" shape="1, 256, 1" offset="49207392" size="1024"/>
			<output>
				<port id="0" precision="FP32">
					<dim>1</dim>
					<dim>256</dim>
					<dim>1</dim>
				</port>
			</output>
		</layer>
		<layer id="342" name="BatchNormalization_137/variance/Fused_Add_" type="Add" version="opset1">
			<data auto_broadcast="numpy"/>
			<input>
				<port id="0" precision="FP32">
					<dim>1</dim>
					<dim>256</dim>
					<dim>241</dim>
				</port>
				<port id="1" precision="FP32">
					<dim>1</dim>
					<dim>256</dim>
					<dim>1</dim>
				</port>
			</input>
			<output>
				<port id="2" precision="FP32" names="586">
					<dim>1</dim>
					<dim>256</dim>
					<dim>241</dim>
				</port>
			</output>
		</layer>
		<layer id="343" name="Add_138" type="Add" version="opset1">
			<data auto_broadcast="numpy"/>
			<input>
				<port id="0" precision="FP32">
					<dim>1</dim>
					<dim>256</dim>
					<dim>241</dim>
				</port>
				<port id="1" precision="FP32">
					<dim>1</dim>
					<dim>256</dim>
					<dim>241</dim>
				</port>
			</input>
			<output>
				<port id="2" precision="FP32" names="587">
					<dim>1</dim>
					<dim>256</dim>
					<dim>241</dim>
				</port>
			</output>
		</layer>
		<layer id="344" name="377" type="Const" version="opset1">
			<data element_type="i64" shape="3" offset="151560" size="24"/>
			<output>
				<port id="0" precision="I64">
					<dim>3</dim>
				</port>
			</output>
		</layer>
		<layer id="345" name="Transpose_139" type="Transpose" version="opset1">
			<input>
				<port id="0" precision="FP32">
					<dim>1</dim>
					<dim>256</dim>
					<dim>241</dim>
				</port>
				<port id="1" precision="I64">
					<dim>3</dim>
				</port>
			</input>
			<output>
				<port id="2" precision="FP32" names="588">
					<dim>1</dim>
					<dim>241</dim>
					<dim>256</dim>
				</port>
			</output>
		</layer>
		<layer id="346" name="855" type="Const" version="opset1">
			<data element_type="f32" shape="256, 256" offset="49208416" size="262144"/>
			<output>
				<port id="0" precision="FP32" names="855">
					<dim>256</dim>
					<dim>256</dim>
				</port>
			</output>
		</layer>
		<layer id="347" name="MatMul_142" type="MatMul" version="opset1">
			<data transpose_a="false" transpose_b="true"/>
			<input>
				<port id="0" precision="FP32">
					<dim>1</dim>
					<dim>241</dim>
					<dim>256</dim>
				</port>
				<port id="1" precision="FP32">
					<dim>256</dim>
					<dim>256</dim>
				</port>
			</input>
			<output>
				<port id="2" precision="FP32" names="593">
					<dim>1</dim>
					<dim>241</dim>
					<dim>256</dim>
				</port>
			</output>
		</layer>
		<layer id="348" name="model.prenet.cbhg.highways.0.W2.bias" type="Const" version="opset1">
			<data element_type="f32" shape="1, 1, 256" offset="49470560" size="1024"/>
			<output>
				<port id="0" precision="FP32" names="model.prenet.cbhg.highways.0.W2.bias">
					<dim>1</dim>
					<dim>1</dim>
					<dim>256</dim>
				</port>
			</output>
		</layer>
		<layer id="349" name="Add_143" type="Add" version="opset1">
			<data auto_broadcast="numpy"/>
			<input>
				<port id="0" precision="FP32">
					<dim>1</dim>
					<dim>241</dim>
					<dim>256</dim>
				</port>
				<port id="1" precision="FP32">
					<dim>1</dim>
					<dim>1</dim>
					<dim>256</dim>
				</port>
			</input>
			<output>
				<port id="2" precision="FP32" names="594">
					<dim>1</dim>
					<dim>241</dim>
					<dim>256</dim>
				</port>
			</output>
		</layer>
		<layer id="350" name="Sigmoid_144" type="Sigmoid" version="opset1">
			<input>
				<port id="0" precision="FP32">
					<dim>1</dim>
					<dim>241</dim>
					<dim>256</dim>
				</port>
			</input>
			<output>
				<port id="1" precision="FP32">
					<dim>1</dim>
					<dim>241</dim>
					<dim>256</dim>
				</port>
			</output>
		</layer>
		<layer id="351" name="854" type="Const" version="opset1">
			<data element_type="f32" shape="256, 256" offset="49471584" size="262144"/>
			<output>
				<port id="0" precision="FP32" names="854">
					<dim>256</dim>
					<dim>256</dim>
				</port>
			</output>
		</layer>
		<layer id="352" name="MatMul_140" type="MatMul" version="opset1">
			<data transpose_a="false" transpose_b="true"/>
			<input>
				<port id="0" precision="FP32">
					<dim>1</dim>
					<dim>241</dim>
					<dim>256</dim>
				</port>
				<port id="1" precision="FP32">
					<dim>256</dim>
					<dim>256</dim>
				</port>
			</input>
			<output>
				<port id="2" precision="FP32" names="590">
					<dim>1</dim>
					<dim>241</dim>
					<dim>256</dim>
				</port>
			</output>
		</layer>
		<layer id="353" name="model.prenet.cbhg.highways.0.W1.bias" type="Const" version="opset1">
			<data element_type="f32" shape="1, 1, 256" offset="49733728" size="1024"/>
			<output>
				<port id="0" precision="FP32" names="model.prenet.cbhg.highways.0.W1.bias">
					<dim>1</dim>
					<dim>1</dim>
					<dim>256</dim>
				</port>
			</output>
		</layer>
		<layer id="354" name="Add_141" type="Add" version="opset1">
			<data auto_broadcast="numpy"/>
			<input>
				<port id="0" precision="FP32">
					<dim>1</dim>
					<dim>241</dim>
					<dim>256</dim>
				</port>
				<port id="1" precision="FP32">
					<dim>1</dim>
					<dim>1</dim>
					<dim>256</dim>
				</port>
			</input>
			<output>
				<port id="2" precision="FP32" names="591">
					<dim>1</dim>
					<dim>241</dim>
					<dim>256</dim>
				</port>
			</output>
		</layer>
		<layer id="355" name="Relu_145" type="ReLU" version="opset1">
			<input>
				<port id="0" precision="FP32">
					<dim>1</dim>
					<dim>241</dim>
					<dim>256</dim>
				</port>
			</input>
			<output>
				<port id="1" precision="FP32" names="596">
					<dim>1</dim>
					<dim>241</dim>
					<dim>256</dim>
				</port>
			</output>
		</layer>
		<layer id="356" name="Mul_146" type="Multiply" version="opset1">
			<data auto_broadcast="numpy"/>
			<input>
				<port id="0" precision="FP32">
					<dim>1</dim>
					<dim>241</dim>
					<dim>256</dim>
				</port>
				<port id="1" precision="FP32">
					<dim>1</dim>
					<dim>241</dim>
					<dim>256</dim>
				</port>
			</input>
			<output>
				<port id="2" precision="FP32" names="597">
					<dim>1</dim>
					<dim>241</dim>
					<dim>256</dim>
				</port>
			</output>
		</layer>
		<layer id="357" name="Constant_147" type="Const" version="opset1">
			<data element_type="f32" shape="1, 1, 1" offset="49734752" size="4"/>
			<output>
				<port id="0" precision="FP32" names="598">
					<dim>1</dim>
					<dim>1</dim>
					<dim>1</dim>
				</port>
			</output>
		</layer>
		<layer id="358" name="Sub_148/sub" type="Subtract" version="opset1">
			<data auto_broadcast="numpy"/>
			<input>
				<port id="0" precision="FP32">
					<dim>1</dim>
					<dim>1</dim>
					<dim>1</dim>
				</port>
				<port id="1" precision="FP32">
					<dim>1</dim>
					<dim>241</dim>
					<dim>256</dim>
				</port>
			</input>
			<output>
				<port id="2" precision="FP32" names="599">
					<dim>1</dim>
					<dim>241</dim>
					<dim>256</dim>
				</port>
			</output>
		</layer>
		<layer id="359" name="Mul_149" type="Multiply" version="opset1">
			<data auto_broadcast="numpy"/>
			<input>
				<port id="0" precision="FP32">
					<dim>1</dim>
					<dim>241</dim>
					<dim>256</dim>
				</port>
				<port id="1" precision="FP32">
					<dim>1</dim>
					<dim>241</dim>
					<dim>256</dim>
				</port>
			</input>
			<output>
				<port id="2" precision="FP32" names="600">
					<dim>1</dim>
					<dim>241</dim>
					<dim>256</dim>
				</port>
			</output>
		</layer>
		<layer id="360" name="Add_150" type="Add" version="opset1">
			<data auto_broadcast="numpy"/>
			<input>
				<port id="0" precision="FP32">
					<dim>1</dim>
					<dim>241</dim>
					<dim>256</dim>
				</port>
				<port id="1" precision="FP32">
					<dim>1</dim>
					<dim>241</dim>
					<dim>256</dim>
				</port>
			</input>
			<output>
				<port id="2" precision="FP32" names="601">
					<dim>1</dim>
					<dim>241</dim>
					<dim>256</dim>
				</port>
			</output>
		</layer>
		<layer id="361" name="857" type="Const" version="opset1">
			<data element_type="f32" shape="256, 256" offset="49734756" size="262144"/>
			<output>
				<port id="0" precision="FP32" names="857">
					<dim>256</dim>
					<dim>256</dim>
				</port>
			</output>
		</layer>
		<layer id="362" name="MatMul_153" type="MatMul" version="opset1">
			<data transpose_a="false" transpose_b="true"/>
			<input>
				<port id="0" precision="FP32">
					<dim>1</dim>
					<dim>241</dim>
					<dim>256</dim>
				</port>
				<port id="1" precision="FP32">
					<dim>256</dim>
					<dim>256</dim>
				</port>
			</input>
			<output>
				<port id="2" precision="FP32" names="606">
					<dim>1</dim>
					<dim>241</dim>
					<dim>256</dim>
				</port>
			</output>
		</layer>
		<layer id="363" name="model.prenet.cbhg.highways.1.W2.bias" type="Const" version="opset1">
			<data element_type="f32" shape="1, 1, 256" offset="49996900" size="1024"/>
			<output>
				<port id="0" precision="FP32" names="model.prenet.cbhg.highways.1.W2.bias">
					<dim>1</dim>
					<dim>1</dim>
					<dim>256</dim>
				</port>
			</output>
		</layer>
		<layer id="364" name="Add_154" type="Add" version="opset1">
			<data auto_broadcast="numpy"/>
			<input>
				<port id="0" precision="FP32">
					<dim>1</dim>
					<dim>241</dim>
					<dim>256</dim>
				</port>
				<port id="1" precision="FP32">
					<dim>1</dim>
					<dim>1</dim>
					<dim>256</dim>
				</port>
			</input>
			<output>
				<port id="2" precision="FP32" names="607">
					<dim>1</dim>
					<dim>241</dim>
					<dim>256</dim>
				</port>
			</output>
		</layer>
		<layer id="365" name="Sigmoid_155" type="Sigmoid" version="opset1">
			<input>
				<port id="0" precision="FP32">
					<dim>1</dim>
					<dim>241</dim>
					<dim>256</dim>
				</port>
			</input>
			<output>
				<port id="1" precision="FP32">
					<dim>1</dim>
					<dim>241</dim>
					<dim>256</dim>
				</port>
			</output>
		</layer>
		<layer id="366" name="856" type="Const" version="opset1">
			<data element_type="f32" shape="256, 256" offset="49997924" size="262144"/>
			<output>
				<port id="0" precision="FP32" names="856">
					<dim>256</dim>
					<dim>256</dim>
				</port>
			</output>
		</layer>
		<layer id="367" name="MatMul_151" type="MatMul" version="opset1">
			<data transpose_a="false" transpose_b="true"/>
			<input>
				<port id="0" precision="FP32">
					<dim>1</dim>
					<dim>241</dim>
					<dim>256</dim>
				</port>
				<port id="1" precision="FP32">
					<dim>256</dim>
					<dim>256</dim>
				</port>
			</input>
			<output>
				<port id="2" precision="FP32" names="603">
					<dim>1</dim>
					<dim>241</dim>
					<dim>256</dim>
				</port>
			</output>
		</layer>
		<layer id="368" name="model.prenet.cbhg.highways.1.W1.bias" type="Const" version="opset1">
			<data element_type="f32" shape="1, 1, 256" offset="50260068" size="1024"/>
			<output>
				<port id="0" precision="FP32" names="model.prenet.cbhg.highways.1.W1.bias">
					<dim>1</dim>
					<dim>1</dim>
					<dim>256</dim>
				</port>
			</output>
		</layer>
		<layer id="369" name="Add_152" type="Add" version="opset1">
			<data auto_broadcast="numpy"/>
			<input>
				<port id="0" precision="FP32">
					<dim>1</dim>
					<dim>241</dim>
					<dim>256</dim>
				</port>
				<port id="1" precision="FP32">
					<dim>1</dim>
					<dim>1</dim>
					<dim>256</dim>
				</port>
			</input>
			<output>
				<port id="2" precision="FP32" names="604">
					<dim>1</dim>
					<dim>241</dim>
					<dim>256</dim>
				</port>
			</output>
		</layer>
		<layer id="370" name="Relu_156" type="ReLU" version="opset1">
			<input>
				<port id="0" precision="FP32">
					<dim>1</dim>
					<dim>241</dim>
					<dim>256</dim>
				</port>
			</input>
			<output>
				<port id="1" precision="FP32" names="609">
					<dim>1</dim>
					<dim>241</dim>
					<dim>256</dim>
				</port>
			</output>
		</layer>
		<layer id="371" name="Mul_157" type="Multiply" version="opset1">
			<data auto_broadcast="numpy"/>
			<input>
				<port id="0" precision="FP32">
					<dim>1</dim>
					<dim>241</dim>
					<dim>256</dim>
				</port>
				<port id="1" precision="FP32">
					<dim>1</dim>
					<dim>241</dim>
					<dim>256</dim>
				</port>
			</input>
			<output>
				<port id="2" precision="FP32" names="610">
					<dim>1</dim>
					<dim>241</dim>
					<dim>256</dim>
				</port>
			</output>
		</layer>
		<layer id="372" name="Constant_158" type="Const" version="opset1">
			<data element_type="f32" shape="1, 1, 1" offset="49734752" size="4"/>
			<output>
				<port id="0" precision="FP32" names="611">
					<dim>1</dim>
					<dim>1</dim>
					<dim>1</dim>
				</port>
			</output>
		</layer>
		<layer id="373" name="Sub_159/sub" type="Subtract" version="opset1">
			<data auto_broadcast="numpy"/>
			<input>
				<port id="0" precision="FP32">
					<dim>1</dim>
					<dim>1</dim>
					<dim>1</dim>
				</port>
				<port id="1" precision="FP32">
					<dim>1</dim>
					<dim>241</dim>
					<dim>256</dim>
				</port>
			</input>
			<output>
				<port id="2" precision="FP32" names="612">
					<dim>1</dim>
					<dim>241</dim>
					<dim>256</dim>
				</port>
			</output>
		</layer>
		<layer id="374" name="Mul_160" type="Multiply" version="opset1">
			<data auto_broadcast="numpy"/>
			<input>
				<port id="0" precision="FP32">
					<dim>1</dim>
					<dim>241</dim>
					<dim>256</dim>
				</port>
				<port id="1" precision="FP32">
					<dim>1</dim>
					<dim>241</dim>
					<dim>256</dim>
				</port>
			</input>
			<output>
				<port id="2" precision="FP32" names="613">
					<dim>1</dim>
					<dim>241</dim>
					<dim>256</dim>
				</port>
			</output>
		</layer>
		<layer id="375" name="Add_161" type="Add" version="opset1">
			<data auto_broadcast="numpy"/>
			<input>
				<port id="0" precision="FP32">
					<dim>1</dim>
					<dim>241</dim>
					<dim>256</dim>
				</port>
				<port id="1" precision="FP32">
					<dim>1</dim>
					<dim>241</dim>
					<dim>256</dim>
				</port>
			</input>
			<output>
				<port id="2" precision="FP32" names="614">
					<dim>1</dim>
					<dim>241</dim>
					<dim>256</dim>
				</port>
			</output>
		</layer>
		<layer id="376" name="859" type="Const" version="opset1">
			<data element_type="f32" shape="256, 256" offset="50261092" size="262144"/>
			<output>
				<port id="0" precision="FP32" names="859">
					<dim>256</dim>
					<dim>256</dim>
				</port>
			</output>
		</layer>
		<layer id="377" name="MatMul_164" type="MatMul" version="opset1">
			<data transpose_a="false" transpose_b="true"/>
			<input>
				<port id="0" precision="FP32">
					<dim>1</dim>
					<dim>241</dim>
					<dim>256</dim>
				</port>
				<port id="1" precision="FP32">
					<dim>256</dim>
					<dim>256</dim>
				</port>
			</input>
			<output>
				<port id="2" precision="FP32" names="619">
					<dim>1</dim>
					<dim>241</dim>
					<dim>256</dim>
				</port>
			</output>
		</layer>
		<layer id="378" name="model.prenet.cbhg.highways.2.W2.bias" type="Const" version="opset1">
			<data element_type="f32" shape="1, 1, 256" offset="50523236" size="1024"/>
			<output>
				<port id="0" precision="FP32" names="model.prenet.cbhg.highways.2.W2.bias">
					<dim>1</dim>
					<dim>1</dim>
					<dim>256</dim>
				</port>
			</output>
		</layer>
		<layer id="379" name="Add_165" type="Add" version="opset1">
			<data auto_broadcast="numpy"/>
			<input>
				<port id="0" precision="FP32">
					<dim>1</dim>
					<dim>241</dim>
					<dim>256</dim>
				</port>
				<port id="1" precision="FP32">
					<dim>1</dim>
					<dim>1</dim>
					<dim>256</dim>
				</port>
			</input>
			<output>
				<port id="2" precision="FP32" names="620">
					<dim>1</dim>
					<dim>241</dim>
					<dim>256</dim>
				</port>
			</output>
		</layer>
		<layer id="380" name="Sigmoid_166" type="Sigmoid" version="opset1">
			<input>
				<port id="0" precision="FP32">
					<dim>1</dim>
					<dim>241</dim>
					<dim>256</dim>
				</port>
			</input>
			<output>
				<port id="1" precision="FP32">
					<dim>1</dim>
					<dim>241</dim>
					<dim>256</dim>
				</port>
			</output>
		</layer>
		<layer id="381" name="858" type="Const" version="opset1">
			<data element_type="f32" shape="256, 256" offset="50524260" size="262144"/>
			<output>
				<port id="0" precision="FP32" names="858">
					<dim>256</dim>
					<dim>256</dim>
				</port>
			</output>
		</layer>
		<layer id="382" name="MatMul_162" type="MatMul" version="opset1">
			<data transpose_a="false" transpose_b="true"/>
			<input>
				<port id="0" precision="FP32">
					<dim>1</dim>
					<dim>241</dim>
					<dim>256</dim>
				</port>
				<port id="1" precision="FP32">
					<dim>256</dim>
					<dim>256</dim>
				</port>
			</input>
			<output>
				<port id="2" precision="FP32" names="616">
					<dim>1</dim>
					<dim>241</dim>
					<dim>256</dim>
				</port>
			</output>
		</layer>
		<layer id="383" name="model.prenet.cbhg.highways.2.W1.bias" type="Const" version="opset1">
			<data element_type="f32" shape="1, 1, 256" offset="50786404" size="1024"/>
			<output>
				<port id="0" precision="FP32" names="model.prenet.cbhg.highways.2.W1.bias">
					<dim>1</dim>
					<dim>1</dim>
					<dim>256</dim>
				</port>
			</output>
		</layer>
		<layer id="384" name="Add_163" type="Add" version="opset1">
			<data auto_broadcast="numpy"/>
			<input>
				<port id="0" precision="FP32">
					<dim>1</dim>
					<dim>241</dim>
					<dim>256</dim>
				</port>
				<port id="1" precision="FP32">
					<dim>1</dim>
					<dim>1</dim>
					<dim>256</dim>
				</port>
			</input>
			<output>
				<port id="2" precision="FP32" names="617">
					<dim>1</dim>
					<dim>241</dim>
					<dim>256</dim>
				</port>
			</output>
		</layer>
		<layer id="385" name="Relu_167" type="ReLU" version="opset1">
			<input>
				<port id="0" precision="FP32">
					<dim>1</dim>
					<dim>241</dim>
					<dim>256</dim>
				</port>
			</input>
			<output>
				<port id="1" precision="FP32" names="622">
					<dim>1</dim>
					<dim>241</dim>
					<dim>256</dim>
				</port>
			</output>
		</layer>
		<layer id="386" name="Mul_168" type="Multiply" version="opset1">
			<data auto_broadcast="numpy"/>
			<input>
				<port id="0" precision="FP32">
					<dim>1</dim>
					<dim>241</dim>
					<dim>256</dim>
				</port>
				<port id="1" precision="FP32">
					<dim>1</dim>
					<dim>241</dim>
					<dim>256</dim>
				</port>
			</input>
			<output>
				<port id="2" precision="FP32" names="623">
					<dim>1</dim>
					<dim>241</dim>
					<dim>256</dim>
				</port>
			</output>
		</layer>
		<layer id="387" name="Constant_169" type="Const" version="opset1">
			<data element_type="f32" shape="1, 1, 1" offset="49734752" size="4"/>
			<output>
				<port id="0" precision="FP32" names="624">
					<dim>1</dim>
					<dim>1</dim>
					<dim>1</dim>
				</port>
			</output>
		</layer>
		<layer id="388" name="Sub_170/sub" type="Subtract" version="opset1">
			<data auto_broadcast="numpy"/>
			<input>
				<port id="0" precision="FP32">
					<dim>1</dim>
					<dim>1</dim>
					<dim>1</dim>
				</port>
				<port id="1" precision="FP32">
					<dim>1</dim>
					<dim>241</dim>
					<dim>256</dim>
				</port>
			</input>
			<output>
				<port id="2" precision="FP32" names="625">
					<dim>1</dim>
					<dim>241</dim>
					<dim>256</dim>
				</port>
			</output>
		</layer>
		<layer id="389" name="Mul_171" type="Multiply" version="opset1">
			<data auto_broadcast="numpy"/>
			<input>
				<port id="0" precision="FP32">
					<dim>1</dim>
					<dim>241</dim>
					<dim>256</dim>
				</port>
				<port id="1" precision="FP32">
					<dim>1</dim>
					<dim>241</dim>
					<dim>256</dim>
				</port>
			</input>
			<output>
				<port id="2" precision="FP32" names="626">
					<dim>1</dim>
					<dim>241</dim>
					<dim>256</dim>
				</port>
			</output>
		</layer>
		<layer id="390" name="Add_172" type="Add" version="opset1">
			<data auto_broadcast="numpy"/>
			<input>
				<port id="0" precision="FP32">
					<dim>1</dim>
					<dim>241</dim>
					<dim>256</dim>
				</port>
				<port id="1" precision="FP32">
					<dim>1</dim>
					<dim>241</dim>
					<dim>256</dim>
				</port>
			</input>
			<output>
				<port id="2" precision="FP32" names="627">
					<dim>1</dim>
					<dim>241</dim>
					<dim>256</dim>
				</port>
			</output>
		</layer>
		<layer id="391" name="861" type="Const" version="opset1">
			<data element_type="f32" shape="256, 256" offset="50787428" size="262144"/>
			<output>
				<port id="0" precision="FP32" names="861">
					<dim>256</dim>
					<dim>256</dim>
				</port>
			</output>
		</layer>
		<layer id="392" name="MatMul_175" type="MatMul" version="opset1">
			<data transpose_a="false" transpose_b="true"/>
			<input>
				<port id="0" precision="FP32">
					<dim>1</dim>
					<dim>241</dim>
					<dim>256</dim>
				</port>
				<port id="1" precision="FP32">
					<dim>256</dim>
					<dim>256</dim>
				</port>
			</input>
			<output>
				<port id="2" precision="FP32" names="632">
					<dim>1</dim>
					<dim>241</dim>
					<dim>256</dim>
				</port>
			</output>
		</layer>
		<layer id="393" name="model.prenet.cbhg.highways.3.W2.bias" type="Const" version="opset1">
			<data element_type="f32" shape="1, 1, 256" offset="51049572" size="1024"/>
			<output>
				<port id="0" precision="FP32" names="model.prenet.cbhg.highways.3.W2.bias">
					<dim>1</dim>
					<dim>1</dim>
					<dim>256</dim>
				</port>
			</output>
		</layer>
		<layer id="394" name="Add_176" type="Add" version="opset1">
			<data auto_broadcast="numpy"/>
			<input>
				<port id="0" precision="FP32">
					<dim>1</dim>
					<dim>241</dim>
					<dim>256</dim>
				</port>
				<port id="1" precision="FP32">
					<dim>1</dim>
					<dim>1</dim>
					<dim>256</dim>
				</port>
			</input>
			<output>
				<port id="2" precision="FP32" names="633">
					<dim>1</dim>
					<dim>241</dim>
					<dim>256</dim>
				</port>
			</output>
		</layer>
		<layer id="395" name="Sigmoid_177" type="Sigmoid" version="opset1">
			<input>
				<port id="0" precision="FP32">
					<dim>1</dim>
					<dim>241</dim>
					<dim>256</dim>
				</port>
			</input>
			<output>
				<port id="1" precision="FP32">
					<dim>1</dim>
					<dim>241</dim>
					<dim>256</dim>
				</port>
			</output>
		</layer>
		<layer id="396" name="860" type="Const" version="opset1">
			<data element_type="f32" shape="256, 256" offset="51050596" size="262144"/>
			<output>
				<port id="0" precision="FP32" names="860">
					<dim>256</dim>
					<dim>256</dim>
				</port>
			</output>
		</layer>
		<layer id="397" name="MatMul_173" type="MatMul" version="opset1">
			<data transpose_a="false" transpose_b="true"/>
			<input>
				<port id="0" precision="FP32">
					<dim>1</dim>
					<dim>241</dim>
					<dim>256</dim>
				</port>
				<port id="1" precision="FP32">
					<dim>256</dim>
					<dim>256</dim>
				</port>
			</input>
			<output>
				<port id="2" precision="FP32" names="629">
					<dim>1</dim>
					<dim>241</dim>
					<dim>256</dim>
				</port>
			</output>
		</layer>
		<layer id="398" name="model.prenet.cbhg.highways.3.W1.bias" type="Const" version="opset1">
			<data element_type="f32" shape="1, 1, 256" offset="51312740" size="1024"/>
			<output>
				<port id="0" precision="FP32" names="model.prenet.cbhg.highways.3.W1.bias">
					<dim>1</dim>
					<dim>1</dim>
					<dim>256</dim>
				</port>
			</output>
		</layer>
		<layer id="399" name="Add_174" type="Add" version="opset1">
			<data auto_broadcast="numpy"/>
			<input>
				<port id="0" precision="FP32">
					<dim>1</dim>
					<dim>241</dim>
					<dim>256</dim>
				</port>
				<port id="1" precision="FP32">
					<dim>1</dim>
					<dim>1</dim>
					<dim>256</dim>
				</port>
			</input>
			<output>
				<port id="2" precision="FP32" names="630">
					<dim>1</dim>
					<dim>241</dim>
					<dim>256</dim>
				</port>
			</output>
		</layer>
		<layer id="400" name="Relu_178" type="ReLU" version="opset1">
			<input>
				<port id="0" precision="FP32">
					<dim>1</dim>
					<dim>241</dim>
					<dim>256</dim>
				</port>
			</input>
			<output>
				<port id="1" precision="FP32" names="635">
					<dim>1</dim>
					<dim>241</dim>
					<dim>256</dim>
				</port>
			</output>
		</layer>
		<layer id="401" name="Mul_179" type="Multiply" version="opset1">
			<data auto_broadcast="numpy"/>
			<input>
				<port id="0" precision="FP32">
					<dim>1</dim>
					<dim>241</dim>
					<dim>256</dim>
				</port>
				<port id="1" precision="FP32">
					<dim>1</dim>
					<dim>241</dim>
					<dim>256</dim>
				</port>
			</input>
			<output>
				<port id="2" precision="FP32" names="636">
					<dim>1</dim>
					<dim>241</dim>
					<dim>256</dim>
				</port>
			</output>
		</layer>
		<layer id="402" name="Constant_180" type="Const" version="opset1">
			<data element_type="f32" shape="1, 1, 1" offset="49734752" size="4"/>
			<output>
				<port id="0" precision="FP32" names="637">
					<dim>1</dim>
					<dim>1</dim>
					<dim>1</dim>
				</port>
			</output>
		</layer>
		<layer id="403" name="Sub_181/sub" type="Subtract" version="opset1">
			<data auto_broadcast="numpy"/>
			<input>
				<port id="0" precision="FP32">
					<dim>1</dim>
					<dim>1</dim>
					<dim>1</dim>
				</port>
				<port id="1" precision="FP32">
					<dim>1</dim>
					<dim>241</dim>
					<dim>256</dim>
				</port>
			</input>
			<output>
				<port id="2" precision="FP32" names="638">
					<dim>1</dim>
					<dim>241</dim>
					<dim>256</dim>
				</port>
			</output>
		</layer>
		<layer id="404" name="Mul_182" type="Multiply" version="opset1">
			<data auto_broadcast="numpy"/>
			<input>
				<port id="0" precision="FP32">
					<dim>1</dim>
					<dim>241</dim>
					<dim>256</dim>
				</port>
				<port id="1" precision="FP32">
					<dim>1</dim>
					<dim>241</dim>
					<dim>256</dim>
				</port>
			</input>
			<output>
				<port id="2" precision="FP32" names="639">
					<dim>1</dim>
					<dim>241</dim>
					<dim>256</dim>
				</port>
			</output>
		</layer>
		<layer id="405" name="Add_183" type="Add" version="opset1">
			<data auto_broadcast="numpy"/>
			<input>
				<port id="0" precision="FP32">
					<dim>1</dim>
					<dim>241</dim>
					<dim>256</dim>
				</port>
				<port id="1" precision="FP32">
					<dim>1</dim>
					<dim>241</dim>
					<dim>256</dim>
				</port>
			</input>
			<output>
				<port id="2" precision="FP32" names="640">
					<dim>1</dim>
					<dim>241</dim>
					<dim>256</dim>
				</port>
			</output>
		</layer>
		<layer id="406" name="374" type="Const" version="opset1">
			<data element_type="i64" shape="3" offset="51313764" size="24"/>
			<output>
				<port id="0" precision="I64">
					<dim>3</dim>
				</port>
			</output>
		</layer>
		<layer id="407" name="Transpose_190" type="Transpose" version="opset1">
			<input>
				<port id="0" precision="FP32">
					<dim>1</dim>
					<dim>241</dim>
					<dim>256</dim>
				</port>
				<port id="1" precision="I64">
					<dim>3</dim>
				</port>
			</input>
			<output>
				<port id="2" precision="FP32" names="651">
					<dim>241</dim>
					<dim>1</dim>
					<dim>256</dim>
				</port>
			</output>
		</layer>
		<layer id="408" name="ConstantOfShape_189/Broadcast/FillValue" type="Const" version="opset1">
			<data element_type="f32" shape="1" offset="415804" size="4"/>
			<output>
				<port id="0" precision="FP32">
					<dim>1</dim>
				</port>
			</output>
		</layer>
		<layer id="409" name="862" type="Const" version="opset1">
			<data element_type="i64" shape="1" offset="51313788" size="8"/>
			<output>
				<port id="0" precision="I64" names="862">
					<dim>1</dim>
				</port>
			</output>
		</layer>
		<layer id="410" name="Shape_184" type="ShapeOf" version="opset3">
			<data output_type="i64"/>
			<input>
				<port id="0" precision="FP32">
					<dim>1</dim>
					<dim>241</dim>
					<dim>256</dim>
				</port>
			</input>
			<output>
				<port id="1" precision="I64" names="641">
					<dim>3</dim>
				</port>
			</output>
		</layer>
		<layer id="411" name="Constant_185" type="Const" version="opset1">
			<data element_type="i32" shape="" offset="415804" size="4"/>
			<output>
				<port id="0" precision="I32" names="642"/>
			</output>
		</layer>
		<layer id="412" name="Gather_186/axis" type="Const" version="opset1">
			<data element_type="i64" shape="" offset="151552" size="8"/>
			<output>
				<port id="0" precision="I64"/>
			</output>
		</layer>
		<layer id="413" name="Gather_186430" type="Gather" version="opset7">
			<data batch_dims="0"/>
			<input>
				<port id="0" precision="I64">
					<dim>3</dim>
				</port>
				<port id="1" precision="I32"/>
…
							<port id="0" precision="FP32">
								<dim>1</dim>
								<dim>64</dim>
							</port>
						</input>
					</layer>
				</layers>
				<edges>
					<edge from-layer="0" from-port="0" to-layer="7" to-port="1"/>
					<edge from-layer="1" from-port="0" to-layer="3" to-port="0"/>
					<edge from-layer="2" from-port="0" to-layer="3" to-port="1"/>
					<edge from-layer="3" from-port="2" to-layer="7" to-port="0"/>
					<edge from-layer="4" from-port="0" to-layer="7" to-port="2"/>
					<edge from-layer="5" from-port="0" to-layer="7" to-port="3"/>
					<edge from-layer="6" from-port="0" to-layer="7" to-port="4"/>
					<edge from-layer="7" from-port="5" to-layer="9" to-port="0"/>
					<edge from-layer="7" from-port="5" to-layer="11" to-port="0"/>
					<edge from-layer="8" from-port="0" to-layer="9" to-port="1"/>
					<edge from-layer="9" from-port="2" to-layer="10" to-port="0"/>
				</edges>
			</body>
		</layer>
		<layer id="513" name="345821227" type="Const" version="opset1">
			<data element_type="i64" shape="1" offset="151552" size="8"/>
			<output>
				<port id="0" precision="I64">
					<dim>1</dim>
				</port>
			</output>
		</layer>
		<layer id="514" name="GRU_19/Split/reverse/UnsqueezeNumDirections/1" type="Unsqueeze" version="opset1">
			<input>
				<port id="0" precision="FP32">
					<dim>1</dim>
					<dim>64</dim>
				</port>
				<port id="1" precision="I64">
					<dim>1</dim>
				</port>
			</input>
			<output>
				<port id="2" precision="FP32">
					<dim>1</dim>
					<dim>1</dim>
					<dim>64</dim>
				</port>
			</output>
		</layer>
		<layer id="515" name="GRU_19/FinalConcat/HiddenState" type="Concat" version="opset1">
			<data axis="0"/>
			<input>
				<port id="0" precision="FP32">
					<dim>1</dim>
					<dim>1</dim>
					<dim>64</dim>
				</port>
				<port id="1" precision="FP32">
					<dim>1</dim>
					<dim>1</dim>
					<dim>64</dim>
				</port>
			</input>
			<output>
				<port id="2" precision="FP32">
					<dim>2</dim>
					<dim>1</dim>
					<dim>64</dim>
				</port>
			</output>
		</layer>
		<layer id="516" name="GRU_19/FinalConcat/HiddenState/sink_port_0" type="Result" version="opset1">
			<input>
				<port id="0" precision="FP32">
					<dim>2</dim>
					<dim>1</dim>
					<dim>64</dim>
				</port>
			</input>
		</layer>
		<layer id="517" name="347821236" type="Const" version="opset1">
			<data element_type="i64" shape="1" offset="52890768" size="8"/>
			<output>
				<port id="0" precision="I64">
					<dim>1</dim>
				</port>
			</output>
		</layer>
		<layer id="518" name="GRU_19/Split/forward/UnsqueezeNumDirections/0" type="Unsqueeze" version="opset1">
			<input>
				<port id="0" precision="FP32">
					<dim>241</dim>
					<dim>1</dim>
					<dim>64</dim>
				</port>
				<port id="1" precision="I64">
					<dim>1</dim>
				</port>
			</input>
			<output>
				<port id="2" precision="FP32">
					<dim>241</dim>
					<dim>1</dim>
					<dim>1</dim>
					<dim>64</dim>
				</port>
			</output>
		</layer>
		<layer id="519" name="345421773" type="Const" version="opset1">
			<data element_type="i64" shape="1" offset="52890768" size="8"/>
			<output>
				<port id="0" precision="I64">
					<dim>1</dim>
				</port>
			</output>
		</layer>
		<layer id="520" name="GRU_19/Split/reverse/UnsqueezeNumDirections/0" type="Unsqueeze" version="opset1">
			<input>
				<port id="0" precision="FP32">
					<dim>241</dim>
					<dim>1</dim>
					<dim>64</dim>
				</port>
				<port id="1" precision="I64">
					<dim>1</dim>
				</port>
			</input>
			<output>
				<port id="2" precision="FP32">
					<dim>241</dim>
					<dim>1</dim>
					<dim>1</dim>
					<dim>64</dim>
				</port>
			</output>
		</layer>
		<layer id="521" name="GRU_19/FinalConcat/Data" type="Concat" version="opset1">
			<data axis="1"/>
			<input>
				<port id="0" precision="FP32">
					<dim>241</dim>
					<dim>1</dim>
					<dim>1</dim>
					<dim>64</dim>
				</port>
				<port id="1" precision="FP32">
					<dim>241</dim>
					<dim>1</dim>
					<dim>1</dim>
					<dim>64</dim>
				</port>
			</input>
			<output>
				<port id="2" precision="FP32" names="398">
					<dim>241</dim>
					<dim>2</dim>
					<dim>1</dim>
					<dim>64</dim>
				</port>
			</output>
		</layer>
		<layer id="522" name="370" type="Const" version="opset1">
			<data element_type="i64" shape="4" offset="54467736" size="32"/>
			<output>
				<port id="0" precision="I64">
					<dim>4</dim>
				</port>
			</output>
		</layer>
		<layer id="523" name="Transpose_20" type="Transpose" version="opset1">
			<input>
				<port id="0" precision="FP32">
					<dim>241</dim>
					<dim>2</dim>
					<dim>1</dim>
					<dim>64</dim>
				</port>
				<port id="1" precision="I64">
					<dim>4</dim>
				</port>
			</input>
			<output>
				<port id="2" precision="FP32" names="400">
					<dim>241</dim>
					<dim>1</dim>
					<dim>2</dim>
					<dim>64</dim>
				</port>
			</output>
		</layer>
		<layer id="524" name="Constant_21" type="Const" version="opset1">
			<data element_type="i64" shape="3" offset="54467768" size="24"/>
			<output>
				<port id="0" precision="I64" names="401">
					<dim>3</dim>
				</port>
			</output>
		</layer>
		<layer id="525" name="Reshape_22" type="Reshape" version="opset1">
			<data special_zero="true"/>
			<input>
				<port id="0" precision="FP32">
					<dim>241</dim>
					<dim>1</dim>
					<dim>2</dim>
					<dim>64</dim>
				</port>
				<port id="1" precision="I64">
					<dim>3</dim>
				</port>
			</input>
			<output>
				<port id="2" precision="FP32" names="402">
					<dim>241</dim>
					<dim>1</dim>
					<dim>128</dim>
				</port>
			</output>
		</layer>
		<layer id="526" name="376" type="Const" version="opset1">
			<data element_type="i64" shape="3" offset="51313764" size="24"/>
			<output>
				<port id="0" precision="I64">
					<dim>3</dim>
				</port>
			</output>
		</layer>
		<layer id="527" name="Transpose_23" type="Transpose" version="opset1">
			<input>
				<port id="0" precision="FP32">
					<dim>241</dim>
					<dim>1</dim>
					<dim>128</dim>
				</port>
				<port id="1" precision="I64">
					<dim>3</dim>
				</port>
			</input>
			<output>
				<port id="2" precision="FP32" names="403">
					<dim>1</dim>
					<dim>241</dim>
					<dim>128</dim>
				</port>
			</output>
		</layer>
		<layer id="528" name="819" type="Const" version="opset1">
			<data element_type="f32" shape="1, 128" offset="58899696" size="512"/>
			<output>
				<port id="0" precision="FP32" names="819">
					<dim>1</dim>
					<dim>128</dim>
				</port>
			</output>
		</layer>
		<layer id="529" name="MatMul_24" type="MatMul" version="opset1">
			<data transpose_a="false" transpose_b="true"/>
			<input>
				<port id="0" precision="FP32">
					<dim>1</dim>
					<dim>241</dim>
					<dim>128</dim>
				</port>
				<port id="1" precision="FP32">
					<dim>1</dim>
					<dim>128</dim>
				</port>
			</input>
			<output>
				<port id="2" precision="FP32" names="405">
					<dim>1</dim>
					<dim>241</dim>
					<dim>1</dim>
				</port>
			</output>
		</layer>
		<layer id="530" name="model.dur_pred.lin.bias" type="Const" version="opset1">
			<data element_type="f32" shape="1, 1, 1" offset="58900208" size="4"/>
			<output>
				<port id="0" precision="FP32" names="model.dur_pred.lin.bias">
					<dim>1</dim>
					<dim>1</dim>
					<dim>1</dim>
				</port>
			</output>
		</layer>
		<layer id="531" name="duration" type="Add" version="opset1">
			<data auto_broadcast="numpy"/>
			<input>
				<port id="0" precision="FP32">
					<dim>1</dim>
					<dim>241</dim>
					<dim>1</dim>
				</port>
				<port id="1" precision="FP32">
					<dim>1</dim>
					<dim>1</dim>
					<dim>1</dim>
				</port>
			</input>
			<output>
				<port id="2" precision="FP32" names="duration">
					<dim>1</dim>
					<dim>241</dim>
					<dim>1</dim>
				</port>
			</output>
		</layer>
		<layer id="532" name="duration/sink_port_0" type="Result" version="opset1">
			<input>
				<port id="0" precision="FP32">
					<dim>1</dim>
					<dim>241</dim>
					<dim>1</dim>
				</port>
			</input>
		</layer>
	</layers>
	<edges>
		<edge from-layer="0" from-port="0" to-layer="3" to-port="1"/>
		<edge from-layer="1" from-port="0" to-layer="3" to-port="0"/>
		<edge from-layer="2" from-port="0" to-layer="3" to-port="2"/>
		<edge from-layer="3" from-port="3" to-layer="5" to-port="0"/>
		<edge from-layer="3" from-port="3" to-layer="456" to-port="0"/>
		<edge from-layer="4" from-port="0" to-layer="5" to-port="1"/>
		<edge from-layer="5" from-port="2" to-layer="343" to-port="1"/>
		<edge from-layer="5" from-port="2" to-layer="239" to-port="0"/>
		<edge from-layer="5" from-port="2" to-layer="125" to-port="0"/>
		<edge from-layer="5" from-port="2" to-layer="144" to-port="0"/>
		<edge from-layer="5" from-port="2" to-layer="163" to-port="0"/>
		<edge from-layer="5" from-port="2" to-layer="277" to-port="0"/>
		<edge from-layer="5" from-port="2" to-layer="182" to-port="0"/>
		<edge from-layer="5" from-port="2" to-layer="201" to-port="0"/>
		<edge from-layer="5" from-port="2" to-layer="258" to-port="0"/>
		<edge from-layer="5" from-port="2" to-layer="30" to-port="0"/>
		<edge from-layer="5" from-port="2" to-layer="220" to-port="0"/>
		<edge from-layer="5" from-port="2" to-layer="106" to-port="0"/>
		<edge from-layer="5" from-port="2" to-layer="296" to-port="0"/>
		<edge from-layer="5" from-port="2" to-layer="87" to-port="0"/>
		<edge from-layer="5" from-port="2" to-layer="49" to-port="0"/>
		<edge from-layer="5" from-port="2" to-layer="68" to-port="0"/>
		<edge from-layer="5" from-port="2" to-layer="16" to-port="0"/>
		<edge from-layer="5" from-port="2" to-layer="7" to-port="0"/>
		<edge from-layer="6" from-port="0" to-layer="7" to-port="1"/>
		<edge from-layer="7" from-port="2" to-layer="8" to-port="0"/>
		<edge from-layer="8" from-port="1" to-layer="10" to-port="0"/>
		<edge from-layer="9" from-port="0" to-layer="10" to-port="1"/>
		<edge from-layer="10" from-port="2" to-layer="12" to-port="0"/>
		<edge from-layer="11" from-port="0" to-layer="12" to-port="1"/>
		<edge from-layer="12" from-port="2" to-layer="28" to-port="0"/>
		<edge from-layer="13" from-port="0" to-layer="28" to-port="1"/>
		<edge from-layer="14" from-port="0" to-layer="26" to-port="0"/>
		<edge from-layer="15" from-port="0" to-layer="26" to-port="1"/>
		<edge from-layer="16" from-port="1" to-layer="19" to-port="0"/>
		<edge from-layer="17" from-port="0" to-layer="19" to-port="1"/>
		<edge from-layer="18" from-port="0" to-layer="19" to-port="2"/>
		<edge from-layer="19" from-port="3" to-layer="135" to-port="0"/>
		<edge from-layer="19" from-port="3" to-layer="59" to-port="0"/>
		<edge from-layer="19" from-port="3" to-layer="78" to-port="0"/>
		<edge from-layer="19" from-port="3" to-layer="97" to-port="0"/>
		<edge from-layer="19" from-port="3" to-layer="324" to-port="0"/>
		<edge from-layer="19" from-port="3" to-layer="116" to-port="0"/>
		<edge from-layer="19" from-port="3" to-layer="287" to-port="0"/>
		<edge from-layer="19" from-port="3" to-layer="230" to-port="0"/>
		<edge from-layer="19" from-port="3" to-layer="154" to-port="0"/>
		<edge from-layer="19" from-port="3" to-layer="173" to-port="0"/>
		<edge from-layer="19" from-port="3" to-layer="306" to-port="0"/>
		<edge from-layer="19" from-port="3" to-layer="192" to-port="0"/>
		<edge from-layer="19" from-port="3" to-layer="268" to-port="0"/>
		<edge from-layer="19" from-port="3" to-layer="211" to-port="0"/>
		<edge from-layer="19" from-port="3" to-layer="249" to-port="0"/>
		<edge from-layer="19" from-port="3" to-layer="21" to-port="0"/>
		<edge from-layer="19" from-port="3" to-layer="40" to-port="0"/>
		<edge from-layer="20" from-port="0" to-layer="21" to-port="1"/>
		<edge from-layer="21" from-port="2" to-layer="22" to-port="0"/>
		<edge from-layer="22" from-port="1" to-layer="25" to-port="0"/>
		<edge from-layer="23" from-port="0" to-layer="25" to-port="1"/>
		<edge from-layer="24" from-port="0" to-layer="25" to-port="2"/>
		<edge from-layer="25" from-port="3" to-layer="26" to-port="2"/>
		<edge from-layer="26" from-port="3" to-layer="28" to-port="2"/>
		<edge from-layer="27" from-port="0" to-layer="28" to-port="3"/>
		<edge from-layer="28" from-port="4" to-layer="314" to-port="0"/>
		<edge from-layer="29" from-port="0" to-layer="30" to-port="1"/>
		<edge from-layer="30" from-port="2" to-layer="31" to-port="0"/>
		<edge from-layer="31" from-port="1" to-layer="33" to-port="0"/>
		<edge from-layer="32" from-port="0" to-layer="33" to-port="1"/>
		<edge from-layer="33" from-port="2" to-layer="35" to-port="0"/>
		<edge from-layer="34" from-port="0" to-layer="35" to-port="1"/>
		<edge from-layer="35" from-port="2" to-layer="47" to-port="0"/>
		<edge from-layer="36" from-port="0" to-layer="47" to-port="1"/>
		<edge from-layer="37" from-port="0" to-layer="45" to-port="0"/>
		<edge from-layer="38" from-port="0" to-layer="45" to-port="1"/>
		<edge from-layer="39" from-port="0" to-layer="40" to-port="1"/>
		<edge from-layer="40" from-port="2" to-layer="41" to-port="0"/>
		<edge from-layer="41" from-port="1" to-layer="44" to-port="0"/>
		<edge from-layer="42" from-port="0" to-layer="44" to-port="1"/>
		<edge from-layer="43" from-port="0" to-layer="44" to-port="2"/>
		<edge from-layer="44" from-port="3" to-layer="45" to-port="2"/>
		<edge from-layer="45" from-port="3" to-layer="47" to-port="2"/>
		<edge from-layer="46" from-port="0" to-layer="47" to-port="3"/>
		<edge from-layer="47" from-port="4" to-layer="314" to-port="1"/>
		<edge from-layer="48" from-port="0" to-layer="49" to-port="1"/>
		<edge from-layer="49" from-port="2" to-layer="50" to-port="0"/>
		<edge from-layer="50" from-port="1" to-layer="52" to-port="0"/>
		<edge from-layer="51" from-port="0" to-layer="52" to-port="1"/>
		<edge from-layer="52" from-port="2" to-layer="54" to-port="0"/>
		<edge from-layer="53" from-port="0" to-layer="54" to-port="1"/>
		<edge from-layer="54" from-port="2" to-layer="66" to-port="0"/>
		<edge from-layer="55" from-port="0" to-layer="66" to-port="1"/>
		<edge from-layer="56" from-port="0" to-layer="64" to-port="0"/>
		<edge from-layer="57" from-port="0" to-layer="64" to-port="1"/>
		<edge from-layer="58" from-port="0" to-layer="59" to-port="1"/>
		<edge from-layer="59" from-port="2" to-layer="60" to-port="0"/>
		<edge from-layer="60" from-port="1" to-layer="63" to-port="0"/>
		<edge from-layer="61" from-port="0" to-layer="63" to-port="1"/>
		<edge from-layer="62" from-port="0" to-layer="63" to-port="2"/>
		<edge from-layer="63" from-port="3" to-layer="64" to-port="2"/>
		<edge from-layer="64" from-port="3" to-layer="66" to-port="2"/>
		<edge from-layer="65" from-port="0" to-layer="66" to-port="3"/>
		<edge from-layer="66" from-port="4" to-layer="314" to-port="2"/>
		<edge from-layer="67" from-port="0" to-layer="68" to-port="1"/>
		<edge from-layer="68" from-port="2" to-layer="69" to-port="0"/>
		<edge from-layer="69" from-port="1" to-layer="71" to-port="0"/>
		<edge from-layer="70" from-port="0" to-layer="71" to-port="1"/>
		<edge from-layer="71" from-port="2" to-layer="73" to-port="0"/>
		<edge from-layer="72" from-port="0" to-layer="73" to-port="1"/>
		<edge from-layer="73" from-port="2" to-layer="85" to-port="0"/>
		<edge from-layer="74" from-port="0" to-layer="85" to-port="1"/>
		<edge from-layer="75" from-port="0" to-layer="83" to-port="0"/>
		<edge from-layer="76" from-port="0" to-layer="83" to-port="1"/>
		<edge from-layer="77" from-port="0" to-layer="78" to-port="1"/>
		<edge from-layer="78" from-port="2" to-layer="79" to-port="0"/>
		<edge from-layer="79" from-port="1" to-layer="82" to-port="0"/>
		<edge from-layer="80" from-port="0" to-layer="82" to-port="1"/>
		<edge from-layer="81" from-port="0" to-layer="82" to-port="2"/>
		<edge from-layer="82" from-port="3" to-layer="83" to-port="2"/>
		<edge from-layer="83" from-port="3" to-layer="85" to-port="2"/>
		<edge from-layer="84" from-port="0" to-layer="85" to-port="3"/>
		<edge from-layer="85" from-port="4" to-layer="314" to-port="3"/>
		<edge from-layer="86" from-port="0" to-layer="87" to-port="1"/>
		<edge from-layer="87" from-port="2" to-layer="88" to-port="0"/>
		<edge from-layer="88" from-port="1" to-layer="90" to-port="0"/>
		<edge from-layer="89" from-port="0" to-layer="90" to-port="1"/>
		<edge from-layer="90" from-port="2" to-layer="92" to-port="0"/>
		<edge from-layer="91" from-port="0" to-layer="92" to-port="1"/>
		<edge from-layer="92" from-port="2" to-layer="104" to-port="0"/>
		<edge from-layer="93" from-port="0" to-layer="104" to-port="1"/>
		<edge from-layer="94" from-port="0" to-layer="102" to-port="0"/>
		<edge from-layer="95" from-port="0" to-layer="102" to-port="1"/>
		<edge from-layer="96" from-port="0" to-layer="97" to-port="1"/>
		<edge from-layer="97" from-port="2" to-layer="98" to-port="0"/>
		<edge from-layer="98" from-port="1" to-layer="101" to-port="0"/>
		<edge from-layer="99" from-port="0" to-layer="101" to-port="1"/>
		<edge from-layer="100" from-port="0" to-layer="101" to-port="2"/>
		<edge from-layer="101" from-port="3" to-layer="102" to-port="2"/>
		<edge from-layer="102" from-port="3" to-layer="104" to-port="2"/>
		<edge from-layer="103" from-port="0" to-layer="104" to-port="3"/>
		<edge from-layer="104" from-port="4" to-layer="314" to-port="4"/>
		<edge from-layer="105" from-port="0" to-layer="106" to-port="1"/>
		<edge from-layer="106" from-port="2" to-layer="107" to-port="0"/>
		<edge from-layer="107" from-port="1" to-layer="109" to-port="0"/>
		<edge from-layer="108" from-port="0" to-layer="109" to-port="1"/>
		<edge from-layer="109" from-port="2" to-layer="111" to-port="0"/>
		<edge from-layer="110" from-port="0" to-layer="111" to-port="1"/>
		<edge from-layer="111" from-port="2" to-layer="123" to-port="0"/>
		<edge from-layer="112" from-port="0" to-layer="123" to-port="1"/>
		<edge from-layer="113" from-port="0" to-layer="121" to-port="0"/>
		<edge from-layer="114" from-port="0" to-layer="121" to-port="1"/>
		<edge from-layer="115" from-port="0" to-layer="116" to-port="1"/>
		<edge from-layer="116" from-port="2" to-layer="117" to-port="0"/>
		<edge from-layer="117" from-port="1" to-layer="120" to-port="0"/>
		<edge from-layer="118" from-port="0" to-layer="120" to-port="1"/>
		<edge from-layer="119" from-port="0" to-layer="120" to-port="2"/>
		<edge from-layer="120" from-port="3" to-layer="121" to-port="2"/>
		<edge from-layer="121" from-port="3" to-layer="123" to-port="2"/>
		<edge from-layer="122" from-port="0" to-layer="123" to-port="3"/>
		<edge from-layer="123" from-port="4" to-layer="314" to-port="5"/>
		<edge from-layer="124" from-port="0" to-layer="125" to-port="1"/>
		<edge from-layer="125" from-port="2" to-layer="126" to-port="0"/>
		<edge from-layer="126" from-port="1" to-layer="128" to-port="0"/>
		<edge from-layer="127" from-port="0" to-layer="128" to-port="1"/>
		<edge from-layer="128" from-port="2" to-layer="130" to-port="0"/>
		<edge from-layer="129" from-port="0" to-layer="130" to-port="1"/>
		<edge from-layer="130" from-port="2" to-layer="142" to-port="0"/>
		<edge from-layer="131" from-port="0" to-layer="142" to-port="1"/>
		<edge from-layer="132" from-port="0" to-layer="140" to-port="0"/>
		<edge from-layer="133" from-port="0" to-layer="140" to-port="1"/>
		<edge from-layer="134" from-port="0" to-layer="135" to-port="1"/>
		<edge from-layer="135" from-port="2" to-layer="136" to-port="0"/>
		<edge from-layer="136" from-port="1" to-layer="139" to-port="0"/>
		<edge from-layer="137" from-port="0" to-layer="139" to-port="1"/>
		<edge from-layer="138" from-port="0" to-layer="139" to-port="2"/>
		<edge from-layer="139" from-port="3" to-layer="140" to-port="2"/>
		<edge from-layer="140" from-port="3" to-layer="142" to-port="2"/>
		<edge from-layer="141" from-port="0" to-layer="142" to-port="3"/>
		<edge from-layer="142" from-port="4" to-layer="314" to-port="6"/>
		<edge from-layer="143" from-port="0" to-layer="144" to-port="1"/>
		<edge from-layer="144" from-port="2" to-layer="145" to-port="0"/>
		<edge from-layer="145" from-port="1" to-layer="147" to-port="0"/>
		<edge from-layer="146" from-port="0" to-layer="147" to-port="1"/>
		<edge from-layer="147" from-port="2" to-layer="149" to-port="0"/>
		<edge from-layer="148" from-port="0" to-layer="149" to-port="1"/>
		<edge from-layer="149" from-port="2" to-layer="161" to-port="0"/>
		<edge from-layer="150" from-port="0" to-layer="161" to-port="1"/>
		<edge from-layer="151" from-port="0" to-layer="159" to-port="0"/>
		<edge from-layer="152" from-port="0" to-layer="159" to-port="1"/>
		<edge from-layer="153" from-port="0" to-layer="154" to-port="1"/>
		<edge from-layer="154" from-port="2" to-layer="155" to-port="0"/>
		<edge from-layer="155" from-port="1" to-layer="158" to-port="0"/>
		<edge from-layer="156" from-port="0" to-layer="158" to-port="1"/>
		<edge from-layer="157" from-port="0" to-layer="158" to-port="2"/>
		<edge from-layer="158" from-port="3" to-layer="159" to-port="2"/>
		<edge from-layer="159" from-port="3" to-layer="161" to-port="2"/>
		<edge from-layer="160" from-port="0" to-layer="161" to-port="3"/>
		<edge from-layer="161" from-port="4" to-layer="314" to-port="7"/>
		<edge from-layer="162" from-port="0" to-layer="163" to-port="1"/>
		<edge from-layer="163" from-port="2" to-layer="164" to-port="0"/>
		<edge from-layer="164" from-port="1" to-layer="166" to-port="0"/>
		<edge from-layer="165" from-port="0" to-layer="166" to-port="1"/>
		<edge from-layer="166" from-port="2" to-layer="168" to-port="0"/>
		<edge from-layer="167" from-port="0" to-layer="168" to-port="1"/>
		<edge from-layer="168" from-port="2" to-layer="180" to-port="0"/>
		<edge from-layer="169" from-port="0" to-layer="180" to-port="1"/>
		<edge from-layer="170" from-port="0" to-layer="178" to-port="0"/>
		<edge from-layer="171" from-port="0" to-layer="178" to-port="1"/>
		<edge from-layer="172" from-port="0" to-layer="173" to-port="1"/>
		<edge from-layer="173" from-port="2" to-layer="174" to-port="0"/>
		<edge from-layer="174" from-port="1" to-layer="177" to-port="0"/>
		<edge from-layer="175" from-port="0" to-layer="177" to-port="1"/>
		<edge from-layer="176" from-port="0" to-layer="177" to-port="2"/>
		<edge from-layer="177" from-port="3" to-layer="178" to-port="2"/>
		<edge from-layer="178" from-port="3" to-layer="180" to-port="2"/>
		<edge from-layer="179" from-port="0" to-layer="180" to-port="3"/>
		<edge from-layer="180" from-port="4" to-layer="314" to-port="8"/>
		<edge from-layer="181" from-port="0" to-layer="182" to-port="1"/>
		<edge from-layer="182" from-port="2" to-layer="183" to-port="0"/>
		<edge from-layer="183" from-port="1" to-layer="185" to-port="0"/>
		<edge from-layer="184" from-port="0" to-layer="185" to-port="1"/>
		<edge from-layer="185" from-port="2" to-layer="187" to-port="0"/>
		<edge from-layer="186" from-port="0" to-layer="187" to-port="1"/>
		<edge from-layer="187" from-port="2" to-layer="199" to-port="0"/>
		<edge from-layer="188" from-port="0" to-layer="199" to-port="1"/>
		<edge from-layer="189" from-port="0" to-layer="197" to-port="0"/>
		<edge from-layer="190" from-port="0" to-layer="197" to-port="1"/>
		<edge from-layer="191" from-port="0" to-layer="192" to-port="1"/>
		<edge from-layer="192" from-port="2" to-layer="193" to-port="0"/>
		<edge from-layer="193" from-port="1" to-layer="196" to-port="0"/>
		<edge from-layer="194" from-port="0" to-layer="196" to-port="1"/>
		<edge from-layer="195" from-port="0" to-layer="196" to-port="2"/>
		<edge from-layer="196" from-port="3" to-layer="197" to-port="2"/>
		<edge from-layer="197" from-port="3" to-layer="199" to-port="2"/>
		<edge from-layer="198" from-port="0" to-layer="199" to-port="3"/>
		<edge from-layer="199" from-port="4" to-layer="314" to-port="9"/>
		<edge from-layer="200" from-port="0" to-layer="201" to-port="1"/>
		<edge from-layer="201" from-port="2" to-layer="202" to-port="0"/>
		<edge from-layer="202" from-port="1" to-layer="204" to-port="0"/>
		<edge from-layer="203" from-port="0" to-layer="204" to-port="1"/>
		<edge from-layer="204" from-port="2" to-layer="206" to-port="0"/>
		<edge from-layer="205" from-port="0" to-layer="206" to-port="1"/>
		<edge from-layer="206" from-port="2" to-layer="218" to-port="0"/>
		<edge from-layer="207" from-port="0" to-layer="218" to-port="1"/>
		<edge from-layer="208" from-port="0" to-layer="216" to-port="0"/>
		<edge from-layer="209" from-port="0" to-layer="216" to-port="1"/>
		<edge from-layer="210" from-port="0" to-layer="211" to-port="1"/>
		<edge from-layer="211" from-port="2" to-layer="212" to-port="0"/>
		<edge from-layer="212" from-port="1" to-layer="215" to-port="0"/>
		<edge from-layer="213" from-port="0" to-layer="215" to-port="1"/>
		<edge from-layer="214" from-port="0" to-layer="215" to-port="2"/>
		<edge from-layer="215" from-port="3" to-layer="216" to-port="2"/>
		<edge from-layer="216" from-port="3" to-layer="218" to-port="2"/>
		<edge from-layer="217" from-port="0" to-layer="218" to-port="3"/>
		<edge from-layer="218" from-port="4" to-layer="314" to-port="10"/>
		<edge from-layer="219" from-port="0" to-layer="220" to-port="1"/>
		<edge from-layer="220" from-port="2" to-layer="221" to-port="0"/>
		<edge from-layer="221" from-port="1" to-layer="223" to-port="0"/>
		<edge from-layer="222" from-port="0" to-layer="223" to-port="1"/>
		<edge from-layer="223" from-port="2" to-layer="225" to-port="0"/>
		<edge from-layer="224" from-port="0" to-layer="225" to-port="1"/>
		<edge from-layer="225" from-port="2" to-layer="237" to-port="0"/>
		<edge from-layer="226" from-port="0" to-layer="237" to-port="1"/>
		<edge from-layer="227" from-port="0" to-layer="235" to-port="0"/>
		<edge from-layer="228" from-port="0" to-layer="235" to-port="1"/>
		<edge from-layer="229" from-port="0" to-layer="230" to-port="1"/>
		<edge from-layer="230" from-port="2" to-layer="231" to-port="0"/>
		<edge from-layer="231" from-port="1" to-layer="234" to-port="0"/>
		<edge from-layer="232" from-port="0" to-layer="234" to-port="1"/>
		<edge from-layer="233" from-port="0" to-layer="234" to-port="2"/>
		<edge from-layer="234" from-port="3" to-layer="235" to-port="2"/>
		<edge from-layer="235" from-port="3" to-layer="237" to-port="2"/>
		<edge from-layer="236" from-port="0" to-layer="237" to-port="3"/>
		<edge from-layer="237" from-port="4" to-layer="314" to-port="11"/>
		<edge from-layer="238" from-port="0" to-layer="239" to-port="1"/>
		<edge from-layer="239" from-port="2" to-layer="240" to-port="0"/>
		<edge from-layer="240" from-port="1" to-layer="242" to-port="0"/>
		<edge from-layer="241" from-port="0" to-layer="242" to-port="1"/>
		<edge from-layer="242" from-port="2" to-layer="244" to-port="0"/>
		<edge from-layer="243" from-port="0" to-layer="244" to-port="1"/>
		<edge from-layer="244" from-port="2" to-layer="256" to-port="0"/>
		<edge from-layer="245" from-port="0" to-layer="256" to-port="1"/>
		<edge from-layer="246" from-port="0" to-layer="254" to-port="0"/>
		<edge from-layer="247" from-port="0" to-layer="254" to-port="1"/>
		<edge from-layer="248" from-port="0" to-layer="249" to-port="1"/>
		<edge from-layer="249" from-port="2" to-layer="250" to-port="0"/>
		<edge from-layer="250" from-port="1" to-layer="253" to-port="0"/>
		<edge from-layer="251" from-port="0" to-layer="253" to-port="1"/>
		<edge from-layer="252" from-port="0" to-layer="253" to-port="2"/>
		<edge from-layer="253" from-port="3" to-layer="254" to-port="2"/>
		<edge from-layer="254" from-port="3" to-layer="256" to-port="2"/>
		<edge from-layer="255" from-port="0" to-layer="256" to-port="3"/>
		<edge from-layer="256" from-port="4" to-layer="314" to-port="12"/>
		<edge from-layer="257" from-port="0" to-layer="258" to-port="1"/>
		<edge from-layer="258" from-port="2" to-layer="259" to-port="0"/>
		<edge from-layer="259" from-port="1" to-layer="261" to-port="0"/>
		<edge from-layer="260" from-port="0" to-layer="261" to-port="1"/>
		<edge from-layer="261" from-port="2" to-layer="263" to-port="0"/>
		<edge from-layer="262" from-port="0" to-layer="263" to-port="1"/>
		<edge from-layer="263" from-port="2" to-layer="275" to-port="0"/>
		<edge from-layer="264" from-port="0" to-layer="275" to-port="1"/>
		<edge from-layer="265" from-port="0" to-layer="273" to-port="0"/>
		<edge from-layer="266" from-port="0" to-layer="273" to-port="1"/>
		<edge from-layer="267" from-port="0" to-layer="268" to-port="1"/>
		<edge from-layer="268" from-port="2" to-layer="269" to-port="0"/>
		<edge from-layer="269" from-port="1" to-layer="272" to-port="0"/>
		<edge from-layer="270" from-port="0" to-layer="272" to-port="1"/>
		<edge from-layer="271" from-port="0" to-layer="272" to-port="2"/>
		<edge from-layer="272" from-port="3" to-layer="273" to-port="2"/>
		<edge from-layer="273" from-port="3" to-layer="275" to-port="2"/>
		<edge from-layer="274" from-port="0" to-layer="275" to-port="3"/>
		<edge from-layer="275" from-port="4" to-layer="314" to-port="13"/>
		<edge from-layer="276" from-port="0" to-layer="277" to-port="1"/>
		<edge from-layer="277" from-port="2" to-layer="278" to-port="0"/>
		<edge from-layer="278" from-port="1" to-layer="280" to-port="0"/>
		<edge from-layer="279" from-port="0" to-layer="280" to-port="1"/>
		<edge from-layer="280" from-port="2" to-layer="282" to-port="0"/>
		<edge from-layer="281" from-port="0" to-layer="282" to-port="1"/>
		<edge from-layer="282" from-port="2" to-layer="294" to-port="0"/>
		<edge from-layer="283" from-port="0" to-layer="294" to-port="1"/>
		<edge from-layer="284" from-port="0" to-layer="292" to-port="0"/>
		<edge from-layer="285" from-port="0" to-layer="292" to-port="1"/>
		<edge from-layer="286" from-port="0" to-layer="287" to-port="1"/>
		<edge from-layer="287" from-port="2" to-layer="288" to-port="0"/>
		<edge from-layer="288" from-port="1" to-layer="291" to-port="0"/>
		<edge from-layer="289" from-port="0" to-layer="291" to-port="1"/>
		<edge from-layer="290" from-port="0" to-layer="291" to-port="2"/>
		<edge from-layer="291" from-port="3" to-layer="292" to-port="2"/>
		<edge from-layer="292" from-port="3" to-layer="294" to-port="2"/>
		<edge from-layer="293" from-port="0" to-layer="294" to-port="3"/>
		<edge from-layer="294" from-port="4" to-layer="314" to-port="14"/>
		<edge from-layer="295" from-port="0" to-layer="296" to-port="1"/>
		<edge from-layer="296" from-port="2" to-layer="297" to-port="0"/>
		<edge from-layer="297" from-port="1" to-layer="299" to-port="0"/>
		<edge from-layer="298" from-port="0" to-layer="299" to-port="1"/>
		<edge from-layer="299" from-port="2" to-layer="301" to-port="0"/>
		<edge from-layer="300" from-port="0" to-layer="301" to-port="1"/>
		<edge from-layer="301" from-port="2" to-layer="313" to-port="0"/>
		<edge from-layer="302" from-port="0" to-layer="313" to-port="1"/>
		<edge from-layer="303" from-port="0" to-layer="311" to-port="0"/>
		<edge from-layer="304" from-port="0" to-layer="311" to-port="1"/>
		<edge from-layer="305" from-port="0" to-layer="306" to-port="1"/>
		<edge from-layer="306" from-port="2" to-layer="307" to-port="0"/>
		<edge from-layer="307" from-port="1" to-layer="310" to-port="0"/>
		<edge from-layer="308" from-port="0" to-layer="310" to-port="1"/>
		<edge from-layer="309" from-port="0" to-layer="310" to-port="2"/>
		<edge from-layer="310" from-port="3" to-layer="311" to-port="2"/>
		<edge from-layer="311" from-port="3" to-layer="313" to-port="2"/>
		<edge from-layer="312" from-port="0" to-layer="313" to-port="3"/>
		<edge from-layer="313" from-port="4" to-layer="314" to-port="15"/>
		<edge from-layer="314" from-port="16" to-layer="316" to-port="0"/>
		<edge from-layer="315" from-port="0" to-layer="316" to-port="1"/>
		<edge from-layer="316" from-port="2" to-layer="317" to-port="0"/>
		<edge from-layer="317" from-port="1" to-layer="319" to-port="0"/>
		<edge from-layer="318" from-port="0" to-layer="319" to-port="1"/>
		<edge from-layer="319" from-port="2" to-layer="331" to-port="0"/>
		<edge from-layer="320" from-port="0" to-layer="331" to-port="1"/>
		<edge from-layer="321" from-port="0" to-layer="329" to-port="0"/>
		<edge from-layer="322" from-port="0" to-layer="329" to-port="1"/>
		<edge from-layer="323" from-port="0" to-layer="324" to-port="1"/>
		<edge from-layer="324" from-port="2" to-layer="325" to-port="0"/>
		<edge from-layer="325" from-port="1" to-layer="328" to-port="0"/>
		<edge from-layer="326" from-port="0" to-layer="328" to-port="1"/>
		<edge from-layer="327" from-port="0" to-layer="328" to-port="2"/>
		<edge from-layer="328" from-port="3" to-layer="329" to-port="2"/>
		<edge from-layer="329" from-port="3" to-layer="331" to-port="2"/>
		<edge from-layer="330" from-port="0" to-layer="331" to-port="3"/>
		<edge from-layer="331" from-port="4" to-layer="333" to-port="0"/>
		<edge from-layer="332" from-port="0" to-layer="333" to-port="1"/>
		<edge from-layer="333" from-port="2" to-layer="334" to-port="0"/>
		<edge from-layer="334" from-port="1" to-layer="336" to-port="0"/>
		<edge from-layer="335" from-port="0" to-layer="336" to-port="1"/>
		<edge from-layer="336" from-port="2" to-layer="338" to-port="0"/>
		<edge from-layer="337" from-port="0" to-layer="338" to-port="1"/>
		<edge from-layer="338" from-port="2" to-layer="340" to-port="0"/>
		<edge from-layer="339" from-port="0" to-layer="340" to-port="1"/>
		<edge from-layer="340" from-port="2" to-layer="342" to-port="0"/>
		<edge from-layer="341" from-port="0" to-layer="342" to-port="1"/>
		<edge from-layer="342" from-port="2" to-layer="343" to-port="0"/>
		<edge from-layer="343" from-port="2" to-layer="345" to-port="0"/>
		<edge from-layer="344" from-port="0" to-layer="345" to-port="1"/>
		<edge from-layer="345" from-port="2" to-layer="359" to-port="1"/>
		<edge from-layer="345" from-port="2" to-layer="352" to-port="0"/>
		<edge from-layer="345" from-port="2" to-layer="347" to-port="0"/>
		<edge from-layer="346" from-port="0" to-layer="347" to-port="1"/>
		<edge from-layer="347" from-port="2" to-layer="349" to-port="0"/>
		<edge from-layer="348" from-port="0" to-layer="349" to-port="1"/>
		<edge from-layer="349" from-port="2" to-layer="350" to-port="0"/>
		<edge from-layer="350" from-port="1" to-layer="356" to-port="0"/>
		<edge from-layer="350" from-port="1" to-layer="358" to-port="1"/>
		<edge from-layer="351" from-port="0" to-layer="352" to-port="1"/>
		<edge from-layer="352" from-port="2" to-layer="354" to-port="0"/>
		<edge from-layer="353" from-port="0" to-layer="354" to-port="1"/>
		<edge from-layer="354" from-port="2" to-layer="355" to-port="0"/>
		<edge from-layer="355" from-port="1" to-layer="356" to-port="1"/>
		<edge from-layer="356" from-port="2" to-layer="360" to-port="0"/>
		<edge from-layer="357" from-port="0" to-layer="358" to-port="0"/>
		<edge from-layer="358" from-port="2" to-layer="359" to-port="0"/>
		<edge from-layer="359" from-port="2" to-layer="360" to-port="1"/>
		<edge from-layer="360" from-port="2" to-layer="362" to-port="0"/>
		<edge from-layer="360" from-port="2" to-layer="367" to-port="0"/>
		<edge from-layer="360" from-port="2" to-layer="374" to-port="1"/>
		<edge from-layer="361" from-port="0" to-layer="362" to-port="1"/>
		<edge from-layer="362" from-port="2" to-layer="364" to-port="0"/>
		<edge from-layer="363" from-port="0" to-layer="364" to-port="1"/>
		<edge from-layer="364" from-port="2" to-layer="365" to-port="0"/>
		<edge from-layer="365" from-port="1" to-layer="371" to-port="0"/>
		<edge from-layer="365" from-port="1" to-layer="373" to-port="1"/>
		<edge from-layer="366" from-port="0" to-layer="367" to-port="1"/>
		<edge from-layer="367" from-port="2" to-layer="369" to-port="0"/>
		<edge from-layer="368" from-port="0" to-layer="369" to-port="1"/>
		<edge from-layer="369" from-port="2" to-layer="370" to-port="0"/>
		<edge from-layer="370" from-port="1" to-layer="371" to-port="1"/>
		<edge from-layer="371" from-port="2" to-layer="375" to-port="0"/>
		<edge from-layer="372" from-port="0" to-layer="373" to-port="0"/>
		<edge from-layer="373" from-port="2" to-layer="374" to-port="0"/>
		<edge from-layer="374" from-port="2" to-layer="375" to-port="1"/>
		<edge from-layer="375" from-port="2" to-layer="377" to-port="0"/>
		<edge from-layer="375" from-port="2" to-layer="389" to-port="1"/>
		<edge from-layer="375" from-port="2" to-layer="382" to-port="0"/>
		<edge from-layer="376" from-port="0" to-layer="377" to-port="1"/>
		<edge from-layer="377" from-port="2" to-layer="379" to-port="0"/>
		<edge from-layer="378" from-port="0" to-layer="379" to-port="1"/>
		<edge from-layer="379" from-port="2" to-layer="380" to-port="0"/>
		<edge from-layer="380" from-port="1" to-layer="386" to-port="0"/>
		<edge from-layer="380" from-port="1" to-layer="388" to-port="1"/>
		<edge from-layer="381" from-port="0" to-layer="382" to-port="1"/>
		<edge from-layer="382" from-port="2" to-layer="384" to-port="0"/>
		<edge from-layer="383" from-port="0" to-layer="384" to-port="1"/>
		<edge from-layer="384" from-port="2" to-layer="385" to-port="0"/>
		<edge from-layer="385" from-port="1" to-layer="386" to-port="1"/>
		<edge from-layer="386" from-port="2" to-layer="390" to-port="0"/>
		<edge from-layer="387" from-port="0" to-layer="388" to-port="0"/>
		<edge from-layer="388" from-port="2" to-layer="389" to-port="0"/>
		<edge from-layer="389" from-port="2" to-layer="390" to-port="1"/>
		<edge from-layer="390" from-port="2" to-layer="392" to-port="0"/>
		<edge from-layer="390" from-port="2" to-layer="397" to-port="0"/>
		<edge from-layer="390" from-port="2" to-layer="404" to-port="1"/>
		<edge from-layer="391" from-port="0" to-layer="392" to-port="1"/>
		<edge from-layer="392" from-port="2" to-layer="394" to-port="0"/>
		<edge from-layer="393" from-port="0" to-layer="394" to-port="1"/>
		<edge from-layer="394" from-port="2" to-layer="395" to-port="0"/>
		<edge from-layer="395" from-port="1" to-layer="401" to-port="0"/>
		<edge from-layer="395" from-port="1" to-layer="403" to-port="1"/>
		<edge from-layer="396" from-port="0" to-layer="397" to-port="1"/>
		<edge from-layer="397" from-port="2" to-layer="399" to-port="0"/>
		<edge from-layer="398" from-port="0" to-layer="399" to-port="1"/>
		<edge from-layer="399" from-port="2" to-layer="400" to-port="0"/>
		<edge from-layer="400" from-port="1" to-layer="401" to-port="1"/>
		<edge from-layer="401" from-port="2" to-layer="405" to-port="0"/>
		<edge from-layer="402" from-port="0" to-layer="403" to-port="0"/>
		<edge from-layer="403" from-port="2" to-layer="404" to-port="0"/>
		<edge from-layer="404" from-port="2" to-layer="405" to-port="1"/>
		<edge from-layer="405" from-port="2" to-layer="410" to-port="0"/>
		<edge from-layer="405" from-port="2" to-layer="407" to-port="0"/>
		<edge from-layer="406" from-port="0" to-layer="407" to-port="1"/>
		<edge from-layer="407" from-port="2" to-layer="438" to-port="0"/>
		<edge from-layer="407" from-port="2" to-layer="431" to-port="0"/>
		<edge from-layer="407" from-port="2" to-layer="428" to-port="0"/>
		<edge from-layer="407" from-port="2" to-layer="421" to-port="0"/>
		<edge from-layer="408" from-port="0" to-layer="418" to-port="0"/>
		<edge from-layer="409" from-port="0" to-layer="417" to-port="0"/>
		<edge from-layer="410" from-port="1" to-layer="413" to-port="0"/>
		<edge from-layer="411" from-port="0" to-layer="413" to-port="1"/>
		<edge from-layer="412" from-port="0" to-layer="413" to-port="2"/>
		<edge from-layer="413" from-port="3" to-layer="415" to-port="0"/>
		<edge from-layer="414" from-port="0" to-layer="415" to-port="1"/>
		<edge from-layer="415" from-port="2" to-layer="417" to-port="1"/>
		<edge from-layer="416" from-port="0" to-layer="417" to-port="2"/>
		<edge from-layer="417" from-port="3" to-layer="418" to-port="1"/>
		<edge from-layer="418" from-port="2" to-layer="420" to-port="0"/>
		<edge from-layer="419" from-port="0" to-layer="420" to-port="1"/>
		<edge from-layer="420" from-port="3" to-layer="437" to-port="0"/>
		<edge from-layer="420" from-port="2" to-layer="427" to-port="0"/>
		<edge from-layer="421" from-port="1" to-layer="424" to-port="0"/>
		<edge from-layer="422" from-port="0" to-layer="424" to-port="1"/>
		<edge from-layer="423" from-port="0" to-layer="424" to-port="2"/>
		<edge from-layer="424" from-port="3" to-layer="426" to-port="0"/>
		<edge from-layer="425" from-port="0" to-layer="426" to-port="1"/>
		<edge from-layer="426" from-port="2" to-layer="427" to-port="1"/>
		<edge from-layer="427" from-port="2" to-layer="428" to-port="1"/>
		<edge from-layer="428" from-port="3" to-layer="450" to-port="0"/>
		<edge from-layer="428" from-port="2" to-layer="430" to-port="0"/>
		<edge from-layer="429" from-port="0" to-layer="430" to-port="1"/>
		<edge from-layer="430" from-port="2" to-layer="441" to-port="0"/>
		<edge from-layer="431" from-port="1" to-layer="434" to-port="0"/>
		<edge from-layer="432" from-port="0" to-layer="434" to-port="1"/>
		<edge from-layer="433" from-port="0" to-layer="434" to-port="2"/>
		<edge from-layer="434" from-port="3" to-layer="436" to-port="0"/>
		<edge from-layer="435" from-port="0" to-layer="436" to-port="1"/>
		<edge from-layer="436" from-port="2" to-layer="437" to-port="1"/>
		<edge from-layer="437" from-port="2" to-layer="438" to-port="1"/>
		<edge from-layer="438" from-port="2" to-layer="440" to-port="0"/>
		<edge from-layer="438" from-port="3" to-layer="452" to-port="0"/>
		<edge from-layer="439" from-port="0" to-layer="440" to-port="1"/>
		<edge from-layer="440" from-port="2" to-layer="441" to-port="1"/>
		<edge from-layer="441" from-port="2" to-layer="443" to-port="0"/>
		<edge from-layer="442" from-port="0" to-layer="443" to-port="1"/>
		<edge from-layer="443" from-port="2" to-layer="445" to-port="0"/>
		<edge from-layer="444" from-port="0" to-layer="445" to-port="1"/>
		<edge from-layer="445" from-port="2" to-layer="447" to-port="0"/>
		<edge from-layer="446" from-port="0" to-layer="447" to-port="1"/>
		<edge from-layer="447" from-port="2" to-layer="448" to-port="0"/>
		<edge from-layer="449" from-port="0" to-layer="450" to-port="1"/>
		<edge from-layer="450" from-port="2" to-layer="453" to-port="0"/>
		<edge from-layer="451" from-port="0" to-layer="452" to-port="1"/>
		<edge from-layer="452" from-port="2" to-layer="453" to-port="1"/>
		<edge from-layer="453" from-port="2" to-layer="454" to-port="0"/>
		<edge from-layer="455" from-port="0" to-layer="456" to-port="1"/>
		<edge from-layer="456" from-port="2" to-layer="458" to-port="0"/>
		<edge from-layer="457" from-port="0" to-layer="458" to-port="1"/>
		<edge from-layer="458" from-port="2" to-layer="459" to-port="0"/>
		<edge from-layer="459" from-port="1" to-layer="461" to-port="0"/>
		<edge from-layer="460" from-port="0" to-layer="461" to-port="1"/>
		<edge from-layer="461" from-port="2" to-layer="463" to-port="0"/>
		<edge from-layer="462" from-port="0" to-layer="463" to-port="1"/>
		<edge from-layer="463" from-port="2" to-layer="465" to-port="0"/>
		<edge from-layer="464" from-port="0" to-layer="465" to-port="1"/>
		<edge from-layer="465" from-port="2" to-layer="466" to-port="0"/>
		<edge from-layer="466" from-port="1" to-layer="468" to-port="0"/>
		<edge from-layer="467" from-port="0" to-layer="468" to-port="1"/>
		<edge from-layer="468" from-port="2" to-layer="470" to-port="0"/>
		<edge from-layer="469" from-port="0" to-layer="470" to-port="1"/>
		<edge from-layer="470" from-port="2" to-layer="472" to-port="0"/>
		<edge from-layer="471" from-port="0" to-layer="472" to-port="1"/>
		<edge from-layer="472" from-port="2" to-layer="473" to-port="0"/>
		<edge from-layer="473" from-port="1" to-layer="475" to-port="0"/>
		<edge from-layer="474" from-port="0" to-layer="475" to-port="1"/>
		<edge from-layer="475" from-port="2" to-layer="477" to-port="0"/>
		<edge from-layer="476" from-port="0" to-layer="477" to-port="1"/>
		<edge from-layer="477" from-port="2" to-layer="479" to-port="0"/>
		<edge from-layer="477" from-port="2" to-layer="483" to-port="0"/>
		<edge from-layer="478" from-port="0" to-layer="479" to-port="1"/>
		<edge from-layer="479" from-port="2" to-layer="495" to-port="0"/>
		<edge from-layer="479" from-port="2" to-layer="502" to-port="0"/>
		<edge from-layer="479" from-port="2" to-layer="505" to-port="0"/>
		<edge from-layer="479" from-port="2" to-layer="512" to-port="0"/>
		<edge from-layer="480" from-port="0" to-layer="492" to-port="0"/>
		<edge from-layer="481" from-port="0" to-layer="491" to-port="0"/>
		<edge from-layer="482" from-port="0" to-layer="483" to-port="1"/>
		<edge from-layer="483" from-port="2" to-layer="484" to-port="0"/>
		<edge from-layer="484" from-port="1" to-layer="487" to-port="0"/>
		<edge from-layer="485" from-port="0" to-layer="487" to-port="1"/>
		<edge from-layer="486" from-port="0" to-layer="487" to-port="2"/>
		<edge from-layer="487" from-port="3" to-layer="489" to-port="0"/>
		<edge from-layer="488" from-port="0" to-layer="489" to-port="1"/>
		<edge from-layer="489" from-port="2" to-layer="491" to-port="1"/>
		<edge from-layer="490" from-port="0" to-layer="491" to-port="2"/>
		<edge from-layer="491" from-port="3" to-layer="492" to-port="1"/>
		<edge from-layer="492" from-port="2" to-layer="494" to-port="0"/>
		<edge from-layer="493" from-port="0" to-layer="494" to-port="1"/>
		<edge from-layer="494" from-port="2" to-layer="501" to-port="0"/>
		<edge from-layer="494" from-port="3" to-layer="511" to-port="0"/>
		<edge from-layer="495" from-port="1" to-layer="498" to-port="0"/>
		<edge from-layer="496" from-port="0" to-layer="498" to-port="1"/>
		<edge from-layer="497" from-port="0" to-layer="498" to-port="2"/>
		<edge from-layer="498" from-port="3" to-layer="500" to-port="0"/>
		<edge from-layer="499" from-port="0" to-layer="500" to-port="1"/>
		<edge from-layer="500" from-port="2" to-layer="501" to-port="1"/>
		<edge from-layer="501" from-port="2" to-layer="502" to-port="1"/>
		<edge from-layer="502" from-port="2" to-layer="518" to-port="0"/>
		<edge from-layer="502" from-port="3" to-layer="504" to-port="0"/>
		<edge from-layer="503" from-port="0" to-layer="504" to-port="1"/>
		<edge from-layer="504" from-port="2" to-layer="515" to-port="0"/>
		<edge from-layer="505" from-port="1" to-layer="508" to-port="0"/>
		<edge from-layer="506" from-port="0" to-layer="508" to-port="1"/>
		<edge from-layer="507" from-port="0" to-layer="508" to-port="2"/>
		<edge from-layer="508" from-port="3" to-layer="510" to-port="0"/>
		<edge from-layer="509" from-port="0" to-layer="510" to-port="1"/>
		<edge from-layer="510" from-port="2" to-layer="511" to-port="1"/>
		<edge from-layer="511" from-port="2" to-layer="512" to-port="1"/>
		<edge from-layer="512" from-port="2" to-layer="520" to-port="0"/>
		<edge from-layer="512" from-port="3" to-layer="514" to-port="0"/>
		<edge from-layer="513" from-port="0" to-layer="514" to-port="1"/>
		<edge from-layer="514" from-port="2" to-layer="515" to-port="1"/>
		<edge from-layer="515" from-port="2" to-layer="516" to-port="0"/>
		<edge from-layer="517" from-port="0" to-layer="518" to-port="1"/>
		<edge from-layer="518" from-port="2" to-layer="521" to-port="0"/>
		<edge from-layer="519" from-port="0" to-layer="520" to-port="1"/>
		<edge from-layer="520" from-port="2" to-layer="521" to-port="1"/>
		<edge from-layer="521" from-port="2" to-layer="523" to-port="0"/>
		<edge from-layer="522" from-port="0" to-layer="523" to-port="1"/>
		<edge from-layer="523" from-port="2" to-layer="525" to-port="0"/>
		<edge from-layer="524" from-port="0" to-layer="525" to-port="1"/>
		<edge from-layer="525" from-port="2" to-layer="527" to-port="0"/>
		<edge from-layer="526" from-port="0" to-layer="527" to-port="1"/>
		<edge from-layer="527" from-port="2" to-layer="529" to-port="0"/>
		<edge from-layer="528" from-port="0" to-layer="529" to-port="1"/>
		<edge from-layer="529" from-port="2" to-layer="531" to-port="0"/>
		<edge from-layer="530" from-port="0" to-layer="531" to-port="1"/>
		<edge from-layer="531" from-port="2" to-layer="532" to-port="0"/>
	</edges>
	<meta_data>
		<MO_version value="2021.4.0-3839-cd81789d294-releases/2021/4"/>
		<cli_parameters>
			<caffe_parser_path value="DIR"/>
			<data_type value="FP32"/>
			<disable_nhwc_to_nchw value="False"/>
			<disable_omitting_optional value="False"/>
			<disable_resnet_optimization value="False"/>
			<disable_weights_compression value="False"/>
			<enable_concat_optimization value="False"/>
			<enable_flattening_nested_params value="False"/>
			<enable_ssd_gluoncv value="False"/>
			<extensions value="DIR"/>
			<framework value="onnx"/>
			<freeze_placeholder_with_value value="{}"/>
			<generate_deprecated_IR_V7 value="False"/>
			<input value="input_seq"/>
			<input_model value="DIR/forward_tacotron_duration_prediction.onnx"/>
			<input_model_is_text value="False"/>
			<input_shape value="[1,241]"/>
			<k value="DIR/CustomLayersMapping.xml"/>
			<keep_shape_ops value="True"/>
			<legacy_ir_generation value="False"/>
			<legacy_mxnet_model value="False"/>
			<log_level value="ERROR"/>
			<mean_scale_values value="{}"/>
			<mean_values value="()"/>
			<model_name value="forward-tacotron-duration-prediction"/>
			<output value="['embeddings', 'duration']"/>
			<output_dir value="DIR"/>
			<placeholder_data_types value="{}"/>
			<placeholder_shapes value="{'input_seq': array([  1, 241])}"/>
			<progress value="False"/>
			<remove_memory value="False"/>
			<remove_output_softmax value="False"/>
			<reverse_input_channels value="False"/>
			<save_params_from_nd value="False"/>
			<scale_values value="()"/>
			<silent value="False"/>
			<static_shape value="False"/>
			<stream_output value="False"/>
			<transform value=""/>
			<unset unset_cli_parameters="batch, counts, disable_fusing, disable_gfusing, finegrain_fusing, input_checkpoint, input_meta_graph, input_proto, input_symbol, mean_file, mean_file_offsets, move_to_preprocess, nd_prefix_name, pretrained_model_name, saved_model_dir, saved_model_tags, scale, tensorboard_logdir, tensorflow_custom_layer_libraries, tensorflow_custom_operations_config_update, tensorflow_object_detection_api_pipeline_config, tensorflow_use_custom_operations_config, transformations_config"/>
		</cli_parameters>
	</meta_data>
</net>
